rl_planner/rl_agent/model/obs.model (npz, 131921 bytes, 10 tensors)

l2/b f4 [50]
00000000: 2b2a 8a3d 14e9 333e 57b7 4b3e fbfa 85bb
00000010: 93f9 623e a826 a73d 34c3 883b acdb fd3d
00000020: 5d47 65bd ede9 3b3e 0770 323c 1fbe 0dbd
00000030: 7515 5a3e 7b77 3ebc 91d4 243e 027d 0cbe
00000040: 3c41 12bd 867d 11be ee7f 413e 0b2a e43a
00000050: ec61 4b3d 62e7 b1bd 11f4 e4bc d81c 343e
00000060: 7d3e 4f3d d465 72bd c086 2abc cb14 793b
00000070: 91e0 93bc 4ff3 753e 7802 3d3e cd88 4f3e
00000080: 1a12 333d 8476 8f3c cc64 4d3e 0aaf abbd
00000090: 0cf3 b3bc d98c e83d 962e e5bd 8f52 5bba
000000a0: eb07 263e a563 14bd 8ecc c4bd 8b8c 453e
000000b0: f011 36bc c2b5 c1b8 d26b 87bc 5c95 24be
000000c0: de8f 043e fdd2 2f3d
0.06746324 0.17569381 0.19894157 -0.004088757 0.22165518 0.0816167 0.0041736607 0.12395415
-0.05597626 0.18350954 0.010890967 -0.03460514 0.21297248 -0.011625166 0.16096713 -0.13719562
-0.035706744 -0.1420804 0.18896458 0.0017407549 0.049653932 -0.08686711 -0.027948411 0.17589128
0.050596703 -0.059179142 -0.0104081035 0.0038006778 -0.018051418 0.24018596 0.18457973 0.20267029
0.043718435 0.017512567 0.20057982 -0.083829954 -0.02196648 0.113549896 -0.11190526 -0.0008366489
0.16213958 -0.03622784 -0.09609328 0.19291894 -0.011112675 -9.236812e-05 -0.016530905 -0.16072601
0.12945506 0.042925823

l1/W f4 [100, 100]
00000000: 76bc a1bc 392e 1abe dcc6 56bd fb5b cabd
00000010: 20da 2bbc fbee 14be a0c3 81bd 33b5 6f3d
00000020: 90ed d53c aa78 1fbd 4f24 83bc dcae 56be
00000030: e1dc 0d3e ea53 8e3d 5c4d 8b3c bf17 f7bd
00000040: fdd4 a03d 39fa 113e 5b69 eabd d972 da37
00000050: 55cd 2d3d 4bf7 173e b890 0ebe bdbc d6bd
00000060: 6dcd 0d3e 3d45 393d e2d4 94be 1a73 c33c
00000070: b2fd 4cbd ac28 e93d 6b46 a9be c352 49be
00000080: 7958 f63d 508e dfbc 4999 6abe 48c3 8abe
00000090: c586 d1bd c07c 99bc a6c0 7abd ff4f 293e
000000a0: c844 a63d 55ef ad3b e675 dfbd f756 e33a
000000b0: 65c3 6fbe 2a8b 053a 0ca5 2c3e 1f59 b6bd
000000c0: 4907 443e 8b5b 00be 9c4f a7bd 3729 33bd
000000d0: 58b9 393e 1bec babd 8ca3 9c3c 77fd 9bbd
000000e0: 2562 063d a713 c23d 6cb2 8e3e eed4 c2bd
000000f0: 1075 f53c 26cc 80bd 4456 8a3b 06ad 1cbd
00000100: 9d8a b4bd 0a99 713d de3f 6a3e c6ae 15be
00000110: 77d1 b2bd d54c cbbc db75 d93d aa7e c6bd
00000120: d448 783d 7223 02bd 0074 3cbc eccf 043e
00000130: bcb7 0d3d 44fb 2bbd 4f3f fb3c 7bd1 70bd
00000140: 1570 653c 3576 3fbe 4c22 c73c e22e 493e
00000150: 537c c33d c0ec 8abe 3541 183e 324f 86bc
00000160: c850 943d 899e 4e3e 4eee 93be abce 903d
00000170: 8374 6cbe 1906 23bd 4aef 3a3d a965 c13d
00000180: d5e6 7abc e605 81bc 0464 d9bc 0984 2dbe
00000190: e6df 8abe 479e 3b3e ab76 62bd ebfb 83be
000001a0: fd9b de3d 27fd 193e 527e 3ebd c7ae b33d
000001b0: 0ca8 0cbd 8c13 e4bd 85ad 8d3d 1a90 65bd
000001c0: 1448 9c3e c394 353c 7411 cfbc 0b1f 39bb
000001d0: 4709 ad3d ed69 543d e816 18bc bea3 da3d
000001e0: 026f fd3d 2a18 c4bb 12d8 7abe e851 dabd
000001f0: 15a0 493d a393 ef3c 167b efbc 2e32 f63d
00000200: 3f45 1cbe cddb 483e 5133 03be 7dee db3d
00000210: f8bf ef3d d06b cabd effc b7bc a5c8 71bc
00000220: d5a7 813d 72be e1bd 67bf 203e eb24 833e
00000230: f787 51bd 1c98 8cbd e608 143e eb21 ba3d
00000240: 8f9c 3f3e 05bf 683e c459 a33b c89c 27be
00000250: d992 3fbd 3894 c53c 3d29 d5bd 9e4e 61be
00000260: 1445 3abe bbc3 11be abcc 00be 63ca 333e
00000270: d024 71bd 7e94 aebd e1a4 74be 2c26 38bc
00000280: 1441 013e baae a43d 18cc 303e 9748 cf3c
00000290: 2cce 7fbd 2f82 373b 3c1d 17bb 57fb c33d
000002a0: b1b3 7ebe 162b 30bd 9340 753d 8faf 153b
000002b0: 5153 b1bb 8380 8fbd 41bf 5c3e 7211 0d3e
000002c0: 9865 1abe 3ec0 9c3d 9be5 23bd 634c fc3c
000002d0: f757 023e 08e6 40bd a618 043d 109c 01be
000002e0: 9406 4e3e 1801 dcbd 08f9 e1bd 83af d4bd
000002f0: 3ac7 cfbc 0abb a0bd 5eed 163e 0b8a 93bb
00000300: d186 8c3d 5720 163c 996c 19bd 5b65 c73c
00000310: fea8 8ebe db1e 1ebe ab03 78bc 3d09 013d
00000320: 588e 16bd 92ef 95bd 16a9 82bd f823 cd3d
00000330: 4915 fdbd e6bb c5bd b442 163d e51d 10be
00000340: 78f9 e5bd 8297 d23d a4c0 1abe 1b63 04bb
00000350: a532 763c 922f ac3d 4db7 cf3d 9a15 45bd
00000360: 7803 debc 9b5d b23d 7b86 2fbd 74e6 013d
00000370: f80e e03d 1189 39bb 71ed c0b9 1a16 58be
00000380: eaec eebd 7579 923d 0296 c9bd be95 ddbd
00000390: 27e1 17bd d635 843c d7f2 cfbc fb23 d33c
000003a0: 9ff9 413e fc4f 8abc d6be 023d 2263 1abb
000003b0: e688 18be cfb3 073e 1ca1 033e 104b 0abe
000003c0: 3b3b 1ebd 4e48 1b3d 6fdb 6ebc ef33 09bd
000003d0: 3aba 0abe c2d9 01bc ce86 c2bb 286b 48bd
000003e0: 9350 5b3e 96bc 233d e0d3 8abd a1ca a53c
000003f0: 06b5 cabd 7bfa 953d 8d15 f63b 292d 95bd
-0.019743185 -0.15056695 -0.05243574 -0.09880825 -0.010489017 -0.14544289 -0.06336141 0.058522414
0.026114255 -0.038933434 -0.016008524 -0.20965141 0.1385379 0.06949599 0.017004661 -0.12065076
0.07853124 0.14255609 -0.11445876 2.6041105e-05 0.042432148 0.14840429 -0.13922393 -0.10485218
0.13847895 0.045232046 -0.29068667 0.023858596 -0.05004663 0.11384711 -0.33061537 -0.19660477
0.120285936 -0.02728954 -0.22910036 -0.27102113 -0.102307834 -0.018736243 -0.06121888 0.16534422
0.08118588 0.0053080716 -0.10911159 0.0017344643 -0.23414381 0.00050942844 0.16859835 -0.08903717
0.19143404 -0.12534921 -0.08169481 -0.043740477 0.1813711 -0.09127065 0.019120954 -0.07616704
0.03280844 0.09476405 0.278705 -0.09513269 0.029963046 -0.06288938 0.0042217094 -0.038250946
-0.08815501 0.05898384 0.22875926 -0.14617452 -0.087313585 -0.02481691 0.10618182 -0.09692128
0.06061633 -0.031772085 -0.011502266 0.12969941 0.03459905 -0.041987672 0.030669836 -0.058793526
0.014003773 -0.18697436 0.024308346 0.1964679 0.09545197 -0.2713375 0.14868625 -0.016395185
0.0724197 0.20177664 -0.2889275 0.07070669 -0.2309132 -0.039800737 0.04563836 0.09443218
-0.015313824 -0.015749883 -0.026536949 -0.16944899 -0.27123946 0.18322097 -0.05528895 -0.25778136
0.10869596 0.15037976 -0.046507187 0.087735705 -0.03433995 -0.11136541 0.06917862 -0.05604563
0.3052374 0.011082831 -0.025276877 -0.0028247263 0.08449035 0.05185883 -0.009282805 0.106757626
0.12374689 -0.005984326 -0.24496487 -0.106601536 0.04922493 0.029245203 -0.029233497 0.1202129
-0.1526079 0.19615097 -0.12812544 0.107388474 0.11706537 -0.09883845 -0.022459475 -0.01475731
0.063308395 -0.11022653 0.15698014 0.25614104 -0.051155057 -0.0686495 0.1445652 0.090885006
0.18712066 0.22729118 0.004985066 -0.16368401 -0.046770904 0.024118528 -0.10408256 -0.22002646
-0.18190414 -0.14234821 -0.12578075 0.17557673 -0.058872998 -0.085244164 -0.23891021 -0.01123957
0.12622482 0.08041139 0.17265356 0.025303168 -0.06245248 0.002800118 -0.0023058197 0.09569424
-0.24873234 -0.04300984 0.059876036 0.0022840237 -0.0054115434 -0.070069335 0.21557333 0.13776186
-0.15077817 0.07653855 -0.04001389 0.030798143 0.12728868 -0.047094375 0.03225007 -0.1265719
0.20119697 -0.10742396 -0.11033827 -0.10385039 -0.025363553 -0.07848175 0.14738986 -0.00450254
0.06861652 0.009162984 -0.037457082 0.024340322 -0.27863306 -0.15441458 -0.015137593 0.03150295
-0.036756843 -0.07321085 -0.06379907 0.10016626 -0.123575754 -0.096549794 0.036684707 -0.14073904
-0.11229223 0.10282804 -0.15112549 -0.0020200673 0.015026723 0.08407511 0.10142384 -0.048116304
-0.027101263 0.0870926 -0.04285286 0.031713918 0.10940355 -0.0028310458 -0.00036798 -0.21102181
-0.116662815 0.07152072 -0.09843065 -0.10819577 -0.037079956 0.016138952 -0.02538435 0.025773993
0.18942879 -0.016883843 0.031920277 -0.0023557623 -0.14895973 0.13252185 0.12854427 -0.13505197
-0.038630705 0.037910752 -0.014578684 -0.033496793 -0.13547602 -0.007925453 -0.00593648 -0.048930317
0.21417455 0.03997477 -0.06778693 0.020238223 -0.09897809 0.07323166 0.0075098933 -0.07284004

l0/W f4 [100, 182]
00000000: ef7c 673f 36c9 c9be 1779 883b 0aa8 6e3d
00000010: 60d0 89bb f38e 8a3c e44a 773b e079 50bd
00000020: 426c 0eba 7063 dabd 6849 0abe d7ee 8d3d
00000030: e755 043c c55a 27bd 0a80 94bd 9e4e da3c
00000040: 4962 b93c d99d 613e 501f 56bd d17c 11bd
00000050: 89eb 5a3e e767 7d3d 551c f7bc a929 61bd
00000060: 6384 6abd 01f3 26bd 838f 903d b77c c13b
00000070: 7127 583d 4daa 27bd 835c 3b3d 7342 323d
00000080: 670e a83d 48cb 5dbe 30a2 e3bd 9b8a 823c
00000090: 8947 ef3c 9ec6 6e3c 143f 383d 0603 1abe
000000a0: a75e 243c 8afc 9a3d d058 1dbe 19eb 7ebd
000000b0: e094 9f3d d37f 373e e484 a73c 1d3e 223e
000000c0: 237a 97bc 77d0 193d 6386 993d d8cc 75bb
000000d0: d71d 29be 87c9 c63c 97c2 d83c 851e 42be
000000e0: 5488 3dbc 2168 853d 51b9 0fbd 0352 77bd
000000f0: fb4c 0a3e 5208 bfbc ef51 64bd eb1b f2bc
00000100: b150 eabb 0adc 15bd dc0a 9cbd c0d0 993d
00000110: fbfc 193e 18db 23ba 5be7 343e 1cbc 943d
00000120: 5a30 1c3e 1ba2 ab3d 80ef df3d c285 273e
00000130: 0ecb 833d 7f04 83bd 6e91 4ebc 31a4 60bd
00000140: 931c 9c3d 5ff3 52bd ed15 7cbe 5bb0 96ba
00000150: 2a3d 8fbd bd7f 0dbd 2cb5 023d 7b74 ca3d
00000160: 24ad 0d3e 4c17 1c3e 71b2 c3bb 575c 2d3e
00000170: b720 6cbc ac72 bc3c ec30 083d 6be7 983d
00000180: 0512 193d fd98 50bc c0c7 55bd b0a1 ec3c
00000190: 0066 a83b 4e4e 65bd 74b0 003d 3e49 cbbc
000001a0: 9d1a bdbc 99be a13d 85b9 3dbd cc9e 133e
000001b0: 60ed a63d f436 83bd 382f a2ba 1d33 30bd
000001c0: d1b9 aebc e778 77bc f200 0b3d b2d1 e4bd
000001d0: 9bb1 fe3d 55ca c53d 33e3 04be 4eb9 ff3b
000001e0: cc99 19be b4d3 8cbc 6dde db3d 1ab1 983d
000001f0: a525 153d 63fb dfbd ead9 fbbb c2bd c13c
00000200: 7a4d a6bc 22da 0e3c 53a0 89bd bb9e 79bd
00000210: 19ff 09be 6c67 9f3d 7cd3 ed3c 2e6e d8bd
00000220: a36e d03d c3c3 293d a106 643e 0341 283d
00000230: 9762 89b9 7f7a b23d a1fa f7bc d985 723d
00000240: 96c5 c1bb d340 8d3c d440 b0bd a0b6 73bc
00000250: 2384 9a3d 50ec 37bd dad6 75bc a9ee b23d
00000260: c0a8 0e3e 0b1d debb 0d42 4cbd 0273 82ba
00000270: efd2 69bd 3ab7 06be e26f 97bc f6bf 3abc
00000280: cb3b 873e 1f7e 053e 15f9 fd3d 7342 9fbd
00000290: 0eb2 22be 1251 e5bc 95c8 a93d 6cb0 793d
000002a0: 9b57 723d 37af 51bc 436f 1abd cfe5 8cbd
000002b0: 6172 9abc fbcb bd3d 595c 063d ea3a 47bd
000002c0: 8257 4c3d 4a69 bebc 5efa 2abe 3c2b a2bc
000002d0: 9d66 483d 4208 a73d bfb4 6dbd d080 51bf
000002e0: 8c0c d8bc daec 2f3e c4bb 083d eb33 1f3b
000002f0: b7c4 da3c ab1a 063d 7d2e a4bd 508e 423c
00000300: 9ecc 103e 2142 a43d 4d13 c7bd 8f8c 0a3d
00000310: 4876 bb3d fa6b 16bd 8af9 1bbd 6ba8 ae3d
00000320: ba67 2dbd d3a8 bd3c fbdc 073e b095 70ba
00000330: 2b22 a1bd dbc9 83bd a875 c6bd 273f c8bb
00000340: 546b 033c 2492 f73d 5615 fa3b 7d5c a0bb
00000350: 2fc0 823c ca65 7ebd 4220 013e 9445 62bc
00000360: 35e8 cebc 7e59 3a3d 0c18 00be 7409 afbe
00000370: 9a5d d9bd c3b4 c23d 764f a4bd 44fd 193e
00000380: c11c fbbc 2ad1 f33d 8cff 013d a4b3 473e
00000390: 263b 02bd fd86 f8bd 69e1 48be 0907 e7bd
000003a0: e07d 1bbd 4907 b83d bc1c 45bd 0167 1c3e
000003b0: c806 f43d e86e 0c3c bd80 2e3d 78c4 10bd
000003c0: 1b3b 753d 8471 a4bd b5bb da3c 3da4 8bbd
000003d0: e753 423b 8e0a 79bd a66c 893d d08d 44bd
000003e0: 4b2d 46bb 60fd d9bd 99eb bdbc aafe f33c
000003f0: b150 97bd 28f5 70bd 2569 abbc e892 313d
0.9042501 -0.39411324 0.0041648257 0.058265723 -0.0042057484 0.016913867 0.0037733847 -0.05089748
-0.0005433002 -0.106634974 -0.13504565 0.06930321 0.008077121 -0.04085805 -0.07250984 0.026648816
0.022629874 0.2203287 -0.052275956 -0.035519425 0.21378912 0.061866667 -0.030164877 -0.05497137
-0.05725516 -0.04075909 0.07058623 0.0059047597 0.05277199 -0.040933896 0.045742523 0.043520402
0.08205872 -0.21659577 -0.11114919 0.015935233 0.029208915 0.014573721 0.04498203 -0.15040216
0.0100323325 0.07567699 -0.1536591 -0.062235925 0.077920675 0.17919855 0.02044911 0.15844007
-0.018490857 0.037552323 0.07496335 -0.003750613 -0.16515289 0.024266018 0.026459975 -0.18956955
-0.011568148 0.06514002 -0.03508884 -0.060380947 0.13505928 -0.023319397 -0.0557422 -0.029554328
-0.0071507324 -0.0365868 -0.07619259 0.07510519 0.1503791 -0.0006250604 0.1766638 0.072624415
0.1525282 0.083805285 0.10934353 0.16359618 0.06435214 -0.06397342 -0.012607915 -0.054844085
0.076226376 -0.051501628 -0.24617739 -0.001149665 -0.06994088 -0.03454565 0.03191106 0.09885498
0.13835579 0.15243262 -0.0059721996 0.16929756 -0.014412097 0.023003899 0.03324978 0.074660145
0.0373707 -0.012731788 -0.05219245 0.028885692 0.0051391125 -0.05598288 0.03141828 -0.024815198
-0.02308398 0.07897682 -0.046319503 0.14416045 0.081507444 -0.06406966 -0.0012373691 -0.043017495
-0.021328839 -0.015104509 0.03393645 -0.11172809 0.12436219 0.096577324 -0.12977295 0.0078040725
-0.15000075 -0.017190792 0.10735784 0.074556544 0.036412854 -0.1093662 -0.0076858895 0.023650054
-0.020300616 0.008718999 -0.067200325 -0.060942393 -0.13476218 0.07783398 0.029031508 -0.1056789
0.10177352 0.04144646 0.22268154 0.041077625 -0.0002620413 0.087147705 -0.030270876 0.05920968
-0.0059134467 0.017242825 -0.08606115 -0.014875084 0.07544734 -0.0449031 -0.015004838 0.08736927
0.1393156 -0.0067783645 -0.04986768 -0.0009952488 -0.057085928 -0.13155833 -0.018485967 -0.011398306
0.26412806 0.13036393 0.12401024 -0.07776346 -0.15888235 -0.027992759 0.08290211 0.060959265
0.05916558 -0.012798122 -0.037703764 -0.0687977 -0.018853368 0.09267422 0.032802913 -0.04864017
0.04988814 -0.023243565 -0.1669707 -0.019796006 0.048925985 0.08155872 -0.0580337 -0.8183718
-0.02637317 0.17180195 0.033382192 0.002429242 0.02670513 0.032740276 -0.080166794 0.01187475
0.14140555 0.080204256 -0.09720478 0.033825453 0.0915342 -0.03672407 -0.038079776 0.08528217
-0.04233525 0.02315179 0.13267891 -0.00091775786 -0.07867845 -0.06434985 -0.0969041 -0.006111044
0.0080211945 0.12088421 0.007631938 -0.004893838 0.01596078 -0.062108792 0.12609962 -0.013810534
-0.02525721 0.045495503 -0.12509173 -0.341869 -0.10613556 0.09507134 -0.080229685 0.1503802
-0.03065336 0.11905129 0.03173785 0.19502121 -0.03179469 -0.12135122 -0.19617237 -0.11280639
-0.03796184 0.089857645 -0.048123106 0.15273668 0.11915356 0.008571364 0.042603243 -0.035343617
0.05987082 -0.08029464 0.026700834 -0.06818435 0.002965206 -0.06080108 0.06710176 -0.047986805
-0.00302394 -0.106440306 -0.02318363 0.02978452 -0.073884375 -0.05882755 -0.02092416 0.04335299

l3/W f4 [25, 50]
00000000: 0b0f 723e c1e5 633e 6014 e23c c09a 7fbe
00000010: 5eb1 3dbc a66b 69be 2ea0 0cbc 47a6 c1bd
00000020: 64dd 8a3d 707d bb3d 724f d8bd 36b3 5a3d
00000030: aacd 8a3d af23 ad3e 0b92 143e 4f3c 9c3e
00000040: 9a96 b3be f872 bb3c 8116 943d dfa9 bcbd
00000050: eaa0 a2bd 66c6 3fbe 4bba 073e e12f cbbd
00000060: db3c 0f3e 1ce8 763e ad59 ab3e 0aeb 353e
00000070: 3777 493d dee1 17bc d628 25be 2379 8a3e
00000080: 9573 2bbd 8a32 a63e 43df 9a3d ec26 7e3e
00000090: 3227 acbc 651b 543e 6686 afbe 8593 f13d
000000a0: 26a4 dabc 939a 95bd 53a6 703e d340 3e3e
000000b0: 2742 49be 4f62 48bd 2600 2dba 0a2d 083d
000000c0: f0c1 df3d dfc9 5cbe 104f 513e 30b6 3fbe
000000d0: f753 a43d 9bf6 1fbe d1ac d9bd b979 1b3e
000000e0: c61d b5bc dec5 f5bc 11f6 463e 95b3 e2bc
000000f0: 24f7 ba3d 9bb3 113e 6d02 28bd ba5e 21be
00000100: 5d66 2c3d 2957 c83e e45b dcbd 2fac 5a3d
00000110: 5570 eb3b 692d 873c 0702 85be dc90 bb3e
00000120: da9d bd3e c63a 3b3e 20a7 d83d 47fb 6c3d
00000130: d807 f6bd 35d4 043e 4295 0abe 3da4 48bd
00000140: ad04 1d3e 2c58 91be bd27 ddbd 39f0 39be
00000150: 0f46 323e 8fe4 1cbe 72cf 4abe 0873 85be
00000160: ee2c e83d 06fe 13be b3d3 a9be a6ac 883d
00000170: d1e0 82be 09c3 2abe 1a8a 7fbd 5431 2f3d
00000180: 9fee 05be 8405 40be 5161 363e 255c e13d
00000190: 421c 98be c23e 6bbc 0680 293e e2a4 f33d
000001a0: 8c14 883d 4d1e 083e 00ee 92bc 908b c63d
000001b0: 1e57 a2be e275 843e ca9d bc3d 2b17 cc3c
000001c0: 20bb 503e 957c 5fbd b913 acbd a4e2 d5bd
000001d0: 5157 68bc 03d2 a43c 739f ea3d fd3d 3cbd
000001e0: 578b ac3e 7e40 b83e 2534 5dbd 7ca1 36be
000001f0: d454 e93d d95c a3be f534 cfbd f4ef 02be
00000200: e578 e03d 3a72 553c d952 843d 8bf6 1f3e
00000210: ea2a b73e e1e7 08be c636 2dbe 491e 13be
00000220: 42ed 0dbe d758 f9bc 698b 5dbd 1bd1 6c3e
00000230: 9ff2 2a3e ea24 f53c ccf6 ab3c 47f9 f3bc
00000240: a863 4e3c 171e 633c 681b 0bbd 7a04 74be
00000250: 99a1 143d dfe6 bebd 5b3f 11bd c572 043e
00000260: a588 afbc 3ed9 edbb 32b1 9ebd 15b8 d63c
00000270: 2533 b53d 817b 86bc c697 2f3e 2fcb 99bd
00000280: 06f6 263e da1b 1c3d 7085 79be aa37 063d
00000290: dea9 8dbc bf0b 70bd 49a4 db3c 3742 693d
000002a0: aad9 ef3b 5158 993e 608a 3a3d 5fcb 813d
000002b0: aef2 91be 9f8a ba3d 4798 1b3e fdbb 99bb
000002c0: 9a1e e13d 3c83 023e b433 67be 2ac7 be3e
000002d0: ffc5 193e 6cc9 dfbc 1100 f4bc b86b b7bd
000002e0: f55f bb3d 7cfe 563c aac9 1b3e 4a37 95bb
000002f0: ea40 a23d 9d6e 98be 8204 d43d dae2 2fbe
00000300: 205a c63c 73ce 00bc c411 933e 317f 0f3e
00000310: c791 3abd a316 82be 279f fb3d 03ec 3fbe
00000320: bf83 e63d 9ec2 8cbc 64c0 c5be 7e09 cd3b
00000330: b329 f8bd 00d6 7abe 38e4 b8bd ea67 f0bd
00000340: ab20 94bc d89e 04be 7242 cb3c 8361 ee3c
00000350: 4f5f 24bd ee45 2b3e 697c 42be 7277 913e
00000360: adc7 e93c 446e e1bc 8f27 0e3d 4af2 88bd
00000370: 74d2 033e 72a0 4ebd e181 bb3d a154 f33d
00000380: fac7 37be 2472 cbbd 3320 093e 6948 66be
00000390: 352c 413e d917 223e 85ca ecbd 300f c8bd
000003a0: 8c20 503d 26fe 073e 47ac fc3c 4de3 0d3e
000003b0: 0365 f43d 4d31 453e 0691 423d 2e71 d93d
000003c0: 6ae4 5cbd 6407 44be 6657 023e f9d5 553e
000003d0: 1d51 d0bd eb56 62be 9939 913e 578d 47bd
000003e0: a541 2c3d 9d1c 823e a10d e83b 59db 60be
000003f0: 93ad 603d 20ad 78bd b74a d63d b3e5 f23c
0.23638551 0.22255613 0.027597606 -0.24961376 -0.011577932 -0.22794971 -0.008583112 -0.09455543
0.06780508 0.09154785 -0.10562028 0.053393565 0.067775086 0.33816287 0.14508836 0.30514762
-0.35075837 0.02288197 0.07230855 -0.09212088 -0.07940848 -0.18728027 0.13254659 -0.099212416
0.13988058 0.2411198 0.33466855 0.17765442 0.049185958 -0.0092701595 -0.16128859 0.27045545
-0.041858274 0.32460433 0.07562115 0.24819535 -0.021014784 0.20713575 -0.34282225 0.11795715
-0.0266896 -0.07304873 0.23500948 0.18579416 -0.19654141 -0.04892188 -0.00065994484 0.033246078
0.109256625 -0.21561383 0.20440316 -0.18721843 0.080238275 -0.15621416 -0.10628665 0.15183152
-0.022108924 -0.030001577 0.19429804 -0.027673522 0.091291696 0.1422867 -0.04101794 -0.15758792
0.04208981 0.39128998 -0.10759714 0.053386863 0.007185022 0.016501145 -0.2597811 0.36633956
0.37034494 0.18284139 0.105787516 0.057856824 -0.12013215 0.12971576 -0.135335 -0.048984755
0.15333815 -0.28387582 -0.10798595 -0.18158044 0.17409538 -0.15321563 -0.19805697 -0.26064324
0.11336695 -0.14452371 -0.33169326 0.06673555 -0.25562146 -0.16675963 -0.062387563 0.042771652
-0.13079308 -0.18752104 0.17810561 0.11003903 -0.2970906 -0.014358224 0.16552743 0.11896683
0.06644544 0.13292809 -0.017935753 0.09694588 -0.3170709 0.25871187 0.092097834 0.024913391
0.20383883 -0.05456217 -0.08402199 -0.10443619 -0.014180974 0.020119673 0.11456194 -0.045957554
0.33700058 0.35986704 -0.054004807 -0.17835039 0.11393133 -0.31906775 -0.101175226 -0.12786847
0.10960559 0.013027722 0.064611144 0.15621392 0.35774928 -0.13369705 -0.16915426 -0.14367022
-0.13860038 -0.03043787 -0.05408803 0.23126642 0.16694115 0.029924829 0.020991705 -0.02978195
0.012597002 0.013862154 -0.033961684 -0.23829833 0.036286924 -0.09321379 -0.03546081 0.12934406
-0.021427462 -0.0072585633 -0.07748641 0.026210824 0.08847646 -0.016416313 0.1714774 -0.07509457
0.16304788 0.0381125 -0.24367309 0.03276793 -0.017292913 -0.058604952 0.026811736 0.056947913
0.0073196488 0.29950193 0.04554212 0.06337618 -0.28505462 0.09108471 0.15194808 -0.0046915994
0.10992165 0.12745374 -0.22578317 0.37261325 0.15016936 -0.027317725 -0.029785188 -0.089560926
0.09149162 0.013122197 0.15213647 -0.00455371 0.079225376 -0.2977189 0.10352422 -0.17176381
0.024212897 -0.007861721 0.28724492 0.14013363 -0.04554918 -0.25407895 0.12286215 -0.18742375
0.11255597 -0.017182644 -0.38623345 0.006257235 -0.121173285 -0.24495697 -0.09027904 -0.1173857
-0.018081984 -0.12951219 0.024811957 0.029099232 -0.040129956 0.16725895 -0.18992771 0.28411442
0.028537596 -0.027518399 0.034705695 -0.06686838 0.1287325 -0.05044598 0.09155632 0.11881376
-0.17947379 -0.0993388 0.1339119 -0.2248856 0.1886452 0.1582941 -0.11562065 -0.09768522
0.05081229 0.13280544 0.030843867 0.1385624 0.11933329 0.19257088 0.047501586 0.106172904
-0.05392877 -0.19143444 0.12728652 0.20882405 -0.10171721 -0.22103469 0.28364256 -0.048718777
0.04205479 0.25412455 0.007081703 -0.21958674 0.054853033 -0.06071198 0.104634695 0.029650545

l4/W f4 [9, 25]
00000000: e264 19be e1cb 9f3e 3aac 94be e894 7b3d
00000010: 0944 2b3e afa0 f5bd 086c f7bc 4711 7ebe
00000020: 38e5 b33e 2d20 773e 4afc 233d 169d 70be
00000030: 8143 f63d 7954 f03d 2aff aabe c88a 32be
00000040: 8971 6e3e e9fe 3abe 5509 8c3d a16c 223e
00000050: 8b4a cb3e 7fab a13e ba32 edbe fcf9 5e3d
00000060: 5e0c 3f3e 80ed 2cbe 9098 f53e ddb2 d33d
00000070: a616 02be b94f 92bd c301 96bc 0489 913d
00000080: ee4e 06be 6367 8dbd 0499 71be 5d36 8c3d
00000090: 277f 1abe 351a 013f 28b6 c23e 5ae7 38be
000000a0: 9c44 7d3e f76c 3bbe 4e60 bebd 6d57 f9bd
000000b0: 7059 663c 2f36 1bbe 9307 10bb cc4f e9be
000000c0: f9b8 0cbe 021d 423a 5751 1ebe d1bc bd3e
000000d0: 0b5b acbd c279 863e 6d3c 2b3e c51a bcbe
000000e0: 2909 4d3e 6ba8 c6be db6e cc3e fbba b3be
000000f0: 453f 8c3e ddae ae3d 4eed 543c 1c23 71bb
00000100: 4ce0 cc3d e1bd 23bd b851 9abe 224f 19be
00000110: b64c 5d3e 62de 343e 555a 853d 34c1 143e
00000120: 3539 94be 7a19 973e 8129 8bbe cf05 8ebe
00000130: 20eb 7bbb 02b1 c7bd 0594 c3be ff6b ab3e
00000140: 77fa 9a3e d800 78be d356 203d e383 c33e
00000150: 25ab 5bbe 6242 643d 2b14 d43d e03b a3bd
00000160: c02e a33d 561f 31bd 66d3 12bc 7e71 99be
00000170: dc46 a13d cbdb d23e 358b 853d d852 a5be
00000180: 4033 42bd f535 d1be ec2c 313e ce22 9e3e
00000190: f1ad fb3d e4cf 613e ee8e 70be e153 acbe
000001a0: 30cb 2b3e a3d0 c63e 6502 e5bd 4bab dcbd
000001b0: 48cc 2a3e 37f6 c53d d2d1 ca3d b62b 96be
000001c0: f7cb 1ebd 9527 943e c1d3 833e 7090 afbe
000001d0: fc79 9dbe b75e bbbe b0de ac3d b695 8dbe
000001e0: a105 923e 3af3 6e3e 21c1 aebe 4f55 a5bd
000001f0: e30a 28bd bc96 90be 7d03 a53e d107 1ebe
00000200: a2c9 a63e 4f82 d63c b024 583d 9442 78be
00000210: b8a6 c8be 9409 3e3e 6969 b53d 22c9 1f3e
00000220: c864 4bbe 2115 8a3e e4bd 783e 6ed8 493e
00000230: f6bd 923e 8349 b3be 4d20 523a 40fe dc3e
00000240: 1042 fbbc 1960 553e ebc4 333e ddf7 5c3d
00000250: 629f 933e 07c1 233e 7517 34be dcbb 413c
00000260: bbe2 b23c cd5f ffbd 14ca 093e d6b3 083e
00000270: 01a0 f2be d75b 96be 73f3 403e 12bc 823d
00000280: 7c7e 0e3c 9814 91be 0e5e 293e 8fd1 de3d
00000290: 4a9c 053d 6194 3fbe a2c3 903c eae6 1d3e
000002a0: 0907 313f 928a 443e 650a 4dbe 45b2 923e
000002b0: 69d3 f5bd 743f 3bbe 5ca6 a73d 07db 813e
000002c0: dca3 923e fbbc 8cbe 3820 db3d 921a 6bbe
000002d0: 3f6d 153e d1e2 bfbe 23d6 2fbe 7c6e 813e
000002e0: defc d1bd 1cb1 203e ff0f 643d fd96 08be
000002f0: ae17 463e 0974 753e 437b 05be 47d9 58be
00000300: fb0e 90be 6fd4 983e 37c2 34bd e6d8 4cbd
00000310: e88e e33d bc53 a4be 1a84 3dbe 33d3 a73e
00000320: 86be 463e 7aef 643e ab9d b83d 5dac 42be
00000330: 2762 973d 205a 20be f540 eb3d af2a 89be
00000340: 7532 72bd a11a 2b3b 3b45 c33e d41b 3c3d
00000350: 1909 0b3e 76e0 253e 1633 173e 8b74 963e
00000360: 6faf 48be af4f 3f3e 0692 023e de11 2abe
00000370: 9505 9d3c 867f 03bd 26ec ffbe 1d61 9bbd
00000380: bd5e 163f
-0.1497989 0.31210235 -0.29037648 0.061421305 0.16725172 -0.119935386 -0.03020288 -0.24811278
0.35135818 0.24133368 0.040035523 -0.23497424 0.12024594 0.11734862 -0.333978 -0.17435753
0.23285498 -0.18261303 0.068377174 0.15861751 0.3970531 0.31576154 -0.46327764 0.054437622
0.18657061 -0.16887474 0.47967958 0.1033685 -0.12703952 -0.07144112 -0.018311387 0.07106212
-0.13116047 -0.06904485 -0.23593527 0.068463065 -0.15087567 0.50430614 0.380296 -0.18057004
0.24733204 -0.18303286 -0.092957124 -0.12174878 0.0140594095 -0.15157388 -0.002197717 -0.45568693
-0.13742436 0.0007404835 -0.15460716 0.37058118 -0.084158026 0.2626477 0.1672227 -0.36739174
0.20023026 -0.38800368 0.39928326 -0.35103592 0.2739202 0.08529446 0.012996031 -0.0036794608
0.10003719 -0.039976005 -0.3014047 -0.14971593 0.21611294 0.17662957 0.0651137 0.14526826
-0.28949896 0.29511625 -0.27180102 -0.27738807 -0.0038439706 -0.097505584 -0.38198867 0.33480832
0.30269215 -0.24219072 0.039145302 0.3818656 -0.21452005 0.05572737 0.10355409 -0.079704046
0.07967901 -0.043242775 -0.008961534 -0.299694 0.078748435 0.41183314 0.06520692 -0.32289767
-0.047412157 -0.40861478 0.17302293 0.3088593 0.12289036 0.2205196 -0.23492023 -0.33657745
0.16776729 0.38831052 -0.11182097 -0.10774859 0.1667949 0.096661024 0.09903301 -0.29330224
-0.038768735 0.2893645 0.25747493 -0.34289885 -0.3075713 -0.365957 0.08440912 -0.27653283
0.2851992 0.23334971 -0.3413172 -0.08072912 -0.041026007 -0.2824 0.32229224 -0.15432669
0.3257571 0.026185183 0.052769363 -0.24244148 -0.39189696 0.18558341 0.08857996 0.1560407
-0.19862664 0.26969245 0.24291188 0.19711468 0.28660554 -0.35017022 0.00080156774 0.43162727
-0.03067115 0.2083744 0.17555587 0.05394732 0.28832537 0.15991603 -0.17587073 0.011824574
0.02183663 -0.124694444 0.13455993 0.13349852 -0.47387698 -0.29366943 0.18842869 0.06383528
0.008697148 -0.28336024 0.16539785 0.10879814 0.032619752 -0.18708946 0.01767141 0.15420118
0.6915136 0.19193485 -0.20023496 0.28651634 -0.12003214 -0.18285924 0.081860274 0.25362417
0.2864064 -0.2748793 0.106995046 -0.22959355 0.14592455 -0.37477735 -0.1717153 0.25279605
-0.10253309 0.15692562 0.055679318 -0.13338847 0.1934497 0.23970045 -0.13035302 -0.21176635
-0.2813643 0.29849574 -0.04413053 -0.050011538 0.111112416 -0.32095134 -0.18507424 0.3277832
0.19408616 0.22356978 0.09014448 -0.19011064 0.07391768 -0.1565938 0.11486999 -0.26790377
-0.05913015 0.0026108401 0.38138756 0.045924976 0.13577689 0.16198906 0.14765581 0.2938579
-0.19598173 0.1868274 0.12751016 -0.16608378 0.0191677 -0.032104038 -0.49984854 -0.07586882
0.5873831

l2/W f4 [50, 100]
00000000: 7c86 12bd ee83 1abe 6a6f 3cbd 9045 9bbd
00000010: 53c2 5bbe 7b56 cfbc 40c2 84bd 5f0e 08be
00000020: 0aa8 e23d 7845 edbd d98c a9bd 48cc ae3c
00000030: 32b2 213d cff9 0d3e 8a55 28be 591a 773d
00000040: 29ad e13d 384f ab3c 29d2 cf3d 0f0d ad3c
00000050: cd40 ccbd 7838 dbbd 4910 203e 56ed 383e
00000060: bc38 003c c7cc a6bd 3679 9abd 2c12 c23d
00000070: 54a5 a8bd 1035 2ebe a509 613e 419f 61bd
00000080: e51a 803e eaf5 803c a80e fd3d 267d 943c
00000090: 77c1 c53c b7a4 953d 5cce 7a3d ea5b 703d
000000a0: 33dc 5e3d b1be 95be fa9b 0ebe dbc5 85bd
000000b0: b895 363d d2c5 4bbd 04cc d43d 31dc 49bd
000000c0: a2c8 a1bd 6767 b2bd b152 743e 0b94 d4bd
000000d0: d804 283e 9a6b 27bd 1559 6d3c b84c 97bc
000000e0: 8e7c 353d eda0 943d ed4a d1bc 0223 dd3d
000000f0: 6bd2 babd fd8b f03c 87ef 3d3d d9cc 6ebe
00000100: 507d a1bd c002 863d 10d6 5ebe d09f 92bc
00000110: 48ed da3b 0888 d0bd ad4a 853e c580 8f3d
00000120: 46f9 efba 61c9 c5bd dd01 ab3c dc4c e93d
00000130: 3f67 e13d f5f5 0dbe 898d 243b 3725 d7bb
00000140: 1fda 0ebd fde0 1ebe 8aa8 d2bc 7980 343e
00000150: 1943 0b3e 789e 0f3d 9a2f 2e3e feb8 bbbc
00000160: 6180 85ba cb3b 04bd 7fb8 4c3d 33bc 4a3d
00000170: 6f51 07be 0e5e 143e 78cc 163b b590 4b3d
00000180: 60a5 343e 6ab5 8f3d d70c 063e af1d f93d
00000190: 7be4 87bd d8dd b7bd 944d ab3d 9e24 64be
000001a0: e7bd 68be 1d1d e0bd 8232 d1bd 4c27 7d3e
000001b0: ffe7 72be fcf6 8e3d 11bb e4be 000f ac3c
000001c0: 8212 1e3d b334 0d3e 6453 7cbe 18e5 69be
000001d0: f78c c7bd 202f 45be 4005 363c 5064 2f3e
000001e0: 62e6 09be 4386 7fbd 1712 cdbd b407 113e
000001f0: f70b dd3c f6f2 5f3d cddd c3bc 09fa 053e
00000200: 602e 7d3e e02d a5be 154e 06be 9a53 92bd
00000210: fd6e c23d efc2 603e 024b 423e 19f2 de3d
00000220: d150 703d e8c1 93bd 3c0e 38be 9567 ed3d
00000230: b7cf 893d a7e2 6dbe 39e6 b8bd d290 063d
00000240: dedf 253d b08e 6e3d 2bbf 083e 7cba 653e
00000250: 0e2a 303e 3afb eebd cc61 a83d 89e2 26be
00000260: 350d e83c abd0 de3d 22b8 debb c3ff ce3c
00000270: a8aa de3d 94a2 61be e328 0d3d 519f f0bb
00000280: 8db4 5b3d 1f33 3c3e 007d a33d e8f2 1abe
00000290: 05b3 39be 9de3 2e3b 58b0 68be 133c 46bd
000002a0: 3cc9 dbbc 4d03 813e e88f 01bc f5c5 e93d
000002b0: 4db6 b93d c949 42bd 1391 973d 0918 3e3e
000002c0: 14b4 383e fe11 963e 5f24 dbbd 889b 543e
000002d0: 596b 753d 8544 bbbd fc17 f3bb f432 31be
000002e0: c894 f93d 9d21 cf3d bb76 10bd a458 ea3c
000002f0: 02b5 ba3d 5d34 4cbd 2ff2 3fbe 88b7 51bd
00000300: f5f2 963d 690e f33d 9039 4fbd d2f1 7abc
00000310: c999 0e3e 7802 84be b400 e2bc 5f54 8abd
00000320: 3555 a43d bbf7 3ebe 9529 4e3c 87b1 d4bd
00000330: a2fe 3ebe 9336 3b3e 90ca 2dbd 9f9a 8bbd
00000340: 1320 edbd da54 583e 52d4 b3be 37d8 ef3d
00000350: b65a 99bc 5ddd 373d bd1b c5bd 76a2 a4bd
00000360: 9b1b 1dbe e588 42be e6c2 a23d b85b 6d3e
00000370: 198e c2bd 3af2 16bd 86b9 2c3d a999 0a3e
00000380: 2836 d3bd 6188 01be 2636 fabd 8232 41bd
00000390: 6d60 043e 6644 e2bd 8441 253e 9e07 5b3e
000003a0: 5fed 0c3e dc20 b53c 0f3a 9abd b3e5 22be
000003b0: ab22 28bd 72d4 803e 398a b93d a5b6 823e
000003c0: dd62 99bc 4863 85bd b3ac 573d 9a93 593d
000003d0: 2d5b 2dbc dabc 6b3e 5c7e 6f3e a368 be3b
000003e0: 057e 643e 6cac 31bd 4e73 5d3d 7ee8 e6bd
000003f0: 173c 893c 0d60 2fbd 3011 8e3e 2382 023d
-0.035772786 -0.1508939 -0.04600469 -0.07581627 -0.21460848 -0.025309792 -0.06482363 -0.13286732
0.11067207 -0.11585516 -0.08278818 0.021337643 0.03947658 0.13864826 -0.1643888 0.06032786
0.11019356 0.020911798 0.10147507 0.02112439 -0.09973297 -0.1070413 0.15631212 0.18059286
0.0078260265 -0.08144527 -0.075426504 0.09476122 -0.08234659 -0.17012429 0.21976335 -0.055083517
0.2502052 0.015742261 0.12356311 0.018126082 0.024140103 0.073068075 0.061231956 0.058681406
0.054409217 -0.29247048 -0.13926688 -0.065318786 0.044576377 -0.049749203 0.103904754 -0.049282257
-0.07899596 -0.08711129 0.2385967 -0.103797995 0.16408098 -0.0408741 0.014486571 -0.0184692
0.044308238 0.07257257 -0.025548423 0.10797693 -0.09122165 0.029363627 0.04637101 -0.2332033
-0.078852296 0.06543493 -0.21761346 -0.01789847 0.006681118 -0.10182196 0.26033536 0.07006983
-0.0018308542 -0.096575506 0.020874912 0.11391613 0.11006021 -0.13863356 0.0025108776 -0.0065657157
-0.034875985 -0.15515514 -0.025715131 0.17627133 0.13599814 0.035063237 0.17010346 -0.02291536
-0.0010185355 -0.032283586 0.049980637 0.049495887 -0.13214658 0.14489004 0.0023010056 0.04969855
0.1764121 0.07017024 0.13090836 0.12163865 -0.06635376 -0.0897786 0.08364406 -0.22279593
-0.22728692 -0.10943053 -0.10214712 0.24722022 -0.23721312 0.06980702 -0.4467397 0.021003246
0.03859187 0.13789634 -0.24641186 -0.22841299 -0.09743684 -0.19256258 0.01110965 0.1712811
-0.1346679 -0.0623839 -0.10013216 0.14163095 0.026983244 0.054675065 -0.023909474 0.13083662
0.24724722 -0.32261562 -0.13115723 -0.07144852 0.094938256 0.21949361 0.18973926 0.1088602
0.058670823 -0.07214719 -0.1797418 0.11592022 0.067290716 -0.23230992 -0.090282865 0.032852955
0.0404967 0.058241546 0.13354175 0.2243442 0.17203543 -0.116690114 0.08221778 -0.16297354
0.02832661 0.10879644 -0.0067968527 0.025268441 0.10872394 -0.22034675 0.03446282 -0.0073432107
0.053638984 0.18378876 0.07982826 -0.15131724 -0.18134697 0.002668596 -0.2272352 -0.048397135
-0.026829354 0.2519783 -0.007907845 0.114147104 0.09067974 -0.04743365 0.074007176 0.18563856
0.18037444 0.29310602 -0.107002966 0.20762455 0.059916828 -0.091439284 -0.0074186306 -0.17304593
0.12186581 0.10113833 -0.03526948 0.02860672 0.09116556 -0.049854625 -0.1874473 -0.05120042
0.07370559 0.11867983 -0.050592005 -0.0153164435 0.13925852 -0.25783134 -0.027588226 -0.06754374
0.080240645 -0.18649189 0.012583156 -0.10385423 -0.18651822 0.18282537 -0.042429507 -0.06816601
-0.11578383 0.21126118 -0.35122925 0.117111616 -0.018720012 0.044888843 -0.09624431 -0.080387995
-0.15342562 -0.18997534 0.0794733 0.23179519 -0.09499759 -0.0368521 0.042169116 0.13535179
-0.10313064 -0.1264968 -0.12217359 -0.04716731 0.12927409 -0.11048202 0.16138273 0.21389624
0.13762425 0.022110395 -0.07530605 -0.15907936 -0.041048687 0.25162083 0.09059567 0.25529972
-0.0187239 -0.06513077 0.052654933 0.05311928 -0.01058082 0.2302126 0.23388046 0.0058108135
0.22313698 -0.043377325 0.05406504 -0.11274813 0.016752286 -0.04281621 0.27747488 0.03186239

l1/b f4 [100]
00000000: 2e93 9ebd f2a4 e9bd 1b28 05bc 2988 41bd
00000010: 356c 53bd 4054 a4bc e104 69bc 0999 7a3d
00000020: 6cc0 7ebd 4f4e 08bd a5fe 90bd ebfa 683d
00000030: 7eb3 fdbc 47c9 8e3d 4960 cbbd 5bd9 74bd
00000040: bc49 e73c 0cf4 f5bd e75b 2b3d 7bac 8e3d
00000050: 9f4b 98bd 2232 60bd 3a46 443d b204 ee3c
00000060: 1777 0f3e 0a2b 883d d479 32bc 5bf4 9f3c
00000070: 6ced c13d 47e2 03be ec99 1a3e 788d 1f3e
00000080: 50f9 003e d878 d53d 1c45 2f3d dc51 c73d
00000090: e32e 98bd 44e8 203e b7dc d33d 32c7 213e
000000a0: 87b7 013e cea7 04be 88a6 0dbd b50a ac3c
000000b0: 2e4d 7bbd 8502 f33d 8617 533d 225a de3d
000000c0: 6af0 083e 418a ccbd d096 9c3d d30a 61bc
000000d0: e4e8 3b3d 4a5f 973d 9864 ff3d 1391 d83c
000000e0: 5cab 2e3e 06f1 b1bd c4bd 1cbd b8b2 a73d
000000f0: f9f5 9f3c d297 8f3d 94bf 103e af32 8fbd
00000100: 3334 c0bd c9ed dc3c 0464 62bd 2ac4 9ebd
00000110: e66a 343d 03c0 023e 54e4 a3bc db61 f83c
00000120: 0ba7 c93d 3c23 03bc a37c 253e 4c3f 393d
00000130: 8e60 f83d 4aae 38bc 80af 2a3d bf8d bf3d
00000140: 9729 3d3d 463d b7bd df4c c9bd bf26 9b3d
00000150: 05f7 c93d cff7 9fbc 95da ba3d 55a8 19bb
00000160: c33f dabc c994 383d 5df3 7c3d 5a50 fe3b
00000170: ce9c c43d cd05 4f3d e76e 2a3d b3d9 8d3d
00000180: ad9c 8a3d c6b1 92bd c48a a03b ee02 403d
-0.07742916 -0.11408414 -0.008127238 -0.047248993 -0.051616866 -0.020059705 -0.014222355 0.061181102
-0.062195227 -0.033277806 -0.070798196 0.05687992 -0.030969378 0.06971984 -0.09930474 -0.0597776
0.028233401 -0.12009439 0.04183569 0.06966492 -0.074362986 -0.05473531 0.047918536 0.029054973
0.14010273 0.06648834 -0.010893304 0.019525697 0.09469113 -0.12879287 0.15097779 0.1558131
0.12595105 0.1042344 0.042790517 0.0973241 -0.07430818 0.15713602 0.103448324 0.15798643
0.12667666 -0.12954637 -0.034582645 0.0210012 -0.0613529 0.11865715 0.051536106 0.10857035
0.1337296 -0.09987307 0.07645953 -0.013735491 0.0458764 0.07391222 0.124703586 0.026436364
0.17057556 -0.0868855 -0.038266912 0.08188385 0.019526469 0.07011379 0.14135581 -0.06992089
-0.09384956 0.026968854 -0.055271164 -0.07752259 0.04404726 0.12768559 -0.020006336 0.030320099
0.09846314 -0.008004006 0.16160826 0.04522638 0.12127791 -0.0112720225 0.041671276 0.09353208
0.04618224 -0.08947234 -0.09829115 0.075757496 0.09861568 -0.019527344 0.091237225 -0.002344628
-0.026641732 0.045063768 0.061755527 0.0077610435 0.096002206 0.05054264 0.04160967 0.069262885
0.06768165 -0.07162814 0.0048993547 0.046877794

l3/b f4 [25]
00000000: 6cc1 9b3d 00e6 0bbe 6151 2f3e 2ca9 803c
00000010: 3056 1fbb 88f4 d1bb 82b8 0c3e 97c7 883e
00000020: 525c 06be 654b 4bbc 5593 b6bd 64e9 073e
00000030: 81d1 7bba 292f b8bd dcf7 d3bc cd89 7d3c
00000040: a069 4c3e 62eb a2bc e614 adbd 8c80 ebbc
00000050: 7c19 10bd 527b b8bd 8b75 a73e f812 3bbd
00000060: c1b1 a1bd
0.07605252 -0.13661957 0.17120887 0.015705667 -0.0024312846 -0.006407324 0.13742259 0.26714775
-0.13121155 -0.012408112 -0.0891482 0.13272625 -0.00096061087 -0.0899337 -0.025875024 0.015474749
0.19962168 -0.01988763 -0.08451252 -0.02874782 -0.035180554 -0.090078965 0.32706866 -0.045672387
-0.07895232

l4/b f4 [9]
00000000: 26d0 72be 624a 21be 7262 1dbe e1f4 26be
00000010: 3133 89be a528 17be 18e7 0abe 029c 3abe
00000020: aba2 e2bd
-0.23712215 -0.15751031 -0.15369585 -0.16304351 -0.26796868 -0.14761598 -0.13564718 -0.18223575
-0.11066183

l0/b f4 [100]
00000000: 27fd c63c e97e bc3c 31d3 8c3c d71d 6b3d
00000010: 9d61 aa3c 5f73 bc3c 3107 2b3c db44 933c
00000020: e02d e0b8 da84 0dbc 2f3a d03b ebee e83b
00000030: 0ddb 653c 2da1 8bbc 7fed a63c c08b 2b3d
00000040: 78e6 e93b fc79 f539 5a99 f83c 2bcc 9ebc
00000050: ed90 0abc e9fc 393d 84f7 9b3c d568 cc3b
00000060: ff4a 923c cc6f 3abb 8002 813c 6a14 113d
00000070: 5414 093c 18a6 0d3c e205 8b3c bd80 5e3c
00000080: df04 bfbc 133e 3fbc dfc7 563c 3d2f 503c
00000090: ad39 043c a6ad bbbb cfe9 33bc 3f68 cc39
000000a0: 53f1 b03b de34 fabc b441 bb3c 9dd7 13bd
000000b0: 3b40 9f3b 2ccf 86ba 2ef3 9cbb 01a7 a13c
000000c0: fa52 083c 546e 08bc de01 be3c 5e2e 72bc
000000d0: 6d14 623b 563c 89bc 7937 29bd 8efd f9bc
000000e0: 16bb c23c f44f 6ebc a658 063d d30a c03c
000000f0: aa56 363c 8b39 223c 1197 7f3c 2337 58bc
00000100: 2d6b 74bb 8f76 b0bc c786 c7ba 77e4 7c3b
00000110: 1396 9ebc 2da1 b43c 98a0 57bb 7f2e dabc
00000120: c904 18bc a000 54ba 3092 c33c 5e71 133d
00000130: 39df 723c 1a49 69bc acfe 783b 9a89 5dbd
00000140: 55ac 5fbc b27a d7bc 08e1 743c e6b5 89bc
00000150: 52b4 e9bb 1674 2d3d 3089 883c dd10 bfbc
00000160: 6c63 38bc 1d95 593c 761e 7f3c 7401 0b3d
00000170: 9e6c f83b e820 8bba 7560 f63b c758 8b3c
00000180: 489c 9e3b 7053 9abc 69a2 283d 87c3 c13c
0.024290634 0.023009734 0.017190548 0.057401504 0.020798499 0.023004232 0.010438726 0.017977169
-0.00010689697 -0.008637631 0.0063545923 0.0071085594 0.014029277 -0.017044628 0.020376919 0.041881323
0.0071380697 0.00046820927 0.030346561 -0.019384464 -0.008457405 0.04540721 0.019038923 0.006238083
0.017858027 -0.0028447984 0.015748262 0.03541986 0.008366663 0.008645557 0.016970579 0.013580498
-0.023317752 -0.0116725145 0.013109176 0.012706575 0.008070392 -0.0057274876 -0.010981037 0.00038987582
0.005399862 -0.030542787 0.022858478 -0.036094297 0.004859952 -0.0010285131 -0.0047897315 0.019732954
0.008320564 -0.0083270855 0.02319425 -0.014781563 0.0034497038 -0.016752403 -0.04131267 -0.030516412
0.02377085 -0.0145454295 0.032799385 0.023442661 0.011129061 0.009901415 0.015599982 -0.013196739
-0.0037295327 -0.021540908 -0.0015222662 0.0038588324 -0.01935867 0.02204951 -0.0032902118 -0.0266335
-0.009278485 -0.00080872513 0.023873419 0.035996787 0.014823728 -0.01423862 0.0037993593 -0.054086305
-0.013651927 -0.026303623 0.01494623 -0.016810369 -0.0071320916 0.042347036 0.016666979 -0.02332347
-0.011254173 0.01328018 0.015571227 0.033936933 0.0075813076 -0.0010614665 0.007518823 0.017010106
0.0048404075 -0.018838614 0.04117051 0.023652805
