rl_planner/rl_agent/model/obs2.model (npz, 131778 bytes, 10 tensors)

l2/b f4 [50]
0	0x3e7a0d03	0.24419026
1	0x3f2583d5	0.64654285
2	0x3f353b04	0.70793176
3	0x3d4dfb15	0.05028828
4	0x3f2e48f9	0.680801
5	0x3d856cda	0.065149024
6	0x3d6b66ec	0.0574712
7	0x3ea87216	0.3289954
8	0xbdd5a30e	-0.10431491
9	0x3f37027e	0.7148818
10	0xbe14bbad	-0.14524718
11	0xbdb0099e	-0.08595584
12	0x3f3eb15c	0.7448938
13	0x3dc237dd	0.09483311
14	0x3ee30c8d	0.44345513
15	0xbe3566dc	-0.17715019
16	0xbe690135	-0.22754367
17	0xbebe6e8c	-0.37193716
18	0x3f334865	0.7003234
19	0x3d23c604	0.039983764
20	0x3e79763b	0.24361508
21	0xbe259d78	-0.16173351
22	0x3de17eee	0.11010538
23	0x3f3d51b4	0.73952794
24	0x3eb121f3	0.34596214
25	0xbe9c27b8	-0.30499053
26	0x3cee023e	0.029053804
27	0x3d69138b	0.056903403
28	0xbe582f8c	-0.21111888
29	0x3f6036b2	0.8758346
30	0x3f311703	0.6917574
31	0x3f389f21	0.7211781
32	0x3ed4e4de	0.41580862
33	0x3e493dc5	0.1965247
34	0x3f336eb5	0.700908
35	0xbe5fb9fe	-0.21848294
36	0xbe13257e	-0.14369771
37	0x3ef32217	0.47486946
38	0xbee2da58	-0.44307208
39	0xbda6fff0	-0.08154285
40	0x3f271bb1	0.6527663
41	0xbe13923e	-0.14411256
42	0xbe97b6f9	-0.29631785
43	0x3f1a1672	0.601905
44	0xbdccf822	-0.10008265
45	0x3c6220d3	0.013801771
46	0xbdabab67	-0.08382302
47	0xbef74b20	-0.48299503
48	0x3efe24ee	0.4963755
49	0xbd1fc1b5	-0.039003093

l1/W f4 [100, 100]
0	0x3d82dab1	0.06389368
1	0xbd490a3d	-0.04908203
2	0x3d9611b6	0.07327597
3	0xbdeb774e	-0.11497365
4	0xbe6e6408	-0.23280346
5	0xbe840b38	-0.2578981
6	0xbe5e3490	-0.21699739
7	0xbd7bff0f	-0.06152254
8	0xbdd79041	-0.10525561
9	0xbe1348dc	-0.14383262
10	0xbe6b2e2c	-0.22966832
11	0xbe2d940e	-0.1695101
12	0x3ea28dcf	0.31748816
13	0xbe160dd9	-0.1465372
14	0x3da81b42	0.08208324
15	0xbe0a8067	-0.13525544
16	0xbd99f649	-0.07517678
17	0x3e10e137	0.14148413
18	0xbd983cc6	-0.074334666
19	0xbe43fa7a	-0.19138518
20	0x3dd62dda	0.10457964
21	0x3dfe6b1b	0.124227725
22	0xbdfc6edc	-0.12325832
23	0xbc82a277	-0.01594661
24	0x3e4e26cc	0.20131987
25	0xbd28d669	-0.041220102
26	0xbd8b0095	-0.067872204
27	0x3dde10da	0.10843058
28	0x3dca51b3	0.09878864
29	0xbe01d6a5	-0.12679537
30	0xbef9c8f6	-0.48786134
31	0xbec315a6	-0.38102454
32	0x3e35144d	0.17683525
33	0xbdf0b124	-0.11752537
34	0xbeb8a288	-0.36061502
35	0xbea6ce62	-0.32579333
36	0x3da0d0d4	0.07852331
37	0x3e863e0c	0.26219213
38	0x3d9efe34	0.07763329
39	0x3dd7eeeb	0.10543617
40	0xbe0b4412	-0.13600186
41	0x3e3e890e	0.1860697
42	0x3d68b773	0.056815576
43	0xbe2d3e53	-0.16918306
44	0xbdffb31e	-0.12485336
45	0x3e50ed42	0.20403007
46	0x3e4aaad8	0.19791734
47	0xbe008564	-0.12550884
48	0x3e37cd7b	0.17949478
49	0xbe88f7c2	-0.26751524
50	0xbe263566	-0.16231307
51	0xbe377897	-0.17917095
52	0x3de7176d	0.11283765
53	0xbe17658b	-0.1478483
54	0xbd477289	-0.048693214
55	0xbe540438	-0.20704734
56	0x3ead7c9b	0.3388413
57	0x3e3ba755	0.18325551
58	0x3eb8ccdd	0.36093798
59	0xbdf49aa5	-0.119435586
60	0x3e7a4957	0.2444204
61	0xbe4b1e04	-0.19835669
62	0x3e0cb1bd	0.13739677
63	0x3d0c53c1	0.03425956
64	0xbe38c9b1	-0.18045689
65	0x3c2a10c5	0.010379975
66	0x3ec2167f	0.37907788
67	0x3be30dc3	0.0069291308
68	0xbe246346	-0.16053495
69	0x3d9683fd	0.073493935
70	0x3e27b4e0	0.16377592
71	0xbdc6cc98	-0.09706992
72	0x3e4a09e3	0.19730334
73	0xbcf77e5d	-0.030211622
74	0xbe03af83	-0.12859921
75	0xbca28b43	-0.019841796
76	0x3d9dc200	0.07703018
77	0xbde14a65	-0.11000518
78	0x3e39eef4	0.1815756
79	0xbd33ac77	-0.043865647
80	0x3c177c1e	0.0092459
81	0xbec8e3d7	-0.39236328
82	0x3cd7dafa	0.026349533
83	0x3ec6db69	0.38839272
84	0x3e03c46e	0.128679
85	0xbed60151	-0.4179788
86	0x3e6537fe	0.2238464
87	0xbbe2ea86	-0.00692493
88	0x3d9450c8	0.0724197
89	0x3e948c3c	0.2901324
90	0xbe86bd93	-0.2631651
91	0xbce431c1	-0.027855756
92	0xbebfaeab	-0.3743795
93	0xbee8633a	-0.45388204
94	0x3e432e86	0.19060716
95	0xbe35ac3a	-0.1774148
96	0xbe3e4de1	-0.18584396
97	0xbc238cd9	-0.009982311
98	0xbe47de84	-0.19518477
99	0xbeaa85ee	-0.33305305
100	0xbecb55d2	-0.39713913
101	0x3e86ac29	0.26303223
102	0x3da9ccd0	0.08291018
103	0xbeb8b6a7	-0.36076853
104	0xbc32903d	-0.010898647
105	0x3d80e63f	0.06293916
106	0x3e813ff7	0.25244114
107	0x3b85cef6	0.0040835096
108	0xbc80ce6b	-0.015723428
109	0xbe1ae75f	-0.15127324
110	0xbb869904	-0.0041075964
111	0xbe57f0f8	-0.21088016
112	0x3ed41a78	0.41426444
113	0xbde7ef7d	-0.11324976
114	0xbdfb00de	-0.12256025
115	0xbe1d2af8	-0.15348423
116	0xbd9b695f	-0.07588457
117	0x3d508eb4	0.050917342
118	0x3e389460	0.1802535
119	0xbdc573bd	-0.09641216
120	0x3e25e051	0.16198851
121	0x3c5e2946	0.013559645
122	0xbedb15d3	-0.42790088
123	0x3d97811e	0.07397674
124	0xbe073534	-0.13203889
125	0xbd76b91e	-0.060235135
126	0x3ddc94b2	0.10770549
127	0xbd026d74	-0.031842664
128	0xbdc3c4b2	-0.09559001
129	0x3e01fa43	0.12693124
130	0xbe1bd67e	-0.15218541
131	0xbe103a40	-0.1408472
132	0xbbd7347b	-0.0065675355
133	0xbe14ccf1	-0.14531304
134	0x3a2043b7	0.0006113606
135	0x3d31fa9e	0.043451898
136	0x3d6addde	0.057340495
137	0xbe448286	-0.19190416
138	0x3d5c2a1a	0.05375109
139	0x3df976e8	0.12180883
140	0xbea7e219	-0.32789686
141	0xbd7373da	-0.059436657
142	0x3e142d7c	0.14470476
143	0xbd702583	-0.058629524
144	0xbd67dcc0	-0.056607008
145	0xbb1d229e	-0.0023976932
146	0xbdd5c21b	-0.10437413
147	0xbe376e65	-0.17913206
148	0xbd782270	-0.060579717
149	0x3e08b02f	0.13348459
150	0xbe1cf584	-0.15328032
151	0xbef73126	-0.48279685
152	0xbe6ddeed	-0.2322957
153	0xbef495ac	-0.4777044
154	0xbe8043c2	-0.25051695
155	0x3d4584dc	0.048222408
156	0xbd8bfba7	-0.06835108
157	0xbd9dc6a1	-0.07703901
158	0xbea63519	-0.32462385
159	0x3d35424a	0.04425267
160	0x3e53ca7a	0.20682707
161	0x3dd8b4cd	0.1058136
162	0x3e84a012	0.25903374
163	0xbe5ccf34	-0.21563417
164	0xbe5363c5	-0.20643528
165	0xbe624684	-0.22097212
166	0x3dd83fc7	0.105590396
167	0x3dfe26b5	0.124097265
168	0xbe9d09d4	-0.3067156
169	0xbd228e02	-0.03968621
170	0xbdcb11dd	-0.099155165
171	0x3e26d212	0.16291073
172	0xbc6384d7	-0.013886652
173	0xbe2e546f	-0.17024396
174	0x3ea0bfd0	0.3139634
175	0xbd9e31aa	-0.077243164
176	0xbf133d3e	-0.57515323
177	0x3ea1267b	0.3147467
178	0xbd64e9f0	-0.055887163
179	0x3c43929a	0.011936808
180	0x3e041711	0.12899424
181	0xbe9add94	-0.30247176
182	0xbd67102f	-0.05641192
183	0xbea23fb6	-0.31689233
184	0x3e545f02	0.20739368
185	0xbd92e872	-0.07173242
186	0xbe2e6366	-0.17030105
187	0xbe81f3ba	-0.2538126
188	0xbcd00305	-0.025392065
189	0xbd79a85e	-0.060951583
190	0x3c975b9e	0.018476304
191	0x3e7aeac1	0.24503614
192	0xbc86933e	-0.016427632
193	0xbe0f790b	-0.14011018
194	0x3cb35df7	0.021895392
195	0x3d6a2198	0.057160944
196	0xbeaed5d9	-0.34147528
197	0xbed368f7	-0.4129102
198	0xbe9627a8	-0.2932713
199	0xbcb54ff3	-0.02213285
200	0xbe79b6fe	-0.24386212
201	0xbe17429c	-0.14771503
202	0x3b9c9741	0.004778773
203	0x3eb21eeb	0.34789214
204	0xbe41d9d8	-0.18930757
205	0xbe49b175	-0.196966
206	0xbe3445be	-0.1760473
207	0xbe861edb	-0.26195416
208	0xbdf68e89	-0.12038905
209	0x3e459bfd	0.19297786
210	0xbe793f60	-0.24340582
211	0xbd37a14f	-0.04483157
212	0xbc9d62dd	-0.01921218
213	0xbe82201d	-0.25415125
214	0x3d4039db	0.046930175
215	0xbde273cb	-0.11057242
216	0xbe735587	-0.23763095
217	0x3db25d9b	0.0870926
218	0xbd975b78	-0.07390493
219	0x3cc7176a	0.024303157
220	0x3e4d4680	0.20046425
221	0xbdf620fd	-0.12018011
222	0x3e5e2e7d	0.21697421
223	0xbe3bc489	-0.18336691
224	0xbd7bfa0b	-0.061517756
225	0x3b836fcb	0.0040111295
226	0x3dfb5687	0.12272363
227	0xbddf002c	-0.10888705
228	0x3d8e0f21	0.06936479
229	0xbdcf295a	-0.10115309
230	0xbc9824d7	-0.018572254
231	0xbe1527b8	-0.14565933
232	0x3dd6ad80	0.10482311
233	0xbca782ab	-0.02044805
234	0x3dbeb753	0.0931231
235	0x3e0b035e	0.13575503
236	0xbe17ce2f	-0.14824747
237	0x3e284b2e	0.16434929
238	0x39a55e58	0.00031541544
239	0xbda73dce	-0.08166085
240	0xbe26fede	-0.16308162
241	0x3dc94187	0.098269515
242	0x3dace92c	0.084429115
243	0xbd9c203e	-0.07623337
244	0x3cb11169	0.021614747
245	0xbd7e6cdd	-0.06211554
246	0xbd165538	-0.036702365
247	0x3d48ea1e	0.049051397
248	0x3e7ad8f6	0.24496827
249	0xbc343b7e	-0.011000512
250	0xbdb1f07b	-0.08688446
251	0x3cca32bf	0.0246824
252	0xbd78b5d3	-0.060720276
253	0x3e1cd596	0.15315852
254	0x3dcfc7b4	0.10145512
255	0xbe264e82	-0.16240886

l0/W f4 [100, 182]
0	0x3ff5607d	1.9170071
1	0xbf53f07c	-0.82788825
2	0x3e3e47e2	0.18582109
3	0x3e79ecca	0.24406734
4	0x3e89088e	0.2676434
5	0x3db3788c	0.08763227
6	0x3e2c8cae	0.1685054
7	0x3e8bd4af	0.27310702
8	0x3dfc76cf	0.123273484
9	0xbd946bd3	-0.07247128
10	0xbde713d0	-0.11283076
11	0xbd93d110	-0.0721761
12	0xbdb6dab9	-0.08928437
13	0xbe34149b	-0.17585985
14	0xbe0fda9d	-0.14048238
15	0xbd37fcd6	-0.044918858
16	0x3d12bbf6	0.035823785
17	0x3daeab10	0.08528721
18	0xbdf33db1	-0.11877001
19	0xbd66e7a6	-0.05637326
20	0x3e6c7737	0.23092352
21	0x3e0a260f	0.1349108
22	0xbc95b8c7	-0.018276585
23	0xbd3e1f12	-0.04641635
24	0xbdff672b	-0.124708496
25	0x3c669021	0.014072449
26	0x3d82b43c	0.06382033
27	0x3d9fb9e9	0.077991314
28	0xbd60152f	-0.054707702
29	0x3c833961	0.016018571
30	0xbd072bb4	-0.033000663
31	0x3d476fdb	0.048690658
32	0x3ccdb841	0.025112273
33	0xbe8348ee	-0.25641578
34	0xbe630053	-0.22168092
35	0xbd6a95e3	-0.05727185
36	0xbe5ae2be	-0.21375558
37	0xbe6a3ade	-0.22874019
38	0xbe9dbf43	-0.30809984
39	0xbedb7fae	-0.4287085
40	0xbe35e4b6	-0.17763028
41	0x3da83390	0.0821296
42	0xbe66edd3	-0.2255166
43	0xbe3c19cc	-0.18369216
44	0xbdb064f4	-0.08613005
45	0x3e54df7b	0.20788376
46	0x3e933126	0.28748435
47	0x3e10cc86	0.1414052
48	0x3e1bec20	0.15226793
49	0x3c66274e	0.014047457
50	0x3e5fc6f5	0.2185324
51	0x3df10497	0.117684536
52	0x3db0b835	0.08628885
53	0x3d9da97f	0.076983444
54	0x3e4e266a	0.20131841
55	0xbe0012c5	-0.1250716
56	0x3e19bac4	0.15012652
57	0x3e43beab	0.19115703
58	0x3de0d71d	0.109785296
59	0x3d6b4062	0.057434447
60	0x3da8f917	0.08250635
61	0x3ceba444	0.028764851
62	0xbd523e66	-0.05132904
63	0xbde970f6	-0.11398499
64	0xbc964e8b	-0.018348
65	0xbbb1ef8f	-0.005430169
66	0x3d71eeb3	0.059065532
67	0x3cc97ec2	0.024596576
68	0x3d66b146	0.056321405
69	0xbd9c1c7e	-0.07622622
70	0x3e4704a1	0.1943536
71	0x3da5617c	0.08075234
72	0x3da20c50	0.07912505
73	0x3df04566	0.11731987
74	0x3dfac050	0.12243712
75	0x3e2d8b27	0.16947614
76	0x3e0149eb	0.12625854
77	0x3d5ba38d	0.05362277
78	0xbd5e81ff	-0.054323193
79	0xbdf829d2	-0.121173516
80	0xba8220b8	-0.0009927964
81	0xbdeef85c	-0.116684645
82	0xbe56799c	-0.20944828
83	0xbe321361	-0.17390205
84	0xbe4a6a80	-0.19767189
85	0xbdc3a9a8	-0.09553844
86	0x3c7a9ac0	0.015295684
87	0x3d974737	0.0738663
88	0x3e150b79	0.14555158
89	0x3dfda1c8	0.12384373
90	0x3c98b62d	0.018641556
91	0x3e18b4f8	0.14912784
92	0xbc8f7ae9	-0.017514663
93	0x3d3878de	0.045037143
94	0x3e6dfe60	0.23241568
95	0x3d14e506	0.036351226
96	0x3dd131b5	0.10214559
97	0xba50b4c7	-0.0007961508
98	0xbda0f6fd	-0.07859609
99	0x3d92a5cf	0.07160532
100	0x3df8b227	0.12143355
101	0x3dc4499e	0.09584354
102	0x3e0e0a36	0.13871083
103	0x3e2871b9	0.16449632
104	0x3dceb6d1	0.10093463
105	0x3dffa671	0.12482918
106	0xbbdcd266	-0.0067389486
107	0x3df54894	0.11976734
108	0x3dd204e4	0.10254839
109	0x3d66e040	0.056366205
110	0xbb36bff9	-0.002788542
111	0xbd6fac9c	-0.058514223
112	0xbdd3c3ab	-0.10340055
113	0xbe03f2b8	-0.12885559
114	0x3d93441f	0.071907274
115	0xbaf030b7	-0.0018325065
116	0x3e1ed827	0.15512143
117	0x3de89e8d	0.11358366
118	0xba942319	-0.0011301964
119	0xbb8bc9b3	-0.004265988
120	0x3d11e4ac	0.03561847
121	0x3d2f4b2b	0.042796295
122	0xbd20bde0	-0.03924358
123	0xbc99f804	-0.01879502
124	0xbdae8f55	-0.08523432
125	0xbe81f7a3	-0.25384244
126	0xbdb9aea4	-0.09066513
127	0xbea46d1c	-0.32114494
128	0xbe4ea86a	-0.20181432
129	0xbc91c48d	-0.017793918
130	0x3d162827	0.036659386
131	0x3cc40dcf	0.023932366
132	0x3e236a9a	0.15958634
133	0x3eb7fcf3	0.35935172
134	0x3d165327	0.036700394
135	0x3d223faf	0.039611515
136	0x3e9e8cb5	0.30966726
137	0x3df41a27	0.11919051
138	0x3df465fa	0.11933513
139	0xbe57530e	-0.21027777
140	0xbd59e2f8	-0.05319497
141	0xbdabfff5	-0.08398429
142	0xbcd7cd3d	-0.026342982
143	0xbdac075f	-0.083998434
144	0xbea98fb0	-0.33117437
145	0xbe3611c7	-0.17780219
146	0xbe5b4562	-0.21413186
147	0x3da73b78	0.0816564
148	0x3e5fcff6	0.21856675
149	0x3d9aad89	0.075526305
150	0x3ceb7aec	0.028745137
151	0x3da04870	0.07826316
152	0xbd5a1b0a	-0.053248443
153	0xbe804cbe	-0.2505855
154	0xbe16f000	-0.1473999
155	0xbe1c5d07	-0.15269862
156	0xbeb52097	-0.35376427
157	0xbe54cd55	-0.20781453
158	0xbd85b7e8	-0.06529218
159	0xbe2b50a0	-0.16729975
160	0xbd3f3f71	-0.04669136
161	0xbd36757a	-0.044545628
162	0xbcc0452f	-0.02347049
163	0x3cc6605a	0.024215866
164	0x3e5aa465	0.21351774
165	0x3dd6a032	0.104797736
166	0xbce91e02	-0.028456692
167	0xbe5b478b	-0.2141401
168	0xbdbe48b8	-0.09291214
169	0x3deb98fa	0.11503787
170	0xbd8c9e53	-0.068661354
171	0xbe07af32	-0.13250425
172	0xbd14a078	-0.036285847
173	0x3e50c173	0.20386295
174	0xbd38a99c	-0.045083627
175	0xbdee6bc5	-0.11641649
176	0x3df6ad35	0.12044755
177	0xbcc22adc	-0.023702078
178	0xbe92b264	-0.28651726
179	0xbea505d2	-0.32231003
180	0x3cd15a9c	0.025555901
181	0x3daea0cd	0.08526764
182	0x3cb7dd5c	0.02244442
183	0xbfeb9c23	-1.8407024
184	0x3e3a4e28	0.18193877
185	0x3e6b5450	0.22981381
186	0x3e3917f4	0.18075544
187	0xbd8b28ff	-0.06794929
188	0x3dd7228d	0.10504637
189	0x3e7d33ed	0.2472684
190	0x3de6d68e	0.11271392
191	0x3dd8da1c	0.10588476
192	0x3e440547	0.19142638
193	0x3e047cb3	0.12938194
194	0xbe0b42e8	-0.13599741
195	0xbe1dde47	-0.15416823
196	0x3b509a6b	0.0031830322
197	0xbd7feaea	-0.06247989
198	0x3db1035d	0.086432196
199	0x3dffedda	0.124965385
200	0x3db3dac7	0.08781963
201	0x3d66c1eb	0.05633728
202	0x3d6d14cc	0.05788116
203	0xbd276233	-0.040865134
204	0xbe014deb	-0.1262738
205	0xbe2dc453	-0.16969423
206	0xbe13b312	-0.14423779
207	0x3baea927	0.005330223
208	0x3e21ec16	0.15812716
209	0x3e16aeab	0.14715068
210	0xbd8734c7	-0.06601863
211	0x3d3d5236	0.04622098
212	0x3d99938a	0.07498844
213	0xbc9f5bca	-0.019452948
214	0x3d1fe20c	0.039033934
215	0xbcb37bed	-0.021909678
216	0xbcd99305	-0.026559362
217	0xbc45b549	-0.0120671475
218	0xbde88787	-0.11353975
219	0xbe610ae6	-0.21976814
220	0xbd820bc2	-0.06349899
221	0x3da32767	0.079665
222	0x3d508af1	0.050913755
223	0x3e389933	0.18027191
224	0xbc81aa52	-0.015828285
225	0x3dc4372e	0.09580837
226	0xbd23c177	-0.039979424
227	0x3d1573d0	0.0364874
228	0xbdd173fd	-0.10227201
229	0xbe32f8b7	-0.1747769
230	0xbec9a97b	-0.39387116
231	0xbea99634	-0.33122408
232	0xbe2452e1	-0.16047241
233	0x3d8d9c41	0.06914569
234	0xbd94c1d5	-0.07263533
235	0x3e20e46c	0.15712136
236	0x3e477ca9	0.19481148
237	0xbeb587cc	-0.35455167
238	0xbe2e4452	-0.1701825
239	0xbe16e3f0	-0.14735389
240	0x3d0ad969	0.033898745
241	0xbdca576f	-0.09879958
242	0xbe19d1c0	-0.1502142
243	0xbe7ff7a7	-0.24996816
244	0xbcc7101d	-0.024299676
245	0xbd44b31e	-0.048022382
246	0x3d926f6d	0.07150159
247	0xbcb6602b	-0.022262653
248	0x3d933451	0.07187713
249	0xbdd12fc9	-0.102141924
250	0xbd905eeb	-0.07049354
251	0xbdcc1a39	-0.09965939
252	0xbc8995df	-0.016795097
253	0xbd72bee4	-0.05926408
254	0xbe04055b	-0.12892668
255	0xbe0d970c	-0.13827151

l3/W f4 [25, 50]
0	0x3e6f4e9f	0.23369835
1	0x3c874774	0.016513564
2	0x3ca06fca	0.019584555
3	0xbddf2e84	-0.10897544
4	0x3ddd60dd	0.10809491
5	0xbef5e71f	-0.48027894
6	0xbd8a0a6f	-0.06740271
7	0xbd796c4a	-0.060894288
8	0x3e0c7851	0.13717772
9	0x3c218df5	0.009860505
10	0xbe02edb7	-0.12785994
11	0xbdd930a8	-0.106049836
12	0x3dc8c1f3	0.09802618
13	0x3eac2742	0.336237
14	0x3e45d1be	0.19318292
15	0x3dc239db	0.09483691
16	0xbe4969ef	-0.19669317
17	0xbe7c4647	-0.24636184
18	0x3e0b1ee5	0.13586004
19	0xbe6787a9	-0.22610344
20	0x3d56f80e	0.052482657
21	0xbe78f654	-0.24312717
22	0x3da91d98	0.08257598
23	0xbd4d6454	-0.05014451
24	0x3de1b37b	0.11020561
25	0x3e6faa2d	0.2340476
26	0x3e775ccb	0.24156491
27	0xbe236671	-0.15957047
28	0x3df29384	0.118445426
29	0x3cb89a3c	0.022534482
30	0xbe7d5a0d	-0.24741383
31	0xbd6adf24	-0.05734171
32	0xbd320511	-0.043461863
33	0x3e09de7c	0.13463777
34	0x3ec35d6a	0.38157207
35	0xbe9b1055	-0.30285898
36	0xbea4a077	-0.32153675
37	0x3e5e3573	0.21700077
38	0xbe299c5a	-0.1656355
39	0x3d657105	0.056015987
40	0xbdfe0410	-0.124031186
41	0xbe81ab24	-0.25325882
42	0x3e048ffe	0.12945554
43	0x3eae0d69	0.33994606
44	0xbe793ef0	-0.24340415
45	0x3e3069c7	0.17227851
46	0xbe9847c8	-0.29742265
47	0x3b61572c	0.0034384234
48	0xbce88211	-0.028382333
49	0xbe061cdc	-0.13096946
50	0x3eb69a34	0.35664523
51	0xbe64e8de	-0.22354457
52	0x3e438b4b	0.19096105
53	0xbe5e8abd	-0.21732612
54	0xbe35c0a1	-0.17749263
55	0x3f08385e	0.5321101
56	0x3e555aa6	0.20835361
57	0x3df4f8a7	0.11961489
58	0x3e076655	0.1322263
59	0x3e035784	0.12826353
60	0x3d757ba6	0.059932373
61	0x3e79f54a	0.24409977
62	0xbe52163c	-0.20516294
63	0xbdc66fc6	-0.09689288
64	0xbeaad3ae	-0.33364624
65	0x3e83b927	0.25727198
66	0xbdb91820	-0.090378046
67	0x3de30313	0.11084571
68	0x3c2a7ec6	0.010406202
69	0xbe6cec5a	-0.23137036
70	0xbd601fbd	-0.054717768
71	0x3e45adb3	0.19304542
72	0x3e8a9c87	0.27072546
73	0x3e514783	0.20437436
74	0xbe78eae1	-0.24308349
75	0x3ab2f25a	0.0013652549
76	0x3e760ac1	0.2402754
77	0x3eb48adc	0.3526219
78	0xbedfa93e	-0.4368381
79	0x3de09c8e	0.109673604
80	0x3eb29e22	0.3488627
81	0x3c329889	0.010900625
82	0xbe42cc77	-0.1902331
83	0xbd80a274	-0.062809855
84	0x3e983e03	0.2973481
85	0xbe66208c	-0.22473353
86	0xbe97859a	-0.29594117
87	0xbef040a7	-0.46924326
88	0x3e6c59e2	0.23081163
89	0xbddfc513	-0.10926261
90	0xbed395e4	-0.41325295
91	0x3e737569	0.23775257
92	0xbe87d30b	-0.265282
93	0xbe95e962	-0.2927962
94	0x3cb52b69	0.022115426
95	0x3e049d9b	0.12950747
96	0xbe1a7bb7	-0.15086256
97	0x3da2bf3e	0.07946633
98	0x3e31f281	0.17377664
99	0x3e920538	0.28519607
100	0xbd9fbc57	-0.07799595
101	0xbdcef5c6	-0.10105471
102	0x3dfc83cc	0.12329826
103	0xbdc63a57	-0.09679096
104	0x3ca8c9bb	0.020604005
105	0x3e111abb	0.14170353
106	0xbe6606db	-0.22463553
107	0xbd9558b2	-0.07292308
108	0xbee47846	-0.4462301
109	0x3de26359	0.11054105
110	0xbda87457	-0.08225315
111	0x3e685038	0.22686851
112	0x3e4972d3	0.19672708
113	0x3dec49b3	0.115374945
114	0x3de7ade4	0.11312464
115	0xbe67c527	-0.22633801
116	0x3d43c178	0.047791928
117	0xbdb22687	-0.08698755
118	0x3d3c30b4	0.045944884
119	0xbcd3d974	-0.025860526
120	0x3de67ee7	0.112546735
121	0x3ed6a221	0.4192057
122	0x3d54d0b0	0.051956832
123	0xbe102f15	-0.1408046
124	0x3d82d9d4	0.06389204
125	0xbef663a3	-0.48122892
126	0xbe364fe6	-0.17803916
127	0xbe1012a1	-0.14069606
128	0x3e4b3fcd	0.19848557
129	0x3db15818	0.08659381
130	0x3daeb927	0.08531409
131	0x3e06a5fa	0.13149253
132	0x3e9accd5	0.302344
133	0xbd3a7db8	-0.04553005
134	0xb6e5bfc0	-6.8470545e-06
135	0xbe91b68c	-0.28459585
136	0xbee86164	-0.45386803
137	0xbdb12d80	-0.086512566
138	0xbe628dbb	-0.22124378
139	0xbcc15b42	-0.023603085
140	0x3e5547d9	0.20828189
141	0xbdbb6a9b	-0.09151193
142	0xbe848cb5	-0.258886
143	0xbe4ab246	-0.19794568
144	0x3c5667c1	0.01308626
145	0xbe987770	-0.29778624
146	0x3bf4a381	0.0074657802
147	0xbea1ba6a	-0.31587535
148	0xbcf4dd87	-0.029890789
149	0xbea1a085	-0.3156778
150	0x3d916996	0.07100217
151	0x3de3adc2	0.11117126
152	0xbd1bb63f	-0.0380156
153	0xbe92c43c	-0.2866534
154	0xbd7ada31	-0.06124324
155	0x3ea1f72f	0.316339
156	0x3e4a8438	0.19777
157	0xbda1ab65	-0.07894019
158	0x3ea04c33	0.31308135
159	0xbd812a2c	-0.06306872
160	0x3d070cd1	0.032971207
161	0xbd44df10	-0.04806429
162	0xbde4677c	-0.111525506
163	0xbda6c152	-0.08142342
164	0xbe83be70	-0.2573123
165	0x3d9d6d44	0.076868564
166	0xbd38a399	-0.045077894
167	0xbda723e9	-0.08161146
168	0x3b156c14	0.0022800015
169	0x3f08bf28	0.5341668
170	0x3d1cd5e2	0.038289912
171	0x3e1e909f	0.15484856
172	0xbea9c6ca	-0.33159477
173	0xbd68fb1c	-0.0568801
174	0x3db843ef	0.08997332
175	0xbe07cb77	-0.1326121
176	0x3ccb72fd	0.024835104
177	0x3d7b57e5	0.06136312
178	0xbf1de6c5	-0.6168025
179	0x3ecc57f5	0.39910856
180	0x3df42c0b	0.11922463
181	0x3e0dfbe6	0.13865623
182	0xbcd2b84c	-0.025722645
183	0x3d1899fa	0.03725622
184	0x3d1dcec1	0.038527254
185	0xbe60870b	-0.21926515
186	0x3e090681	0.13381387
187	0x3d7421d4	0.059602574
188	0xbc659827	-0.014013327
189	0xbee5e63e	-0.44902223
190	0x3e205caa	0.15660349
191	0xbb636b77	-0.0034701505
192	0x3e7e1c38	0.24815452
193	0xbe5cf673	-0.21578388
194	0x3e1a3259	0.15058269
195	0xbd9e1831	-0.07719458
196	0xbdad61ea	-0.08465941
197	0xbbae104d	-0.005312002
198	0x3d625c73	0.055263948
199	0xbf08e962	-0.53481114
200	0x3e11ec89	0.14250387
201	0x3d49081b	0.049079996
202	0xbe6c52c0	-0.23078442
203	0xbbce96b4	-0.0063045863
204	0xbbac4202	-0.005256892
205	0xbefd98ff	-0.4953079
206	0xbdf5e668	-0.12006837
207	0x3c56ed6c	0.013118129
208	0xbe68e6bd	-0.2274427
209	0xbf0d13ec	-0.55108523
210	0x3e218429	0.15773071
211	0xbcb3457c	-0.021883719
212	0xbbff6966	-0.007794547
213	0x3e296c7e	0.16545293
214	0xbcdc6fc8	-0.02690877
215	0x3e8e6ec0	0.2781887
216	0xbe8a027f	-0.2695503
217	0xbe0471fe	-0.1293411
218	0xbe2586d5	-0.16164716
219	0xbe154171	-0.14575745
220	0x3e025864	0.12729031
221	0xbd2fed2a	-0.042950787
222	0x3e07c281	0.13257791
223	0x3dc00f67	0.09377938
224	0xbee11c45	-0.4396688
225	0xbd8caa6e	-0.068684444
226	0xbe2eb656	-0.17061743
227	0xbdaa6e66	-0.08321838
228	0x3e1b5bb6	0.15171704
229	0x3da8b983	0.082385086
230	0xbe9914c8	-0.29898667
231	0xbe84ba0a	-0.25923187
232	0x3b52dfb1	0.0032176787
233	0x3ea24bef	0.31698558
234	0x3c88bfa3	0.016692942
235	0x3e9ac772	0.3023029
236	0xbd460bb1	-0.048350994
237	0x3e9a2bac	0.30111444
238	0xbd16986f	-0.036766466
239	0xbdc7621e	-0.09735511
240	0xbd8fee42	-0.07027866
241	0x3cadf924	0.021236964
242	0x3e2df2a7	0.16987096
243	0x3e72c445	0.23707683
244	0xbd21cac5	-0.039500017
245	0x3cb0d337	0.02158509
246	0x3e42f997	0.19040523
247	0xbe1ffd83	-0.15624051
248	0x3e49fbb4	0.19724923
249	0x3d84d444	0.06485799
250	0xbb91daf1	-0.0044511487
251	0xbe6ab28a	-0.2291967
252	0x3e02bf74	0.12768346
253	0xbe024614	-0.12722045
254	0x3d76b931	0.060235206
255	0xbd61ef43	-0.05515982

l4/W f4 [9, 25]
0	0xbe6f6381	-0.23377801
1	0x3ea27c5c	0.31735504
2	0xbe78bdba	-0.24291125
3	0x3cac4a74	0.021031596
4	0x3eb0e857	0.3455226
5	0x3dfafb81	0.12255002
6	0xbe5adca0	-0.21373224
7	0xbe89d92a	-0.26923496
8	0x3f01b9b9	0.50674015
9	0x3e78a4a1	0.24281551
10	0x3e6e5dd9	0.23277988
11	0xbe3b83ae	-0.1831195
12	0x3e4f0030	0.20214915
13	0x3f0ad47c	0.54230475
14	0x3e98020c	0.29689062
15	0x3cd3675a	0.025806118
16	0x3e2b3330	0.16718745
17	0xbecb0a10	-0.39656115
18	0x3eca6534	0.39530337
19	0x3e6c866d	0.23098154
20	0x3f020072	0.5078193
21	0x3e84c1e0	0.25929165
22	0xbecc7227	-0.3993084
23	0xbd7c0591	-0.061528746
24	0x3f07d5ec	0.53060794
25	0xbec93472	-0.39297825
26	0x3ee7a9e1	0.45246795
27	0x3d0ce031	0.034393493
28	0x3d8f951e	0.07010864
29	0x3e8e8f60	0.2784376
30	0x3def1e54	0.116757065
31	0x3c943832	0.018093202
32	0xbe646804	-0.22305304
33	0x3e8d1241	0.2755299
34	0xbe6e0a75	-0.23246177
35	0x3e5a4174	0.21314031
36	0xbe00af03	-0.12566762
37	0x3eec00e2	0.46094424
38	0x3ef0e7fc	0.4705199
39	0x3e5814d7	0.211017
40	0x3edfaabd	0.4368495
41	0xbe34e686	-0.17666063
42	0xbe3cec7a	-0.18449584
43	0x3ec72321	0.3889399
44	0x3d42f896	0.04760035
45	0x3ce6afd4	0.028160013
46	0x3eadd7c6	0.33953685
47	0xbedd8942	-0.43268782
48	0x3ec77074	0.38952982
49	0x3ef31fe3	0.47485265
50	0xbe357520	-0.17720461
51	0x3efa042f	0.48831317
52	0xbd9e09f7	-0.077167444
53	0x3e4a85a0	0.19777536
54	0x3d073b80	0.033015728
55	0xbe45b977	-0.1930903
56	0x3e0631d1	0.13104941
57	0xbeb52db2	-0.35386425
58	0x3ec59d0a	0.38596374
59	0xbeb4ede0	-0.35337734
60	0x3f0f83bc	0.56060386
61	0x3d07c169	0.033143435
62	0x3db40d3e	0.08791588
63	0x3e975219	0.29554823
64	0x3edf6c0d	0.43637124
65	0x3eca997e	0.3957023
66	0xbe61ce93	-0.22051458
67	0xbe5753bc	-0.21028036
68	0x3ebde170	0.37086058
69	0x3e487065	0.19574125
70	0x3e66ecad	0.22551222
71	0x3ea49b5d	0.32149783
72	0xbecc05b0	-0.3984809
73	0x3ef1f4a2	0.47256953
74	0x3ea3bd76	0.31980485
75	0xbe0d0fa6	-0.137755
76	0x3e916f31	0.28405145
77	0xbe705545	-0.23470028
78	0xbe9c5ada	-0.30538064
79	0x3e275d66	0.16344222
80	0x3ef7ce98	0.48399806
81	0xbd46b8e9	-0.048516188
82	0xbdf43bf0	-0.11925495
83	0x3ec3ba70	0.38228178
84	0xbe575244	-0.21027476
85	0x3e1ee6f5	0.1551779
86	0x3c859593	0.016306674
87	0x3ec33421	0.3812571
88	0x3f0fe020	0.5620136
89	0x3e96f9da	0.29487497
90	0xbd191854	-0.037376717
91	0xbe564faf	-0.20928834
92	0xbd1a3646	-0.037649415
93	0x3f15d353	0.5852558
94	0x3e8fe608	0.28105187
95	0xbdc32b34	-0.09529725
96	0xbcb6a837	-0.022297008
97	0xbf038046	-0.51367605
98	0xbd9d135f	-0.0766971
99	0x3ef01065	0.46887508
100	0xbd992cad	-0.07479224
101	0x3eaff2ab	0.34364828
102	0xbe195887	-0.14975177
103	0x3cefc677	0.02926944
104	0x3d5051b0	0.050859153
105	0x3e9d65c0	0.30741692
106	0xbe3ab485	-0.18232925
107	0xbe8903f5	-0.2676083
108	0x3ee6f774	0.45110667
109	0x3dc9f449	0.09861047
110	0x3e9b0d6b	0.30283675
111	0xbc076f09	-0.008266219
112	0x3ea26e8b	0.31724963
113	0x3ef3e7f1	0.47637895
114	0x3ebfe91f	0.37482545
115	0x3e1f6255	0.15564854
116	0xbe650914	-0.22366744
117	0xbb9c664a	-0.004772936
118	0x3ef5cfd6	0.4801013
119	0x3e6871fd	0.22699733
120	0x3e2b06d0	0.16701818
121	0x3e837328	0.25673795
122	0xbead77df	-0.33880517
123	0x3db9fc4d	0.09081326
124	0x3eccac9a	0.39975435
125	0xbd5c25ac	-0.053746864
126	0x3ed36c02	0.4129334
127	0xbe11b69b	-0.14229815
128	0x3ecc3db6	0.39890832
129	0x3e663f40	0.22485065
130	0xbd87e546	-0.06635527
131	0xbe5c905c	-0.21539444
132	0xbecaadb9	-0.39585665
133	0x3ed8d8be	0.4235286
134	0x3dad7f68	0.084715664
135	0x3e86f664	0.26359856
136	0xbe0e7391	-0.13911273
137	0x3eacb9c9	0.33735493
138	0x3eb3069e	0.34965986
139	0x3ecaffd4	0.39648306
140	0x3e9e28e6	0.30890578
141	0xbe8dbb1c	-0.27681816
142	0x3cec8539	0.02887212
143	0x3ec42d9c	0.38316047
144	0x3e88a38b	0.26687273
145	0x3e603ede	0.21898982
146	0x3ef111ea	0.4708398
147	0xbe2a503d	-0.16632171
148	0x3ed09239	0.4073656
149	0x3e8db2dd	0.27675524
150	0x3d5986b0	0.053106964
151	0x3e9939fe	0.29927057
152	0xbe312aae	-0.17301437
153	0xbdb35863	-0.08757093
154	0x3e928d3a	0.28623372
155	0x3d9b5b29	0.07585747
156	0xbec7c2fe	-0.39015955
157	0xbe8bce31	-0.2730575
158	0x3eea08ab	0.45709738
159	0x3d5d51a5	0.05403294
160	0xbda8a18e	-0.08233939
161	0xbe0bf080	-0.13665962
162	0x3efed53f	0.4977207
163	0x3f06d012	0.5266124
164	0x3e97f340	0.29677773
165	0x3e3d6704	0.18496329
166	0xbdfb451b	-0.1226904
167	0x3e20d26c	0.1570527
168	0x3f0fb2d2	0.56132233
169	0x3e73f81b	0.23825113
170	0x3d566ca2	0.052349694
171	0x3dab3613	0.08359923
172	0xbe9c301d	-0.30505458
173	0xbe2ce34f	-0.16883586
174	0x3f1f5a58	0.6224723
175	0x3e379d1e	0.17931029
176	0x3e593a22	0.21213582
177	0xbec2dc2e	-0.3805861
178	0x3d3cd05d	0.04609715
179	0x3d2fc5a1	0.042913083
180	0x3e3602fe	0.17774579
181	0xbe73ad44	-0.23796564
182	0xbe8f6f44	-0.28014576
183	0x3f0bdb90	0.546319
184	0xbdd4976a	-0.103804424
185	0x3e89507b	0.26819214
186	0x3de3cc9b	0.1112301
187	0x3e494a01	0.19657136
188	0x3ebbbee4	0.36669075
189	0x3f09be9b	0.53806466
190	0x3ccc3ffd	0.024932856
191	0xbe91c255	-0.28468576
192	0xbce9ae6d	-0.028525556
193	0x3f0d2d65	0.5514739
194	0x3ec37070	0.3817172
195	0x3e796daa	0.2435824
196	0x3e16dae6	0.1473194
197	0xbea0fffb	-0.31445298
198	0xbcc1f6cd	-0.023677254
199	0x3eb5ca40	0.35505867
200	0x3daff1e0	0.08591056
201	0x3ec17fd2	0.37792832
202	0xbc8a0117	-0.016846223
203	0x3dc86dc3	0.097865604
204	0xbceb8508	-0.028749958
205	0x3e48385d	0.19552751
206	0xbe0db04e	-0.13836786
207	0xbe9f0c38	-0.3106401
208	0x3eaec460	0.34134197
209	0xbbb5fab7	-0.005553569
210	0x3ebd383f	0.36956975
211	0x3e042685	0.12905319
212	0x3ea34a60	0.3189268
213	0x3ec5616a	0.38550884
214	0x3ee0e632	0.43925625
215	0x3ebd625f	0.36989114
216	0xbec769e0	-0.38947964
217	0x3ebf1054	0.37317145
218	0x3ece0d2b	0.4024442
219	0x3dab0547	0.08350616
220	0x3d810a2f	0.063007705
221	0x3e9714f9	0.29508188
222	0xbeab848e	-0.3349957
223	0x3e1fcb25	0.15604837
224	0x3ec1feb2	0.3788963

l2/W f4 [50, 100]
0	0xbe0234ba	-0.12715426
1	0xbe8d0126	-0.2753994
2	0xbd27f531	-0.041005317
3	0xbe653686	-0.2238408
4	0xbe2b037a	-0.16700545
5	0x3d74658a	0.059667148
6	0xbdf516dd	-0.119672514
7	0x3dbd586b	0.0924538
8	0x3c28fa8b	0.01031364
9	0xbde9f328	-0.114233315
10	0xbe6b20b2	-0.22961691
11	0x3d97f28a	0.074193075
12	0xbba9fc4a	-0.005187546
13	0x3e328ca4	0.17436463
14	0xbe06c292	-0.1316016
15	0x3e841411	0.2579656
16	0xbdab193f	-0.08354425
17	0xbe539198	-0.20661008
18	0xbdc56837	-0.09639018
19	0xbc895d65	-0.016768167
20	0xbda8d27d	-0.082432725
21	0xbd43ea90	-0.047831118
22	0xbcb21834	-0.021740057
23	0x3e58be3e	0.21166322
24	0x3dc6d963	0.09709432
25	0xbec1a3ab	-0.3782018
26	0xbd48abc6	-0.04899194
27	0xbda89c8f	-0.08232986
28	0xbd7ebbc0	-0.06219077
29	0xbe931d2b	-0.2873319
30	0xbe00af24	-0.12566811
31	0xbe2c246f	-0.16810773
32	0x3ec80fb2	0.39074475
33	0x3de1bb2d	0.11022029
34	0x3dedfe1b	0.116207324
35	0xbcd2233a	-0.025651563
36	0xbb56eec0	-0.0032796115
37	0x3c113232	0.008862065
38	0x3d52de0a	0.051481284
39	0x3d773788	0.060355693
40	0x3cf7e437	0.030260189
41	0xbf0221b1	-0.5083266
42	0x3d5f62b8	0.054537505
43	0x3e32e16d	0.17468806
44	0xbdf85e1c	-0.12127325
45	0xbd7d3a34	-0.061823085
46	0x3e048c07	0.12944041
47	0xbd481445	-0.048847456
48	0xbe5e4eab	-0.21709697
49	0xbe3abfb4	-0.18237191
50	0x3dcadcc2	0.099053875
51	0xbecca57e	-0.3997001
52	0x3e4c0cc3	0.19926743
53	0xbd233592	-0.03984601
54	0xbd63ec77	-0.055645432
55	0xbd07a53e	-0.03311657
56	0xbd5cab9c	-0.053874597
57	0xbd9344be	-0.07190846
58	0xbd5fbcdb	-0.054623466
59	0x3dfe3a76	0.12413494
60	0xbe14a978	-0.14517772
61	0x3ca7d757	0.020488424
62	0x3ddddfca	0.108337
63	0xbeb4552b	-0.35221228
64	0xbe3b990d	-0.18320103
65	0xbdd9f9f2	-0.106433764
66	0xbdabf0ff	-0.08395576
67	0xbdaf2cb0	-0.08553445
68	0x3e73c9d1	0.23807456
69	0xbea879c0	-0.32905388
70	0x3e209524	0.15681893
71	0x3dacded1	0.08440936
72	0x3dcb6537	0.099314146
73	0xbd2eea63	-0.042703997
74	0xbdcc7b66	-0.09984474
75	0x3e11aeeb	0.14226882
76	0x3dbd92ee	0.0925654
77	0xbe49f158	-0.19720972
78	0xbe214dad	-0.15752287
79	0xbe66acf9	-0.22526921
80	0x3a6e99e4	0.0009101911
81	0xbe7d7cd0	-0.24754643
82	0xbd9f1b40	-0.077688694
83	0x3e10d21e	0.14142653
84	0xbe1bd508	-0.15217984
85	0x3d1c97bb	0.03823064
86	0x3e2521aa	0.16126123
87	0xbd0fe76d	-0.035132814
88	0xbe37afaa	-0.17938104
89	0xbe637bfb	-0.22215264
90	0x3e47c5b6	0.19509014
91	0xbda13b76	-0.078726694
92	0xbea6697c	-0.32502353
93	0x3eed3529	0.4632962
94	0xb99ef156	-0.00030315918
95	0xbe1b8841	-0.15188695
96	0xbd7df040	-0.0619967
97	0x3d100f78	0.035171002
98	0x3dfe5ec5	0.124204196
99	0xbe1f93ee	-0.15583774
100	0xbe859b0c	-0.26094854
101	0xbd8909bc	-0.0669131
102	0x3e814442	0.2524739
103	0xbe055bd1	-0.13023306
104	0xbc93ba0c	-0.01803305
105	0xbdeade49	-0.11468179
106	0x3c9502f2	0.018189881
107	0x3e85ff81	0.26171497
108	0xbd79b5bc	-0.06096433
109	0xbdc51867	-0.09623795
110	0xbef8a448	-0.48562837
111	0x3d933a8c	0.07188901
112	0xbc9d172a	-0.019176085
113	0xbde70737	-0.11280673
114	0xbe2b25d0	-0.16713643
115	0xbeb5c2ee	-0.35500282
116	0xbd513c9c	-0.051083192
117	0x3d869f94	0.06573406
118	0x3d6ae88b	0.057350677
119	0x3e0577a5	0.13033922
120	0xbecd08d5	-0.400458
121	0x3cca6053	0.024704134
122	0x3cfd2b37	0.030904396
123	0x3d87be6a	0.066281155
124	0xbd5f3137	-0.054490294
125	0x3d5c159a	0.05373154
126	0xbdd84f46	-0.10561995
127	0xbc4325ab	-0.011910836
128	0x3e83fbbc	0.25777996
129	0xbecf7a4f	-0.40523002
130	0xbe029642	-0.12752631
131	0xbd80d947	-0.06291442
132	0xbcb33a4d	-0.021878386
133	0x3e52a326	0.20570049
134	0x3e191846	0.14950666
135	0x3e2b2cf8	0.16716373
136	0xbe1e64ea	-0.15468183
137	0xbe42f0cf	-0.19037174
138	0xbe89ee4f	-0.26939628
139	0x3de130a3	0.10995605
140	0x3d01b8b3	0.031670284
141	0xbe48a1e4	-0.19593006
142	0xbeb224e1	-0.3479376
143	0xbccab5ba	-0.024744857
144	0x3dc40443	0.09571125
145	0x3c06df02	0.00823188
146	0x3e61b18f	0.2204039
147	0x3e4b1b07	0.19834529
148	0x3d506f5e	0.050887458
149	0x3c22c318	0.009934209
150	0xbba18279	-0.0049288836
151	0xbc4207d3	-0.011842686
152	0xbd802f1d	-0.06258986
153	0x3db4d12a	0.088289574
154	0xbc9c80b7	-0.019104345
155	0xbe09424a	-0.13404194
156	0xbca66bd7	-0.020315094
157	0xbe30381c	-0.17208904
158	0x3e1c72df	0.15278195
159	0xbcb1f117	-0.021721406
160	0xbcacae1d	-0.021079117
161	0x3e8bdc10	0.27316332
162	0x3d40559f	0.046956655
163	0xbdc8bd9d	-0.09801791
164	0xbeccd0df	-0.40003106
165	0x3e60df55	0.21960194
166	0xbedea2dd	-0.4348363
167	0xbd06c7a8	-0.03290525
168	0xbd84c811	-0.06483472
169	0x3e83b1f3	0.25721702
170	0xbe5869a7	-0.21134053
171	0x3de47e39	0.111568876
172	0xba9610df	-0.001144912
173	0xbd903173	-0.07040682
174	0x3e67aee9	0.22625317
175	0x3c6a4114	0.014297742
176	0x3d1d6cc1	0.038433794
177	0x3eb6d597	0.3570983
178	0xbe321fd8	-0.1739496
179	0x3e249b4a	0.16074863
180	0x3d3fb244	0.046800867
181	0xbe3ddedc	-0.18542045
182	0x3d581e55	0.052763302
183	0xbd341c4e	-0.043972306
184	0xbcfc146b	-0.030771455
185	0xbcb5d5d0	-0.02219668
186	0x3d5dbdf3	0.054136228
187	0x3d1f5671	0.038900796
188	0xbe808d00	-0.25107574
189	0xbdb160a9	-0.086610146
190	0xbebd02d1	-0.3691621
191	0x39a12ad4	0.00030740222
192	0x3dd4617d	0.10370157
193	0x3e7662ab	0.24061076
194	0xbe750f13	-0.23931532
195	0x3da77704	0.08176997
196	0x3e0355fe	0.12825772
197	0xbececb39	-0.40389422
198	0xbe15fb29	-0.14646591
199	0xbe2b77fc	-0.16744989
200	0x3d242d97	0.04008254
201	0xbe79301e	-0.24334762
202	0x3e8c6c96	0.27426594
203	0x3b95e1f4	0.004574055
204	0xbe263163	-0.16229777
205	0x3e51a2f9	0.20472325
206	0xbecf7fc6	-0.4052717
207	0x3d7863f6	0.060642205
208	0xbe77631a	-0.24158898
209	0x3e1ec904	0.15506369
210	0xbe808b69	-0.25106362
211	0x3e77e5ac	0.24208707
212	0x3e116e9e	0.14202353
213	0xbd16542a	-0.03670136
214	0xbe912d9a	-0.28355104
215	0xbe3f0fe0	-0.186584
216	0xbe591e1c	-0.21202892
217	0xbe2c8eb2	-0.16851309
218	0x3de69e76	0.11260693
219	0x3e16f591	0.14742114
220	0xbe211966	-0.15732345
221	0xbddf2719	-0.10896129
222	0xbd16dbdf	-0.03683078
223	0x3e53c541	0.20680715
224	0xbde2a9df	-0.110675566
225	0xbe09847d	-0.13429447
226	0x3d88bf9e	0.06677173
227	0xbdb592b8	-0.08865875
228	0x3d6dfccb	0.05810241
229	0xbd24f7bf	-0.04027533
230	0x3dcafd68	0.09911615
231	0x3e94b5f7	0.29045078
232	0x3e57afef	0.21063207
233	0xbdd953b4	-0.10611668
234	0xbe317779	-0.17330731
235	0xbe1be1ba	-0.15222827
236	0xbe84c42c	-0.25930917
237	0x3d8837b5	0.0665125
238	0x3d83ade0	0.064296484
239	0x3e258833	0.16165237
240	0xbd17129f	-0.036882993
241	0xbeb3e1e0	-0.35133266
242	0xbcfa17c5	-0.030528912
243	0x3c031a67	0.0080019
244	0xbd76688b	-0.060158294
245	0x3ec4d8df	0.3844671
246	0x3e248a2f	0.16068338
247	0x3dfdb08d	0.1238719
248	0x3de49857	0.11161869
249	0xbe737707	-0.23775874
250	0x3e078ef2	0.13238123
251	0xbb2f2e47	-0.0026730464
252	0xbcf66a63	-0.030080026
253	0xbd1fe2bc	-0.03903459
254	0x3e84927d	0.25893012
255	0xbd73603b	-0.059417944

l1/b f4 [100]
0	0xbe62db49	-0.22153963
1	0xbeadd7b0	-0.3395362
2	0x3b83b13a	0.00401893
3	0xbe1f18a7	-0.15536748
4	0xbe31e195	-0.17371209
5	0xbc2d9030	-0.010593459
6	0x3d8006af	0.06251275
7	0x3e762263	0.24036555
8	0xbeab1991	-0.33417943
9	0xbe5c44db	-0.21510641
10	0xbe92bd38	-0.28659987
11	0x3db7463a	0.089489415
12	0xbd55e1e5	-0.052217383
13	0x3e893e7d	0.26805487
14	0xbe46a052	-0.19397095
15	0xbe4910ab	-0.19635265
16	0x3d9a3667	0.07529908
17	0xbea731bb	-0.3265513
18	0x3df2b8f3	0.118516825
19	0x3e03618c	0.1283018
20	0xbe53d8e8	-0.20688212
21	0xbe7ddba6	-0.2479082
22	0x3e3a7849	0.18209948
23	0x3cd8a149	0.026444094
24	0x3e9e08a4	0.30865967
25	0x3e66e363	0.22547679
26	0x3c8b3596	0.016993325
27	0xbd915037	-0.07095378
28	0x3e849c39	0.25900438
29	0xbea27e0f	-0.317368
30	0x3ef79c6f	0.48361537
31	0x3eb7d366	0.35903472
32	0x3e49e6ee	0.19716999
33	0x3ea6c5c2	0.32572752
34	0x3df6f587	0.120585494
35	0x3e5b759d	0.21431585
36	0xbea0c3b2	-0.31399304
37	0x3f0092b2	0.5022384
38	0x3e650836	0.22366413
39	0x3efa14f6	0.48844117
40	0x3e9b874c	0.3037666
41	0xbeb18c1d	-0.3467721
42	0xbdfa6eb5	-0.12228147
43	0xbc29573f	-0.0103357425
44	0xbe4de6a0	-0.20107508
45	0x3e6d4df4	0.23174268
46	0x3e7061bf	0.23474787
47	0x3e69c35a	0.22828427
48	0x3e9396c0	0.2882595
49	0xbead7e26	-0.33885306
50	0x3e24fb56	0.16111502
51	0xbe1ceb14	-0.1532405
52	0x3e4c5117	0.19952808
53	0x3dbaa75a	0.09113951
54	0x3ecf402b	0.40478644
55	0x3ccac318	0.024751231
56	0x3effbe84	0.4995004
57	0xbe5a4356	-0.21314749
58	0xbdd3fe42	-0.1035123
59	0x3e201113	0.15631513
60	0x3d7a5b33	0.06112213
61	0x3dfa9dbd	0.122371174
62	0x3ed2845a	0.411166
63	0xbe557532	-0.20845488
64	0xbe900b01	-0.28133395
65	0x3d8ca0be	0.06866597
66	0xbdd8e88b	-0.10591229
67	0xbe736416	-0.23768649
68	0x3e13e897	0.14444195
69	0x3e9aa596	0.30204457
70	0xbe460942	-0.19339469
71	0x3d14510f	0.036210116
72	0x3e8f07cb	0.27935633
73	0xbc4227a2	-0.0118502695
74	0x3eb65720	0.35613346
75	0x3e56dbcd	0.20982285
76	0x3ea27042	0.3172627
77	0x3a34afb1	0.0006892635
78	0x3e48555e	0.19563815
79	0x3e568b7a	0.20951644
80	0x3db3780c	0.087631315
81	0xbe98d778	-0.2985189
82	0xbeb08347	-0.34475157
83	0x3d903f8b	0.0704337
84	0x3e87e2a9	0.26540115
85	0xbde4f7ae	-0.11180054
86	0x3e83354b	0.25626597
87	0x3e27df3c	0.16393751
88	0xbe402ae3	-0.1876636
89	0x3dc8e7c5	0.098098315
90	0x3e1ae04c	0.15124625
91	0x3e25d14b	0.1619312
92	0x3e8d8676	0.27641648
93	0x3e13f126	0.1444746
94	0x3e000285	0.12500961
95	0x3e8364d7	0.25662872
96	0x3dc8b904	0.09800914
97	0xbe51d21d	-0.20490308
98	0xbd377c87	-0.044796493
99	0x3dc2af96	0.095061466

l3/b f4 [25]
0	0x3ec9a48b	0.3938335
1	0xbed49692	-0.41521126
2	0x3f2553a7	0.6458077
3	0x3ec3b067	0.38220522
4	0xba9f662b	-0.0012161186
5	0xbcce3c0a	-0.025175113
6	0x3f1eaa52	0.6197864
7	0x3f613617	0.8797316
8	0xbef9df01	-0.4880295
9	0xbcfb63f0	-0.030687302
10	0xbeb3638c	-0.35036886
11	0x3f2143de	0.6299418
12	0xbe9fc66e	-0.31206077
13	0xbeadaf0d	-0.33922616
14	0xbd599354	-0.05311902
15	0x3e07707f	0.13226508
16	0x3f4bb8bd	0.79578763
17	0xbd9c8653	-0.07642808
18	0xbebb135e	-0.36538213
19	0xbe6942b1	-0.22779347
20	0xbd4abf62	-0.049498923
21	0xbecd83a1	-0.40139487
22	0x3f6d0107	0.9257969
23	0x3d19d33a	0.037554957
24	0xbe6c1b9e	-0.2305741

l4/b f4 [9]
0	0xbeefa563	-0.46805868
1	0xbeca8d44	-0.39560902
2	0xbe808bda	-0.25106698
3	0xbed4cf2c	-0.4156431
4	0xbfa70cb2	-1.3050749
5	0xbecb27c2	-0.3967877
6	0xbeffc0ed	-0.49951878
7	0xbee37ba7	-0.44430277
8	0xbeedc30b	-0.46437868

l0/b f4 [100]
0	0x3d0af909	0.033928905
1	0x3cf7914f	0.030220656
2	0x3c27e8f5	0.010248412
3	0x3d1867b9	0.037208293
4	0x3d814234	0.06311455
5	0xbcd7ace6	-0.026327562
6	0xbb3f8153	-0.002922137
7	0x3a292816	0.00064528116
8	0xbcecc522	-0.028902594
9	0xbce9fc27	-0.028562618
10	0x3d238f24	0.03993143
11	0x3d97b3c3	0.07407334
12	0x3bb72fec	0.0055904295
13	0x3bcaa5d3	0.0061843186
14	0x3c36eaaf	0.011164351
15	0x3dd13ea9	0.102170296
16	0xbbc47dd8	-0.005996447
17	0xbae7ff0f	-0.0017699915
18	0x3d9fcc96	0.078026935
19	0xbd277ff3	-0.040893506
20	0xbd001bac	-0.03127639
21	0x3dbcfadf	0.09227537
22	0x3d0466b3	0.032324504
23	0xbd2e4b21	-0.042552117
24	0x3c9b48bf	0.018955586
25	0xbd4f6cea	-0.050640978
26	0xbd0c9b82	-0.03432799
27	0x3dc5ea80	0.09663868
28	0xbc2e787d	-0.010648844
29	0x3c61f341	0.013790906
30	0x3bb56d5d	0.0055367188
31	0xbca35bef	-0.019941298
32	0xbd3e70be	-0.046494238
33	0x3d23ffcf	0.04003888
34	0xbd0b47db	-0.034004074
35	0x3c0bb52e	0.008527083
36	0x3c488be8	0.0122403875
37	0xbd579594	-0.052632883
38	0xbd492257	-0.049105015
39	0xbd4e799d	-0.05040895
40	0x3c8edc1a	0.017438937
41	0xbdaee6ca	-0.08540113
42	0x3c812d93	0.015768802
43	0xbdcdb162	-0.10043599
44	0xbc0f5757	-0.008748851
45	0x3c822165	0.015885064
46	0xbca6a935	-0.020344356
47	0x3c82338c	0.01589372
48	0xbc4747e5	-0.012163137
49	0x3caaf86d	0.020870412
50	0x3d074ff3	0.03303523
51	0xbcc5bbc0	-0.024137378
52	0x3c76f9ff	0.015074252
53	0x3d5aa969	0.05338422
54	0xbd837927	-0.06419592
55	0xbd93559c	-0.07194063
56	0xbbb24208	-0.0054400004
57	0x3cd739ed	0.026272738
58	0x3d178078	0.03698775
59	0x3d076155	0.033051807
60	0xbc8054a4	-0.01566536
61	0xbcd8d967	-0.026470853
62	0x3da2c344	0.079474
63	0xbce06ec5	-0.027396569
64	0xbce07ff3	-0.027404761
65	0xbd2a71e5	-0.041612525
66	0xbcdb1fee	-0.026748624
67	0xbd1b8fc6	-0.03797891
68	0xbcf0421c	-0.029328398
69	0x3d7d8290	0.061892092
70	0xbd1f253a	-0.03885386
71	0xbcf73ed8	-0.030181333
72	0xbdcf7895	-0.10130421
73	0xbd34906a	-0.044083036
74	0x3b137a97	0.002250349
75	0x3d4b6e40	0.04966569
76	0x3c7700f5	0.015075912
77	0xbc0953d7	-0.008381805
78	0x3d0cc9df	0.034372207
79	0xbd997798	-0.07493514
80	0xbd016606	-0.031591438
81	0xbd732212	-0.059358664
82	0x3d030d5e	0.03199517
83	0xbcb40a98	-0.021977708
84	0x3c69e9df	0.014276951
85	0x3dbfb6e3	0.09361055
86	0xbd62da6b	-0.05538408
87	0x3c0f0957	0.008730254
88	0xbc55e273	-0.013054478
89	0x3d0e28bf	0.034706827
90	0x3d09b3e1	0.03361881
91	0xbc062561	-0.008187623
92	0x3d2169f5	0.03940769
93	0x3caf2b87	0.02138306
94	0xbb18dc10	-0.0023324527
95	0x3d2420df	0.04007041
96	0x3ce486aa	0.027896244
97	0x3d02b8cc	0.031914517
98	0x3dc93885	0.09825233
99	0x3daeaefe	0.08529471
