rl_planner/rl_agent/model/xy.model (npz, 3048 bytes, 4 tensors)

l0/W f4 [50, 2]
000000 2d 52 92 3f 62 48 a3 bd 05 7e be be 54 26 9c be
       1.1431328 -0.0797279 -0.3720552 -0.30497992
000010 28 ca 59 bf 01 54 16 3f 88 c9 50 bf 35 f7 4d bf
       -0.8507409 0.5872193 -0.8155751 -0.80455333
000020 c2 87 2c bc 4a 07 8c 3f 22 8e a4 3f cd da 75 3f
       -0.010530414 1.0939724 1.2855875 0.9603699
000030 d3 aa 36 bf 3a 54 48 bf 59 9a 92 3f c8 ef 6a be
       -0.7135441 -0.7825352 1.1453353 -0.22943032
000040 86 7f e4 bf d3 77 54 3f e2 97 07 bf 3e 94 8f 3f
       -1.7851417 0.8299534 -0.5296613 1.1217115
000050 18 28 89 3d 35 31 b5 bc 94 de df bd 52 c0 16 3f
       0.066971004 -0.02211819 -0.10931125 0.5888721
000060 91 a7 02 3e b1 dc ad bf 93 85 3d 3f fc 16 49 3f
       0.12759234 -1.3582975 0.74031943 0.78550696
000070 e5 56 43 3e 47 87 df 3e c6 d0 e1 3e df ad 0a 3e
       0.19076116 0.43657896 0.44104594 0.13542889
000080 ca b5 a4 3f 9c e6 7f be d1 42 9c 3f 64 7d 7a be
       1.2867978 -0.24990314 1.2207891 -0.24461895
000090 ab 27 20 3f 81 3c 12 3f 42 3e 5f bd 2f 8c 10 3f
       0.6256053 0.5712357 -0.054502733 0.56463903
0000a0 cb dc 22 3f 3b 04 87 be 6f 39 ee be 08 a6 9c 3e
       0.63618153 -0.26370415 -0.46528193 0.30595422
0000b0 92 31 71 bc 1a 2b 75 3e 27 bb aa 3e e7 db 97 be
       -0.014721291 0.23942223 0.3334591 -0.2965996
0000c0 d3 0a de be 03 f2 e6 be c4 f8 99 3e 0a d0 81 bf
       -0.43367633 -0.45106515 0.30072606 -1.0141613
0000d0 c9 1e ea be 5f 0b 42 3f 16 f1 ed be 34 08 5b 3d
       -0.45726612 0.757986 -0.46472996 0.05347462
0000e0 21 d1 4d bd 7c c2 22 3f 39 fd 1b bf e6 1b 3b bf
       -0.05024827 0.6357801 -0.6093326 -0.73089445
0000f0 20 74 9f be ab 86 86 be be dd 1b bf 73 30 9f bf
       -0.31143284 -0.26274619 -0.60885227 -1.243666
000100 7f a9 c2 bf 92 71 a1 3f 4d 06 84 3f b3 a1 85 3c
       -1.5207976 1.2612784 1.0314423 0.016312456
000110 36 59 9b be 2c ce be 3e 4f 47 1f 3f d9 4a 2a 3f
       -0.303415 0.37266672 0.62218183 0.6652046
000120 d5 a0 58 3f 67 0b 81 bf 35 07 50 3f c4 5c 94 3f
       0.8462041 -1.0081605 0.81261 1.159081
000130 f9 95 50 3e 4f ad 72 be 21 01 4c bf fa e0 9e 3e
       0.2036971 -0.23698924 -0.7968922 0.31031018
000140 af 5b d0 3e de 28 02 3f 80 f8 97 bf d4 25 f6 3f
       0.4069495 0.5084361 -1.1872711 1.9230294
000150 02 ff 69 3e 27 4b 74 be dc 9c 9e be 02 c6 01 bf
       0.22851184 -0.23856793 -0.3097905 -0.5069276
000160 6a 59 bb be 33 f8 8f 3f a5 e9 d4 3d 18 e2 99 3e
       -0.36591655 1.1247619 0.10396127 0.30055308
000170 92 55 da 3e 86 f2 8e be 36 f0 a6 be 32 3f 8e 3e
       0.4264341 -0.27919406 -0.3260514 0.2778259
000180 d4 71 92 bf 69 fa 48 bf c2 68 cd 3e 42 bb 6c 3f
       -1.1440988 -0.78507096 0.40118986 0.9247323

l1/W f4 [9, 50]
000000 9c a4 4f be 9e 9f a6 bd 0c be 91 3d 23 39 8a 3d
       -0.20277637 -0.08135913 0.07116327 0.06749179
000010 82 73 dd bc c4 0f 36 bd bc f5 5e 3e d5 c9 a4 3d
       -0.027032617 -0.04444863 0.21773428 0.08046309
000020 3e b7 2f 3d d6 4f 77 3e f9 0e 99 be 1c 1e 6c bd
       0.042899363 0.24151549 -0.29894236 -0.057645902
000030 31 5f 78 3e a1 55 41 bf 6a ec 5f bd cf 6c 1e be
       0.24255063 -0.75521284 -0.05466882 -0.15471195
000040 ed 53 47 3e 38 41 82 3c e9 cc 3e 3e 60 21 09 bc
       0.19465609 0.01590024 0.18632855 -0.008369774
000050 00 25 f0 bd 6e 5a 67 3e d6 68 a1 3d 7a cd aa be
       -0.11725807 0.2259309 0.07881324 -0.3335989
000060 e2 91 b2 3e 70 cf 39 3d 2e e9 13 3d 1c b2 6d bd
       0.34876925 0.045363843 0.03611105 -0.058031186
000070 7e b0 a7 bd 89 63 9e be 53 19 b9 3d 21 35 21 bd
       -0.0818796 -0.30935314 0.09038033 -0.03935731
000080 24 de 48 bd 5a a2 a0 3e fe e8 58 bd 70 e4 70 3e
       -0.049039975 0.31373864 -0.052956574 0.23524642
000090 49 08 52 3e f9 ba 10 3e 4d 6b 8b be 00 fd ca 3d
       0.20510973 0.14133824 -0.27230301 0.09911537
0000a0 d6 3e d2 be 3e 6d 01 3e 36 42 8d bd 42 d7 e6 bd
       -0.41063565 0.12639329 -0.06897394 -0.11271526
0000b0 4c df 47 3e e5 3e 7b be bb 7c 05 3f 50 45 d2 be
       0.19518775 -0.24535711 0.5214345 -0.41068506
0000c0 66 8e 33 3e 11 d4 46 be ba 6e b7 be e7 e3 0b 3e
       0.1753479 -0.19416834 -0.35826665 0.13661157
0000d0 93 81 8c bd 46 4a 4c be ab 75 3c be da 13 2a bc
       -0.06860652 -0.19950208 -0.18404262 -0.01038071
0000e0 a3 83 66 3e ad ef 8b be 18 0b 5d be 4f 2a 5a 3e
       0.22511153 -0.27331296 -0.21586263 0.21305202
0000f0 62 02 e3 bc f1 bb 8e 3d 22 12 7a 3e a4 d9 8a be
       -0.027711097 0.06969441 0.2442098 -0.27119172
000100 47 e4 47 bc 6b 7d 6c be b7 13 cf 3d 19 0e 23 be
       -0.012200422 -0.23094718 0.10111182 -0.15923347
000110 18 70 1d bd 05 e4 5a 3d 09 e6 90 be 70 4c 20 3e
       -0.03843698 0.053440113 -0.28300503 0.15654159
000120 d8 0f b4 3c db 8a 1a be 54 3c 60 bd 71 48 64 be
       0.021980211 -0.15092032 -0.054745033 -0.22293259
000130 b4 83 0c be e5 05 d8 bd 50 3a 7a be a4 97 8e 3d
       -0.13722116 -0.10547999 -0.24436307 0.06962517
000140 d2 9e 09 be 76 5f 73 3e 6f 2a 37 3e 62 42 01 3f
       -0.13439491 0.23766884 0.17887281 0.5049192
000150 ae c2 c6 bc d6 e2 73 3d bf 23 65 3d f5 93 cb 3e
       -0.024262752 0.0595425 0.055942293 0.3976132
000160 af 37 07 be 2a 5f c6 3d 9a df 12 be 87 b3 92 3e
       -0.13204835 0.0968612 -0.1434311 0.28652593
000170 ff f1 84 3d 49 f2 76 be 82 6c f2 3d 7d ff 93 bd
       0.064914696 -0.24115862 0.118371025 -0.07226465
000180 01 97 4c 3d b6 7c 76 be 9e be 55 3e 27 a8 27 3d
       0.049948696 -0.24071011 0.20873496 0.040931847
000190 e9 fb 1b be e2 69 8c be 6b 11 d4 3e e0 40 6f be
       -0.15232815 -0.27424532 0.4141954 -0.23364592
0001a0 ab 2d 0e 3e f5 5d cd 3d a0 b1 98 3d 49 e0 a1 3d
       0.13884608 0.100276865 0.07455754 0.07904107
0001b0 ea 8c 83 bd d7 d4 25 be 97 36 6a be 93 4e 18 be
       -0.064233616 -0.16194473 -0.22872387 -0.14873724
0001c0 ea 3c 43 3e 15 e4 6b bd 1b ff c4 bd 93 87 81 bd
       0.19066206 -0.057590563 -0.0961897 -0.06324687
0001d0 12 a9 85 bd 82 87 c9 bd e2 03 9d 3d dc 05 cc 3e
       -0.06526388 -0.09840299 0.07666756 0.3984822
0001e0 91 be 84 be 00 a9 8e 3e 4e 55 66 3d f0 9a 85 be
       -0.2592664 0.27863312 0.056233697 -0.2609477
0001f0 f0 3f 38 3e 32 36 50 3d 35 f4 3f be 65 c4 86 bc
       0.1799314 0.050832935 -0.18745501 -0.01645107
000200 1b 8e 86 3d e8 74 87 3e d5 d8 66 3d 8b 6d f8 bd
       0.06570073 0.2645638 0.05635913 -0.12130269
000210 95 53 6c 3e dc 1c 50 3e a4 c5 14 bd 41 8b d2 3d
       0.23078759 0.20323509 -0.036321297 0.10280467
000220 86 a8 e9 bb 74 81 7b 3e ba 1f 13 bf 64 a4 87 3e
       -0.0071306853 0.24561101 -0.57470286 0.26492608
000230 97 11 a2 be 7f 22 ff bc e7 67 16 3d 78 46 03 bd
       -0.31654045 -0.031144379 0.036720183 -0.032049626
000240 c9 50 14 be d2 0a eb be 7c 30 a1 3e c9 c4 a4 bd
       -0.14483942 -0.45906693 0.31482303 -0.08045346
000250 a7 45 ce bd eb 6a ae bd 58 e7 d8 3d 28 48 5c be
       -0.10071879 -0.08516487 0.10591 -0.215119
000260 95 06 b8 bd 79 68 90 3d f5 6c ce be 15 2d 02 be
       -0.089856304 0.070511766 -0.40317503 -0.1271251
000270 60 71 a2 3d ac 30 63 be 54 32 54 3d 9b a9 7d 3e
       0.07931781 -0.22186536 0.05180581 0.2477173
000280 95 08 56 be 3a 33 12 bd 63 b5 d9 be 7f e1 37 be
       -0.20901711 -0.035693385 -0.425212 -0.17957114
000290 28 ae d7 bd 15 71 70 bc 3a 77 a0 3e d8 6e 78 3a
       -0.105312645 -0.014675398 0.31340963 0.0009476966
0002a0 ad 18 ac 3e 30 df 02 bf 6f 01 e7 bd 05 19 53 3e
       0.33612576 -0.5112181 -0.1127957 0.20615013
0002b0 86 5f 4b 3e 73 64 07 bd 29 c3 7b 3e e4 75 eb 3d
       0.19860658 -0.03305478 0.24586166 0.11497095
0002c0 45 a5 3c 3e 89 2d 58 3e c0 ff 90 be b2 f1 07 bd
       0.1842242 0.2111112 -0.28320122 -0.033189483
0002d0 4e 81 f1 bd 07 11 58 3c cd b5 3f be 39 78 c8 3e
       -0.11792241 0.013187653 -0.18721695 0.39154223
0002e0 7b a6 0c 3c 7c 79 75 3e 70 4d e6 3e 1a c5 05 be
       0.008584614 0.23972124 0.44980955 -0.1306347
0002f0 4b bd 63 be 74 2c a1 3d c0 98 4e be ee de b5 3d
       -0.22240178 0.07869807 -0.20175457 0.08880411
000300 bd a1 60 3e e5 44 b0 bc 1b d4 aa 3e 22 93 3e be
       0.21936698 -0.021517226 0.3336495 -0.18610814
000310 5c 7f a4 bb af 54 3d be 2d 52 a9 3e 19 97 4b be
       -0.0050200652 -0.18489335 0.33070508 -0.19881858
000320 4e 3f 70 be 06 d4 a2 be d5 c6 5c 3c 5e 08 1b be
       -0.23461649 -0.31802386 0.01347514 -0.1513991
000330 29 d7 67 be f9 7c 99 3e ba fa 08 3e d6 9c 33 3b
       -0.22640671 0.2997816 0.13376895 0.0027406714
000340 80 36 96 3e 9c 43 6a 3e 0a 9d fe be 78 74 2a bd
       0.29338455 0.22877353 -0.49729186 -0.04161498
000350 71 4c 91 3e f5 b5 44 be 41 f8 14 3d c4 a2 e1 3d
       0.28378633 -0.19210036 0.036369566 0.11017373
000360 93 28 49 bd 61 71 d5 bd 62 99 7d 3d f9 0f 8d be
       -0.04911096 -0.10422016 0.061913855 -0.2755125
000370 37 aa 7d be 83 a6 19 3e 74 04 32 3e 1c 29 88 bd
       -0.24771963 0.15004925 0.17384511 -0.06648466
000380 da 83 99 bd 38 ac ee bd c7 d5 9b 3e af 6f 9a 3d
       -0.07495852 -0.11653942 0.30436537 0.07540833
000390 53 9d 28 bf 39 ad 48 3e 79 5d 86 be 63 d0 20 3e
       -0.6586506 0.19597329 -0.2624319 0.15704493
0003a0 ea f1 bb bd 82 bd 3f 3e d9 ae cd be 69 8b 4c 3e
       -0.09177001 0.18724635 -0.4017246 0.19975056
0003b0 48 56 bd 3d 48 c8 85 3d e0 df a2 be 98 30 cc 3c
       0.092449725 0.06532341 -0.31811428 0.024925515
0003c0 3a 88 06 3e 04 73 46 3e 75 37 90 3e 7f d9 90 be
       0.13137904 0.19379812 0.2816731 -0.28290936
0003d0 3f 9a 2a 3e 28 dd a1 bd e7 3a c6 3e 30 71 87 be
       0.16660403 -0.0790351 0.38716814 -0.26453543
0003e0 3b 97 42 3d 0f 2c af bc 1a 5d b0 3d 11 03 62 3c
       0.047507506 -0.021383313 0.08611508 0.013794676
0003f0 d7 38 84 bd 42 c8 3c bd a8 95 52 3c 8f d0 9b 3e
       -0.06456154 -0.04608942 0.012853064 0.30432555

l1/b f4 [9]
000000 35 a1 bf be cc d3 6b be 63 5a ad be 6c 43 5d be
       -0.3742768 -0.23030013 -0.33858022 -0.2160775
000010 22 d8 0b bf df 20 ff be 9e 9f 10 bf 5b ea b5 be
       -0.5462667 -0.49829766 -0.56493556 -0.35530362
000020 5b 4d b6 be
       -0.35605893

l0/b f4 [50]
000000 d3 28 c2 3e 31 55 24 3f 39 ec 9f 3e 44 b3 08 3f
       0.3792177 0.6419249 0.3123491 0.5339854
000010 a5 02 97 3e 61 38 d3 3d 3f 90 68 3e ad 7d 9f 3e
       0.29494205 0.10313488 0.22711276 0.3115057
000020 4d 10 ea be 68 ba 3b be 26 9c 26 3f 10 32 f6 bd
       -0.45715562 -0.18332827 0.65082014 -0.120212674
000030 92 d6 ac be 35 fa f2 3e f5 4c 31 3e 96 a9 25 3e
       -0.33757454 0.47456518 0.17314513 0.16177973
000040 93 de 52 3d 61 a7 c2 3e d7 c9 2c be ef 56 1c 3e
       0.051481795 0.38018325 -0.16873871 0.15267538
000050 21 62 2e 3f cb db a6 3d 32 d1 dd bd 13 6c b3 3e
       0.6811848 0.08147391 -0.108309165 0.35043392
000060 24 14 10 3e 69 35 09 3f b9 81 2c be 03 8b d3 bd
       0.14070183 0.5359712 -0.1684636 -0.10329249
000070 98 28 28 3f 47 7a 73 be 27 6a 09 3f 52 4b 36 3e
       0.6568694 -0.23777114 0.536776 0.1780217
000080 e4 f5 1c 3f 8f 43 7e be c8 da 29 3f 90 83 61 be
       0.613127 -0.24830459 0.6634946 -0.22022843
000090 d2 c9 05 3c fc a4 41 3e 2a 6b 41 3f 28 a3 80 3e
       0.0081657935 0.18910593 0.75554144 0.25124478
0000a0 94 03 dd 3e 27 eb 64 be df 88 bd bc f9 ed c4 3e
       0.43166792 -0.22355329 -0.023136554 0.3846281
0000b0 bd 4a 9b be 9a a9 99 3e ec 9b 4d be 1a f1 4a 3f
       -0.30330458 0.30012208 -0.2007901 0.7927414
0000c0 b4 22 c0 3e 7d 2f 84 3e
       0.37526476 0.2581748
