rl_planner/rl_agent/model/yr.model (npz, 7538 bytes, 10 tensors)

l2/b f4 [20]
00000000: 5412 e8bc dcd9 d0bd 1412 e6bb 6728 98b9
00000010: 83b5 9c3e 70dd 983e 5f75 bdbd 3c1c c03e
00000020: 54a1 54bd 73ea bdbd 8e96 423e bfa6 a93e
00000030: 36c1 c3bd cd75 15bd 525a edbd f1d9 a23e
00000040: 05d0 7b3e f81c e83d d0e3 a33e 6c3f 07be
-0.028329052 -0.101978034 -0.007021198 -0.000290218 0.30607232 0.29856443 -0.092509024 0.3752154
-0.051911667 -0.09273233 0.19002745 0.3313503 -0.095583364 -0.036489297 -0.11589493 0.318069
0.24591072 0.1133365 0.32009745 -0.13207787

l1/W f4 [20, 20]
00000000: fcfe 03bd f1a5 d4be 75a2 233e 603a 28be
00000010: 9661 e53c 1205 63be cd65 22be 733e 58bd
00000020: 7179 9fbe c354 5bbe 2b1e cdbd 9aab 723c
00000030: d690 893e ad23 e53e 67ba f23d 8d42 953d
00000040: ff13 033e 2d1b 793c 39ff 8c3e 2719 c13d
00000050: 32ff e7bd 8cbe 9e3e eed2 a53e 3e25 bdbd
00000060: 5894 07bf 4dd1 7abe b6b7 21bf d915 dfbe
00000070: 6e24 75be 6fbc a9bd 5d2f d13c f89b 53be
00000080: 3cf0 ce3e 2ffa 0c3f f627 843d f985 33bc
00000090: 2cfd 22bd 371c 24be 5492 133f db15 b13e
000000a0: 1f12 1abe d3d9 98be 37dd 733d 89f8 4bbc
000000b0: 0208 033f ea3f 353e 30a8 913d fffe 993e
000000c0: 5d55 d43c 71e3 e2bd 2897 03bf 6cff 193e
000000d0: ad82 183e f500 213e 2f72 44be 6363 37bf
000000e0: d6ad cdbc 0720 6e3e e08c 3c3e 8341 443e
000000f0: 37f9 0ebe a9c4 053d 50e0 043e 06d9 44be
00000100: 3592 883d 64dd f0be b84d b2bd 2351 923c
00000110: f99a e7be 4738 babd 036b 0bbe 8de5 07be
00000120: a789 3fbe 52ce 093f 871d 2c3d e646 7d3e
00000130: 0dad 953d b0ea 743e 2e43 613f b639 a23e
00000140: 8600 583e f236 cabe 5134 5f3e c2df a33e
00000150: 5e90 803e f778 543e 8e31 cabc f1d1 98bc
00000160: 1149 c73e a44a 8e3d ce91 c53d 233f 86be
00000170: b964 07be 0f27 60be 86e1 15bb b933 ae3d
00000180: 07cd b2bd f6d7 b23d 2f39 59bc f625 543e
00000190: a119 53be 63ce 30bd de61 e43d d774 5c3e
000001a0: 6882 ad3e 85ab 80be 562c 0ebf 6d54 943e
000001b0: b4ea 803e 4c5d a93e c71d 953c 383b 373e
000001c0: 20eb f43e d8bf 503e 7d88 bb3e cec3 36bf
000001d0: cc94 023e 3aac d73e c9c5 463e 9005 ef3e
000001e0: 28ba f6be 56aa 96bd 58f3 48bd 05d3 db3e
000001f0: a960 f8bd 6ef4 aabe 2bd0 3dbe 9d41 ed3d
00000200: 1b61 cc3e 8992 633e ea90 ddbd 0064 20be
00000210: bdf8 80be fe6b 94be 3baa 96be b8d2 6c3e
00000220: f54d 35be 03ee b0be 34ce 11be 14bf 7abd
00000230: e3e1 2cbe 62f1 86be 6e64 903e 3d5a f8bb
00000240: 4ca7 36be b2ff dd3e 3bd1 8e3e e26c 0ebe
00000250: ac68 4d3d 86ae 87bd ba51 1cbd 7b22 5dbe
00000260: 47d8 783b 7b2e 053f bcbe d2be 1b52 aabd
00000270: a5ea fb3d 7e96 8abd 43c5 26be 32e1 b4bd
00000280: 4b4e 48be 420a 0dbe 6135 083e 85ea 043f
00000290: fd13 edbe 4a61 473e 5be2 90bd 9640 07be
000002a0: e366 1d3e d17b 8f3e 7f0b fc3e 9373 74be
000002b0: 0d04 49be cac8 b53e d5dd 2d3e 747a 7a3e
000002c0: 1e48 103e da3a 86bd f412 073e 0cc3 34be
000002d0: ea63 a5be 98e0 953c 2411 d53e d3ab e6bd
000002e0: 56ab dbbd 1348 12bf 616e d8bd 57d8 d43d
000002f0: e549 afbd e412 f53d 1c31 04bf e75b 923e
00000300: 0e8e 84bd d460 803e 4685 bcbe 5f14 d23e
00000310: 3abf f1bc f335 433e 0491 fc3e 8d8b 943b
00000320: 4038 c63c 1d64 98bd 2168 6a3e 4485 c1bd
00000330: 573e 503d 439b 8b3e b7d0 113e 915d 743e
00000340: 808c 8b3e 1a51 39be 987d 6d3e 0b74 8bbe
00000350: b7c4 a0be ea67 1bbe 7e2c e53d 8ea1 653e
00000360: 3d52 9d3e 55a8 1d3e c4cb 583d 5166 fcbe
00000370: eb3c e9be e0fa 34be c615 9ebe 05dd c23e
00000380: 2631 5ebd d91e 78bd 1e28 febd 2847 15be
00000390: 36b7 013e 40db 8b3d 4e1a 2ebe f27a 6dbd
000003a0: acc7 86bc 1ce5 223b dc46 82be c5ff f7bd
000003b0: c0aa 5cbe 18d6 b63d fe34 c13e d866 503f
000003c0: 8752 afbd b07d d63d aa24 0cbe 1926 e03d
000003d0: 7bab 283d bbc7 9ebd d0b1 b7be 619c 4cbc
000003e0: 2b46 3f3a 35a0 9a3c 4244 133e 1508 3abe
000003f0: fcd1 023e 5955 d4bd 89ba a13e 7fbf c73d
-0.032225594 -0.41532853 0.15979941 -0.16428518 0.028000634 -0.22169903 -0.15859146 -0.05279393
-0.3114734 -0.21419053 -0.1001552 0.014811421 0.26868314 0.4475378 0.1185196 0.07288084
0.12800597 0.015204233 0.2753847 0.094286256 -0.113279715 0.3100475 0.3238749 -0.09235619
-0.5296073 -0.24493904 -0.63170946 -0.43571356 -0.23939678 -0.08287894 0.02553528 -0.20664966
0.4041766 0.5506925 0.064529344 -0.010957235 -0.039792225 -0.16026388 0.57645154 0.34586987
-0.15045975 -0.29853687 0.05953714 -0.012449392 0.51184094 0.17700163 0.07112157 0.3007736
0.02591961 -0.11078537 -0.5140252 0.15038842 0.14893599 0.15723021 -0.19184183 -0.7163603
-0.025107305 0.23254405 0.18413115 0.19165616 -0.13962255 0.032658253 0.12976193 -0.19223413
0.06668512 -0.47043908 -0.0870623 0.017860955 -0.45235422 -0.09092765 -0.1361504 -0.1327116
-0.18704854 0.53830445 0.042020347 0.24734077 0.073083974 0.23917651 0.87993133 0.31684655
0.2109395 -0.39495045 0.21797301 0.3200665 0.25110143 0.2074927 -0.024681833 -0.018654795
0.38922933 0.0694783 0.09646951 -0.26220044 -0.13222016 -0.218899 -0.0022870018 0.08505959
-0.08730512 0.087325975 -0.013258263 0.20717606 -0.20615245 -0.043165576 0.11151479 0.21528946
0.33888555 -0.2513086 -0.555364 0.28970662 0.25179064 0.33078992 0.018202676 0.17893684
0.47835636 0.20385683 0.3662757 -0.71392524 0.12752074 0.42123586 0.19411387 0.4668393
-0.481889 -0.07356708 -0.049060196 0.42934433 -0.121278115 -0.3338961 -0.18536441 0.1158478
0.39917836 0.22223867 -0.10818656 -0.15663147 -0.25189772 -0.28988642 -0.2942675 0.23127258
-0.1770552 -0.3455659 -0.14238816 -0.061217383 -0.16883044 -0.26356035 0.28201622 -0.0075791166
-0.17837256 0.43359143 0.27894005 -0.13908723 0.05014865 -0.066250846 -0.038163878 -0.21595185
0.0037970708 0.5202405 -0.41161144 -0.083164416 0.12300614 -0.06766985 -0.16286187 -0.08832015
-0.19561116 -0.13773444 0.13301612 0.5192035 -0.46304312 0.19470707 -0.07074424 -0.13208231
0.1537128 0.28024152 0.4922752 -0.23872213 -0.19630452 0.35504752 0.16979153 0.24460775
0.1409001 -0.06554194 0.13190824 -0.1765253 -0.3230279 0.018295571 0.4161464 -0.112632416
-0.10726039 -0.57141227 -0.10567928 0.10392826 -0.08559016 0.11966494 -0.51637435 0.2858574
-0.06472407 0.25073874 -0.3682043 0.41031167 -0.02951013 0.19063549 0.49329388 0.0045332373
0.024196744 -0.0744097 0.22891285 -0.094492465 0.050840702 0.27266893 0.14239775 0.23863818
0.2725563 -0.18097344 0.23192441 -0.2723697 -0.31400082 -0.15176359 0.11190127 0.2242491
0.30726805 0.15396245 0.0529287 -0.4929681 -0.4555429 -0.17673826 -0.30875987 0.3805925
-0.05424609 -0.060576294 -0.124099955 -0.14577925 0.12667546 0.06828928 -0.17002222 -0.057978578
-0.016452633 0.0024855798 -0.25444686 -0.12109331 -0.21549511 0.08927554 0.37735742 0.8140693
-0.08560663 0.10473192 -0.13685861 0.109447666 0.04117916 -0.07752939 -0.35877848 -0.0124884555
0.00072965276 0.01887522 0.14381507 -0.18167146 0.12775415 -0.10367841 0.31587628 0.09753322

l0/W f4 [20, 2]
00000000: 3336 99be 364f 0ac0 b420 103f f294 29bf
00000010: a959 77be 348e 75bf 1387 08bf 9609 13bf
00000020: d0da 82be 4dcf 88be 0c5c 61bf 08ef 753f
00000030: bcd2 363f 5614 85bf bd19 743c 73ad 393d
00000040: 46ab 2abf 5009 cb3e 54fb bebd 96c4 c23f
00000050: 4fb6 72bf 02a4 ae3f 5ed0 0ebf 362c 12bf
00000060: bc16 8ebf 55a6 6abf 4eb4 8b3f 00c6 9f3f
00000070: f2d8 1dbf 74bf 57bf 347f 4a3f 104d d3be
00000080: 9bb8 dcbd e3e7 a9be 24f5 a53e 86c2 bbbe
00000090: 5fde 593f a451 bb3e d951 893e 052d 773e
-0.29924163 -2.1610847 0.562999 -0.662429 -0.24155296 -0.9592011 -0.53331107 -0.574365
-0.25557566 -0.26720658 -0.8803108 0.9606786 0.71415305 -1.0396831 0.014898715 0.04533143
-0.6666759 0.39655542 -0.09325281 1.5216243 -0.9480943 1.3643801 -0.55786693 -0.5709871
-1.1100688 -0.9166005 1.09144 1.24823 -0.6165916 -0.8427651 0.79100347 -0.41269732
-0.10777398 -0.33184728 0.3241359 -0.36671847 0.85104936 0.36585724 0.26820257 0.24138267

l3/W f4 [20, 20]
00000000: 7837 df3d 617d 803d 51b8 07be 763f 72be
00000010: a3e6 213f 2e60 373e 3760 963d d18c 053e
00000020: 3b72 2fbe c625 d0bd 5fad 0e3e 90e1 8a3e
00000030: 0280 68bd 61ad b43e e290 a0be 6b23 c23d
00000040: adaa 753e 7cee c53e f65b 643c 9c67 24be
00000050: bd75 1dbe c694 42bf 2ba7 9bbd 0bba 04be
00000060: 5605 a03e 0fc0 253f 51a4 51be 910f a33e
00000070: 8a2e 70be b44f fbbd bbab 9fbd e3af d93e
00000080: ab96 993d 7236 213e b866 dcbe b2cd b03d
00000090: d07a 38bc 3c37 0d3e 097b e73e 0fd2 14be
000000a0: 7bd3 3a3e ecec 583c 03d5 03bf 2cf4 99be
000000b0: 59ab af3e 00cf 4cbb 6bf0 2fbe b721 d23e
000000c0: 6d89 abbe 7fe8 7f3c 3737 023e d4a5 6b3e
000000d0: 13ba 83be 2761 c73d d8e6 f7be e8fc 913e
000000e0: 3d71 553e a62a 313e 817d 323f 1f42 57bd
000000f0: 8872 18bd 8232 3fbc 433d 58be 4f85 c2bd
00000100: 66c5 cc3e bd10 ba3d 10b6 003e 38f8 5d3c
00000110: 8b1f d9be 3cf4 09bf 225b 5c3e a5f6 7c3e
00000120: 4743 1cbf 2dd4 773e c911 d0be 2c7e 17bb
00000130: fd74 863e 7c02 9b3e 9cb5 8b3d 869e 3abf
00000140: 80e4 823e 263d fa3e aaef 983e e33b 98bd
00000150: 8f26 963d c7ec c0bc 4efd 6d3e 3197 673e
00000160: c917 82be cbbc a8bb 5a80 673d c007 a3be
00000170: 9a9e 57be f443 b2be 6c49 a43e f9c6 533e
00000180: c5de 2dbe bc37 b9be 54c1 86bc 7678 f0bd
00000190: 2193 80bd 79aa 1ebe 6556 c23d f3c4 99be
000001a0: 9dcf c3bd 1430 9b3e 4ebc c13d 9e5b ac3d
000001b0: 8064 bf3e 72bd 71be b047 453f 78a0 41bd
000001c0: 3ed4 0cbe 9474 933e 1832 c6be ac19 803e
000001d0: c0ac 133f ebf9 1b3e a2fd 833e e4de 69bd
000001e0: 7f68 8bbc 93f9 813e 816d bcbe 6a68 2bbe
000001f0: cdf3 59be ddc2 fcbd 170f 43bd 1498 c4bc
00000200: 06a6 db3e 1fa7 873d b4f4 30bc 69b2 a5be
00000210: 7916 6abe 9078 863e aa42 a6be b201 03bf
00000220: 2746 0cbe bc49 b5bd 8898 953e cf09 8ebe
00000230: 96f2 1fbe 2c7b fdbe 2fea 893e 1e27 af3d
00000240: efa6 2b3f 91a6 063e e825 f03b 1647 0d3e
00000250: c145 c4bd 64ed 02bf 4e49 093f 5081 9b3c
00000260: aa7c 14be 4728 e0be 9239 adbe d9ab 213e
00000270: 8b64 b03d 8552 093e 3956 1b3f 4225 23bf
00000280: 3a67 b7be 85b3 46bd ead1 423e afa6 5b3e
00000290: 8170 f6bd 5103 373f e743 0fbf 773d 863d
000002a0: 5cc1 873e 940a d83c a4f0 b0bd a0e5 923e
000002b0: 4b3e f7bd 1553 34bb 21b4 fabb a712 b13e
000002c0: 7bf3 593f 6249 a53e ec4e 113e ad2d 003e
000002d0: 38bb a93e 5c82 eabd 5ff4 e3be 22a4 f83e
000002e0: 4238 07be 761c 85be 3902 0cbe b344 113d
000002f0: 72e1 48be 5dd7 71bd 3a6d 3e3e 18ac bfbe
00000300: 8eb2 a3be c1d5 053e 92e4 bd3e 0d84 103e
00000310: e52c 9abd c935 f2be e48f cc3e 8e1a b0be
00000320: 8a5c 9b3e e03e f2be 58da 173e a692 773d
00000330: 80ee cc3e 6999 e23e 002c 84bc d5aa 013f
00000340: 410c 8f3e 92a2 e0be ad9f 0c3f cf98 4b3f
00000350: fa70 68be c0a1 293e eb3e 36bf a00d 683f
00000360: 433e 1a3f a405 893d e425 70bd 4084 a83d
00000370: 0d68 04be faf6 75be feba 063f 5a25 a5be
00000380: 3d57 48be af6a 0bbf 4008 f13d 3d61 d43c
00000390: 508d 9d3d 2c0f 86bd f482 93be 80fa babe
000003a0: 96f6 12be bb88 21be 3c79 a6bd 3065 ae3e
000003b0: 9d1c 133e 6e68 533e 0e52 36be cf26 83be
000003c0: ad55 c3be 3385 033e 66a1 12be be58 593d
000003d0: 68ec 9f3d 1e7d c6bd bf18 3dbd fad7 86be
000003e0: d93b aa3e ad08 c7be 3876 01be 2808 2bbe
000003f0: 1a3f cc3d 8ecf 96bb 630e 813d 2217 c83d
0.10899252 0.06273914 -0.13253905 -0.23657021 0.6324255 0.17907783 0.0734257 0.13041998
-0.17133419 -0.10163455 0.13933323 0.27125216 -0.056762703 0.35288528 -0.31360537 0.09479412
0.23990889 0.38658512 0.013937941 -0.16055149 -0.15376945 -0.7600826 -0.07600244 -0.12961595
0.3125407 0.64746183 -0.20472838 0.31847814 -0.23455253 -0.122710615 -0.07796427 0.42517003
0.07499441 0.15743425 -0.43047118 0.08632983 -0.0112597495 0.13790601 0.45211056 -0.14533256
0.18244736 0.01324008 -0.51496905 -0.300691 0.34310415 -0.0031251311 -0.17181556 0.41041347
-0.33503285 0.015619396 0.12716375 0.23012477 -0.257279 0.09735327 -0.48418307 0.28513265
0.20843978 0.17301425 0.69722754 -0.052553292 -0.0372186 -0.011669757 -0.2111712 -0.09498083
0.39994353 0.09085224 0.12569451 0.0135479495 -0.42406878 -0.538883 0.2151914 0.24703462
-0.6104016 0.24202032 -0.4063857 -0.0023115976 0.2626113 0.30275333 0.068217486 -0.7289814
0.25564957 0.48874778 0.2987035 -0.074332975 0.07331573 -0.023550404 0.2324116 0.22616269
-0.25408772 -0.005149459 0.05651889 -0.3184185 -0.21056595 -0.3481747 0.32087266 0.20681371
-0.16979511 -0.36175334 -0.016449608 -0.11741726 -0.062780626 -0.15494718 0.09489135 -0.30033073
-0.095610835 0.30310118 0.094597444 0.08415912 0.37381363 -0.23607424 0.7706251 -0.047272176
-0.13752839 0.2879988 -0.38710093 0.25019586 0.5768547 0.15232055 0.25779444 -0.05709733
-0.017017601 0.25385723 -0.36802295 -0.1673905 -0.21284409 -0.12341855 -0.047621813 -0.023998298
0.42900103 0.06623673 -0.010800529 -0.3236268 -0.22860135 0.26263857 -0.32472736 -0.5117446
-0.13698636 -0.08851954 0.29217935 -0.27741858 -0.15619883 -0.49508035 0.2693648 0.08552383
0.67051595 0.13149478 0.0073287375 0.13796648 -0.09583617 -0.5114348 0.5362748 0.01898256
-0.1450068 -0.4378073 -0.33832985 0.15788211 0.08612927 0.13410385 0.6067844 -0.63728726
-0.35820943 -0.048511047 0.19025388 0.21450303 -0.12033177 0.71489435 -0.55962986 0.06554692
0.2651471 0.026372232 -0.086396486 0.28690815 -0.12072428 -0.002751534 -0.0076508676 0.34584543
0.85137147 0.3228255 0.14190263 0.12517424 0.3315065 -0.11450645 -0.44522378 0.48562723
-0.13205054 -0.25998276 -0.13672723 0.035465907 -0.1961725 -0.059043277 0.18596354 -0.37435985
-0.31972164 0.13069822 0.37088448 0.14112873 -0.07528094 -0.4730666 0.3995353 -0.3439526
0.3034404 -0.47313595 0.14829385 0.06044259 0.4002571 0.44257668 -0.016134262 0.50651294
0.27939036 -0.4387403 0.54931146 0.7953004 -0.22699347 0.16565609 -0.71189755 0.9064579
0.60251254 0.06690529 -0.058629885 0.0822835 -0.12930317 -0.24019995 0.5262908 -0.3225506
-0.19564529 -0.5445966 0.11769152 0.025925273 0.07692969 -0.065458626 -0.28810847 -0.3651924
-0.14351878 -0.15774815 -0.08128592 0.34061575 0.14366384 0.20645306 -0.17804739 -0.25615546
-0.38151303 0.1284378 -0.14319381 0.053063147 0.07808763 -0.09691833 -0.046166178 -0.26336652
0.33248785 -0.38873807 -0.12642753 -0.1670233 0.09972973 -0.004602379 0.06301572 0.09770037

l4/W f4 [9, 20]
00000000: 04c4 dbbe c6f3 b5be 81d4 8abe 9ce7 bc3e
00000010: 45ce 043f 8407 b9be 7227 d8bd ad79 f8be
00000020: 1905 5cbd e1ab a63d 50f0 6ebe 77f0 29be
00000030: 6899 0a3e d2a5 9bbe 9081 db3e 82f5 67bb
00000040: 2e42 48bd 60ca 3cbe 2bea 903d 73b4 f339
00000050: e0af cb3d eb05 b03d 371d 9abe ce63 1bbe
00000060: c1b0 51be 090f abbe 6b48 8c3e 5405 25bf
00000070: f20e e7be 96aa 6dbd f706 5abe 3b18 3bbe
00000080: fa9c cf3d 44c5 633e 1e59 0dbe f5b9 353e
00000090: fb68 93be 82d0 a13d 44ce afbe 1481 6a3e
000000a0: 9dc7 c9bd 6102 c63c bc83 e8be da6e 0cbf
000000b0: 0a04 ce3d b76b e0bd d6f7 f9bc 82f9 febe
000000c0: e202 863e 8184 e73c 0124 edbe 5d2e 23be
000000d0: 592b e1bd beb7 1ebf ff80 3abe 9365 263d
000000e0: fa2b 003f 4b85 b03d bdf1 803d fb0c 56be
000000f0: d8a5 393e 777d 8fbe c238 ec3d 3cfc 9b3c
00000100: 8059 afbc 5552 abbe 5afd 053e a5b9 d1bd
00000110: dffa dfbe cdba 183f 758c 24bf 3fc6 5ebd
00000120: 750c a7be 907d 7abe dc90 c5be 5295 2f3d
00000130: fe05 123d e51a b9bd 6146 1c3e f80a 693e
00000140: 956e 863e bd79 91be 6de3 fbbe f2a3 54bd
00000150: 9a7e a93d 912b 33be 64d5 d03d 7f84 f0bd
00000160: 4988 18be aea5 663e 7f59 34bf f15f e73d
00000170: 05a9 433e 3ead 8f3e 1d1a 89be 9604 533e
00000180: 9569 c3bb 67a9 903d 2e75 613e fd44 c9be
00000190: 5db6 f2be f8fd c7be d790 fcbe de64 e1be
000001a0: 7348 343c 3dd7 8b3d 993d 5cbe 21d2 81be
000001b0: 9f40 353e 544e 1a3e ec87 91be 9070 513d
000001c0: 7aa0 393b 27ae ff3d cc0f 21be 7e34 ce3d
000001d0: 7cf2 a83e d8d4 fe3c a5f9 6e3e e95f d83d
000001e0: 65b7 a7bd f32f 21bf 636f 803c 6707 8fbe
000001f0: f569 243e fde8 abbe c446 4cbe 0ac8 52be
00000200: bb06 40bf 060e 8c3d 0a64 203d 599f 9dbc
00000210: dae4 4bbe 349b a43e e0f9 8abe 5c71 80bc
00000220: 1d32 1a3f fc39 04be b679 1f3e 6e2c 1cbc
00000230: b014 c4be c6c6 d6be 4b33 45be 5877 71be
00000240: 87f4 22bc 5b24 453e 9a10 d6bc d69d 1abe
00000250: 7ebf ccbe 6182 83be dfe1 fcbe 3f36 12bd
00000260: 02df 8dbe fa1c be3d 6504 7d3e 399b b1be
00000270: 0965 c63e e439 b33e 9522 643e 2348 1d3e
00000280: a6ad 4fbe b8ee a43c 5517 94be 02ac 69bd
00000290: 5503 3c3f fc20 40bf 6b6f 64be f611 0dbe
000002a0: 814b 51be 666f 2abe e8cd a0be 8f7e e2bc
000002b0: a066 47be a1b7 e93e eff7 83bd b2d9 e0be
000002c0: aad4 49bd 2153 b83d edf8 f93d d6d2 d03e
-0.42922986 -0.35537547 -0.27115253 0.36895454 0.5187724 -0.36138546 -0.105543986 -0.4853033
-0.0537158 0.08138252 -0.2333386 -0.16595636 0.13535082 -0.30399948 0.42872286 -0.0035394137
-0.04889124 -0.18436575 0.07075914 0.00046483017 0.09945655 0.08594879 -0.30100414 -0.15174791
-0.20477583 -0.33409908 0.27399 -0.64461255 -0.4512859 -0.05802401 -0.2129172 -0.18270962
0.10137363 0.2224322 -0.13803527 0.17746718 -0.2879103 0.07901098 -0.34337056 0.22900802
-0.09852526 0.024171056 -0.45413005 -0.54856646 0.10059364 -0.10958045 -0.030513685 -0.49799734
0.26174074 0.028261425 -0.4631653 -0.15935655 -0.10994596 -0.6199912 -0.1821327 0.040624212
0.500671 0.086191736 0.06296108 -0.20903389 0.1812967 -0.2802541 0.11534263 0.019041173
-0.021404982 -0.33461252 0.13084927 -0.10240487 -0.43746087 0.59660035 -0.6427682 -0.05438828
-0.3262669 -0.24461961 -0.3858708 0.042867012 0.035650246 -0.09038333 0.15261222 0.2275809
0.26256242 -0.2841319 -0.4919695 -0.051914163 0.082761005 -0.17497088 0.10196951 -0.117440216
-0.14895739 0.2252414 -0.7044906 0.11297596 0.19107445 0.2806186 -0.26777735 0.20607218
-0.005963514 0.07063561 0.22017357 -0.39310446 -0.47404757 -0.3906095 -0.49329254 -0.44022268
0.011003601 0.06828163 -0.21507873 -0.25355628 0.17700432 0.15068942 -0.28424013 0.05113274
0.0028324411 0.12484389 -0.15728682 0.10068606 0.329975 0.031107351 0.2333742 0.105651684
-0.081892766 -0.6296379 0.015678113 -0.27935335 0.16056044 -0.33576193 -0.1994887 -0.20584121
-0.7501027 0.06838612 0.039157905 -0.019241022 -0.19911519 0.3214966 -0.27143764 -0.015679054
0.60232717 -0.12912744 0.15573773 -0.009532077 -0.38297033 -0.41948527 -0.19257848 -0.23580682
-0.009945995 0.1925215 -0.026130963 -0.15099272 -0.39989847 -0.2568541 -0.49391076 -0.035696264
-0.27709204 0.092828706 0.24708708 -0.34688738 0.3874896 0.35005105 0.22278817 0.15359549
-0.20281085 0.020133361 -0.2892405 -0.057048805 0.73442584 -0.7505033 -0.22308128 -0.13776383
-0.20438959 -0.16644058 -0.31407094 -0.027648238 -0.19472742 0.4564791 -0.06443774 -0.43916088
-0.049275078 0.090002306 0.12205682 0.40785855

l2/W f4 [20, 20]
00000000: b65f 103e aa70 68bd 9a9e bfbe 0dbd a43e
00000010: d1d9 613d ac50 853d 638c 71be 1453 b13e
00000020: 6529 a83e cb0b a4be efdb ab3e d64a dfbd
00000030: b65c c13b 889d 85be a663 17be 847f cb3c
00000040: 72e8 903e 0dd8 aa3d edc9 973c ad43 66be
00000050: 6ade 21bc fd86 e63e 6ee4 b5be 15f2 183f
00000060: 1427 a53d 07d0 153e 28b3 babd 57b3 023e
00000070: 5a8f 4a3f 6ac7 913e c73e f53e ae3f 23be
00000080: d882 49be dd9a bb3b 8a55 b03e 2cd1 0b3e
00000090: 180e d63d 55dd b2be eaa7 bbbd a8d7 1dbf
000000a0: fa62 9e3d dea3 d13d 5e78 e1be f610 c23e
000000b0: 83dd cbbe 7268 89bd 87ef 2bbe 237d bf3a
000000c0: 031d d6bd b1ec 453e a300 92be 2df0 59be
000000d0: 68a0 4d3e 6fac c83d 6b9b 8e3d 03b4 d9bb
000000e0: a82a 2fbe a8b4 093c 76f9 e13d 5d22 813d
000000f0: f2d6 9a3e e90c ab3d ed85 d53d da06 f4bd
00000100: fdfb c3be edd3 c6bd bc45 453e 63f5 503c
00000110: 23f2 d9bd 4ae2 5bbe 0d81 07bd cf49 9dbd
00000120: 5b58 963d 289a dd3b 3a16 f93c e3b5 1a3e
00000130: d7dd 35be 4827 66be e383 563e f2e4 a6bd
00000140: 7a36 063f 6927 bfbe 7779 3a3f 909c f83d
00000150: 44ae 033e 9063 f53d fe67 b03e 9f64 313e
00000160: 810a 6cbd 1379 aebe 4b19 ecba 7f24 babc
00000170: cd83 46be 68dd 40bd 0fc9 b8be 1428 233e
00000180: 65df 363e cd81 d03e f61e ae3e 51fb 923e
00000190: 320d e93d 84a9 83bd c6d4 c33e 7346 583e
000001a0: 37db 4ebe 367c 323f c0c3 86be 654b f93d
000001b0: c292 84bc 0577 82be fb73 37bd 50be 8d3e
000001c0: f79b cabd 47fb 6bbe 038a f63d 9be4 843c
000001d0: bdb9 aa3e 646e 75be 25dc 0bbe 9392 9f3e
000001e0: 7eac babe 3d55 1a3e 0e9a 8b3d f034 6c3e
000001f0: f7aa 9bbe c61c e83e e193 b43d 2fd8 07bf
00000200: af62 713a 44c6 763d 371b 413e 2b8b 1fbf
00000210: 0460 d4bd f0f9 45be 15dd d1bc 9c13 f3bd
00000220: 4084 0c3e f9d0 5f3e b6d2 75be b910 c5bd
00000230: c25e 873e 6228 51bc 14ba 1b3f 33fb 4ebe
00000240: b1de 143e 824b c13e f958 60be f5f6 fc3e
00000250: 8299 ac3b 81c4 32be fc83 8c3c eef5 e1be
00000260: 5edc 653e d6fb 013e e7e5 ed3d 965a a03d
00000270: 152c 393e 6254 43be e4d6 b33e 1654 45bd
00000280: 3a4c a53e 5511 d2bd de3a 393e a285 aabe
00000290: 3623 803d f3a6 3cbe 565c 95bc ed23 513d
000002a0: 8f01 8e3e ab42 92be 269e 033f 3880 333e
000002b0: 5a70 853e eac6 35bd c801 ff3e 0030 b2be
000002c0: e75e 47be 945b 403e d19b 4fbe 8313 13be
000002d0: 4c28 a73e 922d bf3e 776d d2be 2328 f33e
000002e0: 976d 80be a7d2 16be 8a03 8b3d 8db8 9c3e
000002f0: 6330 923e e9c3 343f 9aca 83be 8826 6ebc
00000300: e420 ccbc 0df3 853c 5385 e23e 9681 053d
00000310: 7324 bfbe ac86 283d 44aa 85be 8715 0dbe
00000320: 53f1 9fbd dde3 d3be e223 473f 31de ca3e
00000330: f9f9 1cbe 452b 22bd 52b7 e13d d91c dabd
00000340: f499 1ebd 4dc6 abbe b5b1 cabd 14d3 c4be
00000350: 02e1 ddbe 6974 79be ac60 da3b db91 043f
00000360: 254e b83e 28f9 943e 062c 113e 971d d43e
00000370: b941 4a3e 32c7 dcbe 0a02 7a3d c0af 52be
00000380: e5f5 d6bb 8d7e 163f 4924 513e 14c6 99bd
00000390: ac69 f2be f6d2 d0be 9692 03bf 1ba3 933d
000003a0: c3ac 713e c14e babb 9d6a c5bd 14ff 21be
000003b0: 4153 09be e0f7 353d 19ca 133f 8f31 9f3e
000003c0: 01ec 7d3e 9cf4 203f 4271 5dbc 7677 313e
000003d0: 4004 d83d 1133 243e 0cb2 0dbf 6f6e 7f3d
000003e0: b6f6 31be d794 113d a612 333d e7da 3abc
000003f0: c400 75bd 0793 983e f129 a13e a415 233f
0.14099011 -0.05674807 -0.3742569 0.32175484 0.055139367 0.065095276 -0.2358871 0.34633696
0.32844082 -0.32040247 0.33566234 -0.10902946 0.0059009446 -0.2609675 -0.14784107 0.024841078
0.28302342 0.0834199 0.018528903 -0.22486754 -0.009879688 0.45024863 -0.3552584 0.5974439
0.08064094 0.14630137 -0.091162026 0.12763725 0.7912499 0.28472453 0.47899458 -0.1594226
-0.19678819 0.0057252483 0.3444026 0.13654011 0.10451907 -0.34934488 -0.091628864 -0.6165719
0.07733722 0.10236333 -0.44037145 0.37903565 -0.39817438 -0.067093745 -0.16790591 0.0014609437
-0.10454752 0.19328572 -0.2851611 -0.21283026 0.20080721 0.09798514 0.069632374 -0.0066437735
-0.17106116 0.008404888 0.11033909 0.063053824 0.30242115 0.08352072 0.10425935 -0.11915369
-0.3827819 -0.097083904 0.19264883 0.012753817 -0.10641887 -0.21473041 -0.033082057 -0.076800935
0.07341071 0.0067627616 0.030406106 0.15108447 -0.17760406 -0.22475922 0.20948748 -0.081491366
0.52426875 -0.37334755 0.7284159 0.12139237 0.12859446 0.11981881 0.3445434 0.1732354
-0.057627205 -0.34076747 -0.0018012909 -0.02272248 -0.19386216 -0.04708615 -0.36090896 0.15933257
0.17858656 0.4072403 0.34007996 0.28707364 0.1137947 -0.06428817 0.3824827 0.21120624
-0.20200811 0.6972078 -0.2632122 0.121725835 -0.01618326 -0.2548143 -0.044788342 0.2768426
-0.09893029 -0.23045073 0.120380424 0.016222289 0.33344832 -0.23967892 -0.13658197 0.31166515
-0.36459726 0.15071578 0.06816493 0.23067069 -0.30403873 0.45334452 0.08817268 -0.53064245
0.00092081254 0.060247675 0.18858038 -0.6232173 -0.10369876 -0.19333625 -0.025618115 -0.118689746
0.13722324 0.2185706 -0.24006161 -0.0962233 0.26439482 -0.012765976 0.6083081 -0.20213012
0.14538075 0.3775292 -0.2190894 0.49407163 0.005267323 -0.17457773 0.017152779 -0.44132942
0.22447345 0.12693724 0.11616116 0.07829778 0.18083222 -0.19075158 0.35124886 -0.048175894
0.3228472 -0.10257212 0.18088862 -0.3330508 0.06256716 -0.18423061 -0.018232506 0.051059652
0.27735564 -0.2856649 0.5141319 0.1752938 0.2606228 -0.044379152 0.49806046 -0.34802246
-0.19469796 0.18784934 -0.20274283 -0.14362912 0.32647932 0.37339455 -0.4109914 0.4749156
-0.2508361 -0.14728795 0.067877844 0.3060955 0.2855254 0.70611435 -0.2574051 -0.014535554
-0.024918027 0.016351247 0.44242343 0.032594286 -0.37332496 0.041144058 -0.26106465 -0.13777743
-0.07809701 -0.41384783 0.7778913 0.39622644 -0.15329732 -0.039592046 0.11021294 -0.106500335
-0.03872104 -0.3354973 -0.09897176 -0.3844229 -0.4333573 -0.24360813 0.006664356 0.5178506
0.3599712 0.2909634 0.1417695 0.41428825 0.19751634 -0.43120724 0.0610371 -0.20574856
-0.0065600746 0.5878685 0.20423998 -0.075084835 -0.47346246 -0.4078595 -0.5139555 0.07208844
0.2360106 -0.0056856577 -0.096394755 -0.15819961 -0.13410665 0.044425845 0.5773025 0.31092498
0.2479706 0.62873244 -0.013515772 0.17330727 0.105476856 0.16035105 -0.553498 0.062361177
-0.17379269 0.035542335 0.043718956 -0.011404729 -0.059815183 0.29799673 0.3147731 0.63704896

l1/b f4 [20]
00000000: d395 8a3e 2001 66bd e8a8 033f 8f59 4cbd
00000010: 279d 9d3d 19b7 083f 0000 0000 8f71 3c3e
00000020: c95b b1bd 7630 be3d 227d a2bd 2079 dd3d
00000030: 0000 0000 ba98 59be e4b6 31be 3299 b93e
00000040: b0ae d73e 58fc 7b3e f2aa d53e f0f2 b73e
0.27067432 -0.056153417 0.51429605 -0.049890097 0.0769599 0.53404385 0.0 0.18402694
-0.08660085 0.09286587 -0.079340234 0.108141184 0.0 -0.21249667 -0.17354923 0.3624969
0.42125463 0.2460798 0.41731983 0.35927534

l3/b f4 [20]
00000000: 1b9c 763d 540c 9e3e a365 6c3e cfb6 873e
00000010: 04cf 49bb a37e 763d 6d90 1abb a590 a43e
00000020: f16b fa3d 6522 4b3b b9a3 cb3e 0000 0000
00000030: 0000 0000 6597 c7bd c75f 573e 9eac b7bc
00000040: a118 d9bd 9bd6 4fbc c18b a2bb 5a70 f33c
0.060207468 0.3086878 0.23085646 0.2650666 -0.0030793557 0.060179364 -0.002358462 0.32141605
0.122276194 0.0030995843 0.39773348 0.0 0.0 -0.09745673 0.2103263 -0.022421177
-0.10600401 -0.012685443 -0.0049605076 0.02971666

l4/b f4 [9]
00000000: b823 59be 2515 83be 47e8 a0be 2024 a0be
00000010: 9082 1fbe b647 46be 9613 a8be 48be 54be
00000020: fe68 45be
-0.21205032 -0.2560207 -0.31427214 -0.3127756 -0.1557715 -0.19363293 -0.32827443 -0.20775712
-0.19278333

l0/b f4 [20]
00000000: 71bf f23d dc0f 09be 9da9 79be cc1d 7b3e
00000010: 7695 ea3e b6e6 2b3e 315e 20bd 02a0 9d3e
00000020: 376d 033f ff30 f23d e053 353e 6f3a b1bc
00000030: 28a2 cb3d 8d85 6d3e 7a39 5a3e 066d f7bd
00000040: fbc8 fd3e cef8 073f 01b8 723b 4740 c23e
0.11852921 -0.13384956 -0.24381109 0.24523085 0.45817155 0.16787228 -0.039152328 0.3078614
0.51338524 0.118257515 0.17707777 -0.021634309 0.09943038 0.23195477 0.21310988 -0.120813414
0.49567398 0.5311402 0.0037035944 0.37939665
