rl_planner/rl_agent/model (copy)/1499825959.32.model (npz, 1324 bytes, 4 tensors)

model/output/W f4 [9, 10]
0	0xbf37ec9a	-0.718454
1	0x3fca5158	1.5806074
2	0x3f4052a9	0.7512613
3	0x3fd0d447	1.6314782
4	0xbffd71c1	-1.980034
5	0x3f7d1dea	0.9887377
6	0xbfa40847	-1.2815026
7	0xbfb53f78	-1.4159994
8	0x3fa2eabe	1.2727888
9	0x3f66b524	0.9012015
10	0xbf934f8e	-1.1508653
11	0x3fc476e0	1.5348778
12	0x3e1dff01	0.15429308
13	0x3fd72e21	1.6810952
14	0xbf5c44fd	-0.8604277
15	0x3f69c308	0.9131322
16	0xbf93de11	-1.1552144
17	0xbf4b3636	-0.79379594
18	0x3fa32970	1.2747021
19	0x3f705a0b	0.93887395
20	0xbfaac7e9	-1.3342258
21	0x3fda364a	1.7047818
22	0xbff07002	-1.8784182
23	0x3fbc8892	1.4729178
24	0x3f26e7f0	0.6519766
25	0x3fbea300	1.4893494
26	0xbf090478	-0.53522444
27	0xbf67a08b	-0.90479344
28	0x3fbc7e5e	1.4726064
29	0x3f4bcc6f	0.79608816
30	0xbf5fb472	-0.8738471
31	0x3f2afdac	0.6679332
32	0x3f6d6396	0.9273008
33	0x3fcf5c8c	1.6200118
34	0xc01860f8	-2.3809185
35	0x3fce3529	1.6109973
36	0xbfb7f213	-1.437075
37	0xbf62edc3	-0.88644046
38	0x3f83f5ae	1.030935
39	0x3f70cfbd	0.94066983
40	0xbf6ef2ae	-0.9333905
41	0x3f8b0c3f	1.0863112
42	0xbec4db6d	-0.3844866
43	0x3fed681a	1.8547394
44	0xbd809867	-0.062790684
45	0x3f937d4c	1.1522613
46	0xbfadd477	-1.3580464
47	0xbf84800d	-1.0351578
48	0x3f6478aa	0.8924662
49	0x3f580d81	0.84395605
50	0xbfb248a2	-1.3928416
51	0x3efe245b	0.49637112
52	0xbfa5bc7c	-1.2948146
53	0x3fa9ec9b	1.3275331
54	0x3f42d624	0.76108
55	0x3fd784d9	1.6837417
56	0xbf6cd2d9	-0.9250923
57	0xbf28c075	-0.65918666
58	0x3fd8210c	1.6885085
59	0x3f64dfb7	0.8940386
60	0xbf765be0	-0.9623394
61	0xbe89bca4	-0.26901734
62	0x3f635954	0.8880818
63	0x3f90a284	1.1299596
64	0xbfde9b69	-1.7391177
65	0x3fe19c03	1.7625736
66	0xbfbe3c38	-1.4862127
67	0xbf45a076	-0.7719797
68	0x3fda4c75	1.7054583
69	0x3f4fc7e1	0.81164366
70	0xbf6a5d64	-0.9154875
71	0xbe0fdb40	-0.14048481
72	0xbe398016	-0.18115267
73	0x3fa602e3	1.2969631
74	0x3e9b411d	0.30323115
75	0x3fb4813e	1.4101942
76	0xbfae977b	-1.3639978
77	0xbf51877b	-0.8184735
78	0x3fca7134	1.5815797
79	0x3f78453c	0.96980643
80	0xbfb5e45f	-1.4210318
81	0x3f23804d	0.63867646
82	0xbfb54544	-1.4161763
83	0x3fd5bd09	1.6698314
84	0x3fae1e58	1.360301
85	0x3fad9f59	1.3564254
86	0xbf6356be	-0.88804233
87	0xbf08da09	-0.53457695
88	0x3f8a3f80	1.0800629
89	0x3f517695	0.81821567

model/hidden_layers/0/b f4 [10]
0	0x4035002a	2.828135
1	0xbe2edc5d	-0.1707625
2	0x3f1ae186	0.6050037
3	0xbfb86166	-1.4404724
4	0xbf808ad2	-1.0042365
5	0xbc6de2a9	-0.014519372
6	0x4046f61c	3.1087713
7	0x400dd551	2.2161448
8	0xbf2b605c	-0.6694391
9	0xba1adc24	-0.00059074373

model/output/b f4 [9]
0	0xbf8db175	-1.106978
1	0xbf91e89c	-1.1399112
2	0xbf75ae1e	-0.95968807
3	0xbfb82ab6	-1.4388034
4	0xbf87928b	-1.0591596
5	0xbf5c18f5	-0.8597558
6	0xbf94eb0d	-1.1634232
7	0xbf913a1e	-1.1345861
8	0xbf560dd4	-0.8361485

model/hidden_layers/0/W f4 [10, 2]
0	0xbfa73c67	-1.3065308
1	0xbf920042	-1.1406329
2	0xbea059df	-0.31318566
3	0xc026bd12	-2.60529
4	0x3dcafd6b	0.09911617
5	0xc0755cbf	-3.8337858
6	0xc02debbd	-2.7175133
7	0x3efa1f22	0.48851877
8	0x3d8cddd9	0.068782516
9	0xc04e5e18	-3.224493
10	0xbd032510	-0.032017767
11	0xc09ced58	-4.9039726
12	0xbdeeda55	-0.11662737
13	0xbef87d98	-0.4853332
14	0xbf84393d	-1.0329968
15	0x3e654d8c	0.22392863
16	0xc0015343	-2.020707
17	0xbe740789	-0.23831
18	0x3cb96639	0.022631751
19	0x40126983	2.28769
