rl_planner/rl_agent/model (copy)/1499835963.43.model (npz, 1325 bytes, 4 tensors)

model/output/W f4 [9, 10]
-0.5381196 1.5339786 0.6520784 1.5619447 -2.741976 0.89660794 -1.4321333 -1.2138083
0.83126307 1.1111459 -1.0608929 1.543024 0.0161567 1.4950699 -1.6339918 0.8912985
-1.1525849 -0.77731395 1.2727094 1.0477841 -1.2712405 2.1275468 -2.72982 1.4284053
-0.44752994 2.153518 -0.4599128 -1.0745122 1.4853213 0.96536803 -0.8082211 0.41894457
0.70429146 1.3076593 -2.4569416 1.3777983 -1.3827623 -0.8289849 1.2004162 1.0020106
-0.98503584 1.1833816 -0.32584882 1.4759691 -1.4572641 1.3148667 -1.3006043 -1.0656459
1.178782 1.0369977 -1.4648889 0.6085295 -1.3746575 1.5204327 -0.4375033 2.0359912
-0.8254558 -0.7252676 1.5240102 0.9903954 -0.87518716 -1.148101 0.94123745 0.88971007
-2.1764483 1.901808 -1.5136226 -0.6758356 1.6412038 0.9606899 -1.0782769 -0.37230605
-0.115146644 1.3208424 -0.6296631 1.4894367 -1.1698617 -0.830882 1.4388123 0.9780432
-1.545551 0.77662885 -1.5235918 1.5666552 0.21399234 1.747376 -0.7944384 -0.5491959
1.2517575 0.9011664
00000000: 35c2 09bf 6959 c43f 9cee 263f ceed c73f
00000010: 897c 2fc0 1988 653f 2550 b7bf 125e 9bbf
00000020: a8cd 543f 073a 8e3f 57cb 87bf cf81 c53f
00000030: 0e5b 843c 735e bf3f a526 d1bf 232c 643f
00000040: e787 93bf 0cfe 46bf 24e8 a23f ca1d 863f
00000050: 02b8 a2bf ba29 0840 5fb5 2ec0 fcd5 b63f
00000060: a522 e5be 3dd3 0940 b179 ebbe 9e89 89bf
00000070: 021f be3f 5c22 773f 94e7 4ebf e77f d63e
00000080: 724c 343f 6161 a73f 883e 1dc0 b25b b03f
00000090: 5bfe b0bf 5b38 54bf 3da7 993f e241 803f
000000a0: 4f2b 7cbf 0c79 973f a8d5 a6be 8eec bc3f
000000b0: a187 babf 8d4d a83f 347a a6bf 1667 88bf
000000c0: 54e2 963f 57bc 843f 7b81 bbbf 97c8 1b3f
000000d0: c7f4 afbf 8a9d c23f 6f00 e0be ae4d 0240
000000e0: 1251 53bf 23ab 39bf c412 c33f 8e8a 7d3f
000000f0: 440c 60bf f9f4 92bf f0f4 703f 0ac4 633f
00000100: ee4a 0bc0 726e f33f 63be c1bf 9003 2dbf
00000110: f712 d23f c6ef 753f fa04 8abf e69e bebe
00000120: 01d2 ebbd 5d11 a93f 9a31 21bf dda5 be3f
00000130: 07be 95bf afb4 54bf 002b b83f 0a61 7a3f
00000140: 9dd4 c5bf 26d1 463f 0e05 c3bf 2888 c83f
00000150: cf20 5b3e 04aa df3f 5160 4bbf 1a98 0cbf
00000160: 9739 a03f d7b2 663f

model/hidden_layers/0/b f4 [10]
2.6316264 -0.2057078 0.41754335 -1.3517861 -2.1500967 -0.0025450685 3.0145793 2.1244924
-0.64217687 -0.0075961715
00000000: 916c 2840 11a5 52be 3ec8 d53e 5407 adbf
00000010: 2f9b 09c0 2acb 26bb deee 4040 aff7 0740
00000020: b465 24bf 4ee9 f8bb

model/output/b f4 [9]
-1.2400541 -1.130418 -0.8913671 -1.3884444 -1.01643 -0.7909833 -1.2042453 -0.96460915
-0.77530104
00000000: 18ba 9ebf 89b1 90bf a230 64bf 8cb8 b1bf
00000010: 611a 82bf e27d 4abf b624 9abf a0f0 76bf
00000020: 217a 46bf

model/hidden_layers/0/W f4 [10, 2]
-1.7229867 -0.93890613 -0.19747747 -3.0297298 0.30688092 -4.4508686 -2.556867 0.57725555
-0.03604422 -3.618854 -0.02650824 -5.434783 0.050572835 -0.41340238 -1.0186304 0.6088745
-1.9265116 -0.34902412 0.02021166 2.6176999
00000000: d48a dcbf 275c 70bf 8937 4abe 18e7 41c0
00000010: 7f1f 9d3e 846d 8ec0 b5a3 23c0 05c7 133f
00000020: 1ba3 13bd 4e9b 67c0 cf27 d9bc bee9 adc0
00000030: 7625 4f3d 7aa9 d3be 7b62 82bf 33df 1b3f
00000040: ef97 f6bf 4ab3 b2be ec92 a53c 6588 2740
