rl_planner/rl_agent/model (copy)/1499817901.77.model (npz, 1325 bytes, 4 tensors)

model/output/W f4 [9, 10]
-0.7852708 1.4246914 0.31541273 1.4060364 0.23188546 0.8408756 -1.2461929 -1.475376
1.4194696 0.8874726 -1.1318294 1.5312796 0.1895409 1.2519503 -0.19804665 0.9454881
-1.2492576 -0.7477556 0.92815906 1.1568606 -1.3651395 1.4304763 -1.1649802 1.1694572
1.0010654 1.1621304 -0.8313535 -0.6840006 1.2853624 1.0087888 -0.9679634 0.6436959
0.8615573 1.6529472 -1.1343085 1.4470845 -1.319818 -1.0568295 0.78968334 0.86226404
-0.9308438 1.1999121 -0.38096893 1.6286731 0.83856803 1.1328166 -1.4477541 -1.1401868
0.57768226 0.9356968 -1.3758157 0.54095805 -0.7635882 1.0933084 1.3167318 1.411311
-1.2202963 -0.5598165 1.6186962 1.1374048 -1.0226904 0.28599337 0.6491657 1.0987746
-0.4407357 1.4962975 -1.3985355 -0.8722711 1.1973383 0.7394568 -0.8909778 0.4788266
-0.10732203 0.86680436 0.66410977 1.400418 -1.4082372 -0.8870389 1.1720476 0.82902735
-1.391023 0.9622035 -0.71886635 1.1194295 1.5131298 1.1542864 -1.1768128 -0.5559799
0.6591097 1.0818172
00000000: 8207 49bf 4a5c b63f c77d a13e 00f9 b33f
00000010: 6273 6d3e a043 573f 4083 9fbf 1fd9 bcbf
00000020: 2eb1 b53f 6831 633f c9df 90bf f800 c43f
00000030: 0217 423e e83f a03f becc 4abe 820b 723f
00000040: ace7 9fbf e96c 3fbf d59b 6d3f 0214 943f
00000050: e4bc aebf d919 b73f 121e 95bf c6b0 953f
00000060: e922 803f b0c0 943f 95d3 54bf aa1a 2fbf
00000070: c186 a43f fe1f 813f 73cc 77bf 41c9 243f
00000080: 058f 5c3f c693 d33f 0531 91bf 113a b93f
00000090: ccef a8bf 3046 87bf b028 4a3f 56bd 5c3f
000000a0: c74b 6ebf b896 993f 5c0e c3be 5c78 d03f
000000b0: 65ac 563f 2200 913f 0250 b9bf a4f1 91bf
000000c0: fce2 133f d389 6f3f bb1a b0bf 3a7c 0a3f
000000d0: 847a 43bf 88f1 8b3f ab8a a83f d7a5 b43f
000000e0: ab32 9cbf 2250 0fbf 7031 cf3f 7b96 913f
000000f0: 85e7 82bf b96d 923e b92f 263f a5a4 8c3f
00000100: 1ca8 e1be ad86 bf3f 3603 b3bf 294d 5fbf
00000110: 6242 993f 0a4d 3d3f 1f17 64bf c328 f53e
00000120: a7cb dbbd e4e6 5d3f 1903 2a3f e640 b33f
00000130: 1e41 b4bf fb14 63bf a805 963f 233b 543f
00000140: 0b0d b2bf f852 763f a007 38bf 7749 8f3f
00000150: 3dae c13f a8bf 933f cda1 96bf b354 0ebf
00000160: 6abb 283f fc78 8a3f

model/hidden_layers/0/b f4 [10]
3.0345228 -0.31918523 0.6169728 -1.2076491 -0.274075 0.03505869 3.2762556 2.25577
-0.74015564 0.17587197
00000000: 9f35 4240 3f6c a3be eef1 1d3f 3f94 9abf
00000010: 8f53 8cbe b399 0f3d 2cae 5140 895e 1040
00000020: d77a 3dbf c817 343e

model/output/b f4 [9]
-1.0261799 -1.2229561 -1.2141321 -1.3030624 -1.1138501 -1.0918937 -1.0684947 -1.2060361
-1.0683441
00000000: dd59 83bf d389 9cbf ae68 9bbf c0ca a6bf
00000010: a492 8ebf 2cc3 8bbf 6fc4 88bf 645f 9abf
00000020: 80bf 88bf

model/hidden_layers/0/W f4 [10, 2]
-0.8856063 -1.1787076 -0.6306307 -2.396945 0.06185932 -2.553073 -2.3397624 -0.36198273
0.07338827 -1.8531528 0.019503318 -4.5181446 0.044392068 -0.8293142 -1.1235503 -0.16329882
-1.5027395 -0.5996489 0.36421028 2.5488698
00000000: 18b7 62bf e4df 96bf 0371 21bf 8c67 19c0
00000010: 3360 7d3d 8c65 23c0 abbe 15c0 cd55 b9be
00000020: 974c 963d 1c34 edbf 6cc5 9f3c a494 90c0
00000030: 75d4 353d ef4d 54bf 7fd0 8fbf ce37 27be
00000040: c559 c0bf 9782 19bf c579 ba3e af20 2340
