rl_planner/rl_agent/model (copy)/1499829694.69optmizer.model (npz, 2973 bytes, 8 tensors)

model/output/W/m f4 [9, 10]
0.0011120164 0.0019641472 0.0014459137 0.002762207 0.00062033953 0.0027643489 -0.0006723185 0.00033852737
0.004612429 0.00060441275 0.061131082 0.007923611 0.014435866 0.014943568 0.0038232736 0.012915702
0.042301625 0.040961597 0.018224478 -0.0040729893 -0.042702682 -0.0084211975 -0.01408618 -0.004682992
-0.008122058 -0.017095 -0.03073823 -0.028634531 -0.0073594414 -0.0026939658 0.0115904175 0.0019631018
0.0034688958 0.003954754 -0.0016281207 0.002541286 0.010146023 0.008402183 0.0033926489 -0.00091625465
-0.009664252 -0.0031824382 -0.006046378 -0.001971097 -0.001529619 -0.006276482 -0.00848881 -0.0060430327
-0.0026586412 4.981571e-05 0.009630388 0.0023530147 0.0049573937 0.0022776916 0.0034312743 0.0045154826
0.001854769 0.004914324 0.003008708 -0.002934445 0.008439503 0.0069907946 0.008152308 0.0031999138
0.006514283 0.010334023 0.005079277 0.004033915 0.00496439 -0.000104127445 -0.06795286 -0.02070351
-0.03530032 -0.01462054 -0.012576323 -0.038037296 -0.038206786 -0.03965982 -0.01728514 0.011670807
0.0012468856 -0.00063033076 -1.6477032e-05 -0.0018825867 0.00051561673 -0.0015915695 0.00019127068 0.0010199248
-0.0015373218 0.000232203
00000000: 14c1 913a ecb8 003b d084 bd3a 2506 353b
00000010: 489e 223a 142a 353b 883e 30ba 607c b139
00000020: dc23 973b 7471 1e3a 9664 7a3d 09d2 013c
00000030: 6984 6c3c ded5 743c e38f 7a3b 619c 533c
00000040: 7844 2d3d 59c7 273d 804b 953c b676 85bb
00000050: 02e9 2ebd 10f9 09bc b9c9 66bc c973 99bb
00000060: 6112 05bc d00a 8cbc bece fbbc f792 eabc
00000070: 7827 f1bb 3f8d 30bb bce5 3d3c 62a7 003b
00000080: 6a56 633b e296 813b aa66 d5ba b48b 263b
00000090: 813b 263c 4fa9 093c 3457 5e3b cf30 70ba
000000a0: d056 1ebc 7490 50bb b220 c6bb 852d 01bb
000000b0: 7f7d c8ba f2aa cdbb a614 0bbc a204 c6bb
000000c0: 993c 2ebb 36f1 5038 c6c8 1d3c 0935 1a3b
000000d0: a271 a23b 5345 153b 3bdf 603b 9df6 933b
000000e0: b81b f33a 5608 a13b be2d 453b d14f 40bb
000000f0: d745 0a3c 0913 e53b 4291 053c a5b5 513b
00000100: c475 d53b 0950 293c 1070 a63b ee2e 843b
00000110: 52ac a23b ff5e dab8 de2a 8bbd 689a a9bc
00000120: 1197 10bd fd8a 6fbc ec0c 4ebc ffcc 1bbd
00000130: b87e 1cbd 5672 22bd 9199 8dbc ea36 3f3c
00000140: 8a6e a33a c83c 25ba 2838 8ab7 21c1 f6ba
00000150: 742a 073a 369c d0ba d58f 4839 ffae 853a
00000160: f67f c9ba 857b 7339

model/output/b/m f4 [9]
-0.00030064117 0.012931278 -0.009600969 0.0031726274 -0.0025958056 0.00011813198 0.0013135965 -0.010061466
0.000109206725
00000000: 609f 9db9 b6dd 533c 624d 1dbc dbeb 4f3b
00000010: 641e 2abb a0bd f738 fc2c ac3a d9d8 24bc
00000020: ea05 e538

model/hidden_layers/0/W/m f4 [10, 2]
0.0003666316 -0.001894909 -0.02492751 0.0008195485 -0.030556474 -0.007713871 -0.010922315 -0.010922259
0.0032555978 0.003988142 -0.00842116 0.00928802 -0.0047973446 -0.00771016 -0.008079622 -0.005974971
0.0011155652 -0.0050172713 0.013129051 0.0017587529
00000000: 7638 c039 985e f8ba c734 ccbc f8d6 563a
00000010: 9251 fabc a4c4 fcbb 82f3 32bc 46f3 32bc
00000020: de5b 553b f6ae 823b e8f8 09bc c82c 183c
00000030: 0b33 9dbb 83a5 fcbb 6460 04bc b1c9 c3bb
00000040: 2838 923a ec67 a4bb 3b1b 573c f485 e63a

model/hidden_layers/0/b/v f4 [10]
0.012090928 0.004893921 0.013405592 0.008867523 0.0011477398 0.012796133 0.011878292 0.0071788034
0.015799671 0.0025178634
00000000: 0719 463c 2f5d a03b 21a3 5b3c 1649 113c
00000010: c26f 963a dfa6 513c 2b9d 423c 2b3c eb3b
00000020: 506e 813c bd02 253b

model/hidden_layers/0/W/v f4 [10, 2]
0.005364925 0.0023831686 0.003869217 0.0015283817 0.005764555 0.0013045482 0.006833064 0.0013216502
0.0015321489 0.0021087145 0.00610057 0.0030794265 0.0064302483 0.0027991661 0.0036503407 0.0015049803
0.007360394 0.0025630929 0.0014335698 0.0003196997
00000000: 41cc af3b ef2e 1c3b b092 7d3b fb53 c83a
00000010: 98e4 bc3b 60fd aa3a e5e7 df3b 393b ad3a
00000020: 63d2 c83a 5c32 0a3b 4ae7 c73b 34d0 493b
00000030: d5b4 d23b 3772 373b 8e3a 6f3b c242 c53a
00000040: 762f f13b 90f9 273b 9fe6 bb3a 5e9d a739

model/hidden_layers/0/b/m f4 [10]
0.010435784 0.017800225 0.03495768 0.009852623 -0.0008035203 -0.0052859103 0.00035723997 0.0061683385
-0.0061383694 0.0025303317
00000000: dafa 2a3c c7d1 913c c92f 0f3d e56c 213c
00000010: 56a3 52ba 6e35 adbb f04b bb39 c61f ca3b
00000020: 6024 c9bb ecd3 253b

model/output/W/v f4 [9, 10]
0.00979003 0.0014348726 0.003667875 0.00082110334 0.001273329 0.0048024217 0.0060521453 0.004510638
0.0009347478 9.476241e-05 0.022173196 0.0016046173 0.0046556545 0.0013557826 0.001491048 0.0056733848
0.015212512 0.011895806 0.0014265575 0.00052196573 0.030168664 0.00047750006 0.0016872027 0.0006513526
0.00040577017 0.0016629193 0.024845287 0.018335968 0.0008152922 0.00054973975 0.0061144405 0.00020807123
0.0008746751 0.00023347395 0.00014936119 0.0008147982 0.0047924127 0.0033282144 0.0002535078 5.4929933e-05
0.0024616343 0.00077103556 0.0025095541 0.00022003974 0.000929766 0.003141405 0.0019615008 0.0011922411
0.00018280343 0.00015105937 0.0036326854 0.0005379887 0.0015339247 0.00026234426 0.0005055293 0.001954931
0.0025748939 0.0018049472 0.00026782238 7.834191e-05 0.026656846 0.0005085406 0.002421346 0.00022141897
0.00047145158 0.0019657826 0.020901956 0.014838199 0.00047669795 7.1275936e-05 0.012272572 0.004611442
0.011978058 0.00036932627 0.00508752 0.016371625 0.008649917 0.0048404736 0.0006062482 0.0003038338
0.007937557 0.001697862 0.0047337716 0.00039972932 0.0017969415 0.006162075 0.006082597 0.003842119
0.00042010014 0.00040770465
00000000: 5d66 203c 5612 bc3a bb60 703b 503f 573a
00000010: d5e5 a63a a25d 9d3b 1351 c63b f9cd 933b
00000020: dd09 753a 2ebb c638 90a4 b53c 0652 d23a
00000030: 768e 983b 84b4 b13a 456f c33a cde7 b93b
00000040: e63d 793c a0e6 423c 54fb ba3a 87d4 083a
00000050: 4624 f73c f958 fa39 2125 dd3a 88bf 2a3a
00000060: 8dbd d439 50f6 d93a 5888 cb3c 5035 963c
00000070: 55b9 553a 691c 103a a55b c83b b22d 5a39
00000080: 744a 653a b0d0 7439 d79d 1c39 2e98 553a
00000090: ac09 9d3b 2c1e 5a3b 3ee9 8439 9164 6638
000000a0: 5f53 213b 521f 4a3a 5577 243b 78ba 6639
000000b0: 8abb 733a 08e0 4d3b 868c 003b f944 9c3a
000000c0: ecae 3f39 b165 1e39 5912 6e3b cf07 0d3a
000000d0: f90d c93a 408b 8939 7f85 043a 4d1e 003b
000000e0: 8dbf 283b fa93 ec3a 836a 8c39 7e4b a438
000000f0: 755f da3c 954f 053a 72af 1e3b b42c 6839
00000100: 292d f739 5cd4 003b 943a ab3c eb1b 733c
00000110: 51ed f939 fa79 9538 e612 493c 941b 973b
00000120: 9e3f 443c 22a2 c139 36b5 a63b c91d 863c
00000130: 62b8 0d3c d69c 9e3b a1ec 1e3a e24b 9f39
00000140: 870c 023c cc8a de3a c11d 9b3b c392 d139
00000150: 5a87 eb3a 3beb c93b 8650 c73b 0fcc 7b3b
00000160: e340 dc39 31c1 d539

model/output/b/v f4 [9]
0.0005878179 0.0015571928 0.0026647155 0.000494374 0.00019064911 0.00025889216 0.002163318 0.0008191387
0.00061301934
00000000: cb17 1a3a b81a cc3a 82a2 2e3b e198 013a
00000010: fbe8 4739 ebbb 8739 74c6 0d3b 78bb 563a
00000020: 08b3 203a
