rl_planner/rl_agent/model (copy)/1499838368.61optmizer.model (npz, 2972 bytes, 8 tensors)

model/output/W/m f4 [9, 10]
000000 36 a8 58 3b d5 35 d1 3b 2d ee 16 3c 95 20 60 3b
       0.0033059246 0.006384591 0.009212059 0.0034199108
000010 a3 da dd 39 5e a1 36 3c dc 59 7a 3b 98 bd 6e 3a
       0.00042315302 0.011146871 0.0038200533 0.0009107231
000020 e8 ec 77 3b 03 32 00 3b b0 06 f4 ba 5a f3 58 3b
       0.0037830416 0.001956106 -0.0018617716 0.0033104033
000030 91 30 3e 3c 78 45 68 3a 54 74 0c bb 6f da f5 3b
       0.011608259 0.00088604493 -0.0021431642 0.007502846
000040 a0 d2 91 3c 00 fa c6 39 f9 1d 8a ba f4 d0 bf 3a
       0.01780063 0.00037951767 -0.0010537497 0.0014634416
000050 f6 47 12 3b f0 a2 fe b9 cc ab 02 3c b3 dd 70 bb
       0.0022320724 -0.00048568053 0.00797553 -0.0036753237
000060 1d c8 1f 3a db 75 8c ba 5e cf f4 3b 02 06 11 bb
       0.0006095188 -0.0010716276 0.007471009 -0.0022128825
000070 c9 83 30 bb 7f ac 2a bc 7c 38 99 3c 5e d6 3b 3b
       -0.0026934019 -0.010417103 0.018703692 0.0028661708
000080 81 99 d2 3b ab a5 f8 3a 85 28 79 ba fc 9b b5 3b
       0.0064269905 0.0018970271 -0.0009504634 0.0055422764
000090 70 93 8c 3c 4d ea 74 3c fc 2c 48 3b a3 85 48 3b
       0.017160147 0.01494844 0.003054439 0.0030597232
0000a0 b0 b0 eb ba 6e b0 3a bb 2b 19 57 bb 67 16 00 b8
       -0.0017981734 -0.0028486508 -0.0032821398 -3.0538442e-05
0000b0 d3 a7 c2 b9 bb f7 ab bb 7a 1c 20 3a c6 33 d4 37
       -0.00037127602 -0.0052480376 0.0006107759 2.5296478e-05
0000c0 da 0b 13 ba 0c bd 41 ba 6d 8e cd bb ec de 1c 3b
       -0.0005609371 -0.0007390536 -0.006273082 0.0023936583
0000d0 35 a0 a9 3b c6 90 c9 ba 84 ef ed 3a ec a5 99 3b
       0.005176569 -0.0015378229 0.0018153046 0.004688969
0000e0 39 4a b7 ba b6 43 72 bb fe fc f7 ba 5c 4a 78 3b
       -0.0013983912 -0.0036966628 -0.0018920002 0.0037886119
0000f0 76 d3 ac 3c 9e 68 1c bc 76 23 55 bc 4c 1b b6 ba
       0.021096926 -0.009546427 -0.013008943 -0.0013893633
000100 4a 1a 02 bc f1 cb 99 bc 62 02 b9 3c 8a 4a c5 3c
       -0.007940838 -0.018774005 0.022584144 0.024083395
000110 38 5b 47 39 5f 75 94 3b 53 69 a4 3c e1 4e bf bb
       0.000190121 0.0045305933 0.020069754 -0.0058382605
000120 df da 35 bc 09 7b d4 3b 10 fc f4 ba fc d0 29 bc
       -0.011099546 0.0064843935 -0.0018690843 -0.010364767
000130 4c b0 5b 3b 25 77 a8 3c 48 06 b7 3b 36 47 04 3c
       0.003352183 0.020564625 0.0055854656 0.008073619
000140 e6 69 e0 3a 08 4f ce bb 26 67 5b bc 97 4a dc 3a
       0.0017121404 -0.0062960424 -0.013391292 0.0016806897
000150 ce dd 05 3a 45 a5 6b bc 6c f9 11 bc f5 67 27 3b
       0.0005106599 -0.014382665 -0.008909564 0.002554414
000160 5c 21 a7 3b e6 c6 6f ba
       0.0051004123 -0.00091467646

model/output/b/m f4 [9]
000000 38 0d 86 3a c1 10 9a 3b d6 4a d3 3a fc 5b bd 3b
       0.0010227328 0.0047017043 0.0016120325 0.0057787877
000010 73 bd 54 39 6d a9 2b ba 76 ef 06 3c a8 ac 38 3b
       0.00020288471 -0.0006548379 0.008235803 0.0028179083
000020 a1 c4 05 bb
       -0.002041139

model/hidden_layers/0/W/m f4 [10, 2]
000000 54 95 be 3b d3 5e c7 bb 9c 1b 45 3b 40 91 eb bb
       0.005816141 -0.006084302 0.003007627 -0.007188946
000010 20 5f f5 39 46 11 0a 3b 26 c3 e9 bb 38 ef be 3a
       0.00046800915 0.0021067425 -0.007133859 0.0014567142
000020 e6 cd c7 bb 30 34 4c bc 04 43 ad bc 3c 31 27 3c
       -0.006097543 -0.012463614 -0.02115012 0.0102046095
000030 a8 6c 05 3c 19 2f 54 bc 9f 10 60 3b 94 c2 ad bb
       0.008143581 -0.012950682 0.0034189594 -0.0053027365
000040 76 8f 57 bc e0 8e 37 3c 8e 70 70 3b 17 39 90 3b
       -0.013156762 0.011203498 0.0036688182 0.004401337

model/hidden_layers/0/b/v f4 [10]
000000 09 26 36 3c d5 2b c4 3b 1f 27 b9 3c 32 4e 8c 3b
       0.011117467 0.0059866705 0.022601662 0.0042817825
000010 af 35 ad 3a f6 68 7a 3c 2e 54 5c 3c 71 ac 04 3c
       0.0013214851 0.015283814 0.013447804 0.008097754
000020 74 19 59 3c b4 0e 88 3b
       0.013250697 0.0041521434

model/hidden_layers/0/W/v f4 [10, 2]
000000 20 9d a3 3b 51 13 22 3b 9a cc 92 3b 18 da 15 3b
       0.004993096 0.0024730752 0.004479957 0.002286559
000010 f6 59 16 3c c3 01 33 3b 65 08 85 3b a4 d6 7c 3a
       0.009176722 0.0027314282 0.0040598386 0.0009645021
000020 98 ff dd 3a 89 00 44 3b 55 27 03 3c 28 ea 95 3b
       0.0016937135 0.0029907546 0.008004983 0.0045750327
000030 93 32 01 3c 08 36 42 3b 0e f0 85 3b 13 12 c0 3a
       0.007885593 0.0029634256 0.0040874546 0.0014653824
000040 f1 7c b7 3b 85 ea 04 3b 86 c3 2d 3b f0 f8 29 3a
       0.005599611 0.0020281386 0.0026514246 0.0006483933

model/hidden_layers/0/b/m f4 [10]
000000 80 6e 8c bc 0d b3 5f bb 0e 3a 25 bc 83 15 af 3b
       -0.017142534 -0.0034133822 -0.010084642 0.0053431406
000010 f2 35 0d 3c 32 0c 63 3c ec a2 f4 bc 72 53 87 bc
       0.008618819 0.013857888 -0.029862843 -0.016519282
000020 cb 0b 82 3c 37 99 62 3c
       0.015874764 0.013830475

model/output/W/v f4 [9, 10]
000000 3a 3f 24 3c be 8f d4 3a 38 96 91 3b dd df 72 3a
       0.01002484 0.0016217155 0.0044429563 0.00092649256
000010 9f 75 05 3a 86 65 b6 3b 11 07 db 3b e8 0d 97 3b
       0.0005091074 0.0055663018 0.006684192 0.004609812
000020 b2 3b 9a 3a 4d a6 0c 3a d5 b5 92 3c 9a 6e e5 3a
       0.0011767058 0.0005365357 0.01790897 0.0017504275
000030 70 8f 97 3b a4 ac 82 3a be bc 47 3a e7 e3 bf 3b
       0.0046252534 0.0009969664 0.00076193723 0.0058560255
000040 c5 c7 5e 3c e6 86 1c 3c 75 0b b1 3a 3a 53 49 3a
       0.013597433 0.009553647 0.0013507443 0.0007679943
000050 ad d8 d4 3c f7 da df 3a 36 60 94 3b 8a 6a d4 39
       0.025982225 0.0017078806 0.004528071 0.0004051517
000060 88 17 48 3a f3 0a bb 3b ef de be 3c 02 28 7e 3c
       0.0007632901 0.0057080924 0.023299662 0.015512468
000070 e1 46 6e 3a f9 05 18 3a 40 ea 9d 3b a8 a1 e2 39
       0.0009089541 0.000579923 0.0048191845 0.00043226522
000080 b9 f6 b9 3a cf 8c 94 39 7b 27 a0 38 9b f2 d0 3a
       0.0014187909 0.0002833367 7.636748e-05 0.0015941443
000090 ca a9 80 3b 43 d2 2b 3b a3 13 a8 39 79 84 9b 39
       0.0039264904 0.0026217855 0.00032058088 0.00029662604
0000a0 22 d9 96 3a 03 7d 8c 39 65 a4 42 3a 46 9e 37 38
       0.0011508802 0.00026796022 0.00074250094 4.3778004e-05
0000b0 0e 50 ed 38 f7 51 72 3a 39 b1 97 3a 00 e2 29 3a
       0.00011315952 0.0009243781 0.0011573202 0.0006480515
0000c0 c2 72 93 38 45 5c 3e 39 24 47 6b 3b 04 83 9e 3a
       7.0308815e-05 0.00018154185 0.0035900557 0.0012093489
0000d0 48 d3 56 3b 55 1b 17 39 82 3a 14 3a af dc 87 3b
       0.0032779742 0.00014410664 0.00056544703 0.0041461806
0000e0 f4 ac 66 3b 0f 2c e4 3a 99 ad 70 39 06 14 8a 39
       0.0035198303 0.001740815 0.00022952854 0.0002633633
0000f0 7b b7 ee 3c 1e 40 a3 3a 6d cc 92 3b c7 72 72 39
       0.029140225 0.0012455021 0.004479936 0.00023121676
000100 f1 1e d6 39 bf 79 98 3b d3 30 c1 3c 5f b8 80 3c
       0.00040840314 0.004653185 0.023582852 0.015712915
000110 c5 90 4f 3a 84 20 90 39 04 e2 10 3c 8e 5a 84 3b
       0.00079179957 0.00027490046 0.008842949 0.0040391153
000120 d0 f1 29 3c eb 5d c2 39 b7 9a 0d 3b b2 95 5c 3c
       0.010372594 0.00037072538 0.002160711 0.0134634245
000130 a1 7a 10 3c e7 8b 7b 3b 0f f9 1d 3a 3b 0e 71 3a
       0.0088182995 0.003838295 0.00060261873 0.0009195541
000140 56 ff db 3b 21 80 29 3b 8f 3c db 3b bf a3 5c 39
       0.006713788 0.0025863724 0.0066905688 0.00021041835
000150 08 b5 b8 3a 4b 46 0e 3c b3 91 c6 3b a8 8d 59 3b
       0.0014092037 0.008683751 0.006059849 0.0033196006
000160 aa 27 cc 39 d2 21 33 3a
       0.00038939464 0.0006833348

model/output/b/v f4 [9]
000000 63 d0 37 3a 8c 2f c1 3a f4 c7 26 3b 4d 75 db 39
       0.0007011948 0.0014738902 0.0025448771 0.0004185833
000010 b3 32 fa 38 7e b5 b5 39 96 fe 26 3b 6d cd 5a 3a
       0.000119303724 0.00034658232 0.0025481335 0.0008346651
000020 a6 b9 1e 3a
       0.00060548855
