rl_planner/rl_agent/model (copy)/1499817901.77optmizer.model (npz, 2973 bytes, 8 tensors)

model/output/W/m f4 [9, 10]
00000000: 51b3 40bc 40c8 88bc 10f8 cfbc 7e57 963b
00000010: b291 18bc 270f 1dbd 0316 4abc 80b7 02ba
00000020: 74f1 8e3a bf12 923a ba63 eebc aef4 2fbb
00000030: f531 18bb d452 d3bb 59af fd3a c8cc b13a
00000040: 9f82 dabc 0d77 e5bc 0aaa a1bb 37c2 2abc
00000050: 5309 123c 137b 7a3b cbc4 d93b 134f 3d3c
00000060: 6ec5 503a 6c26 a73b cdd7 82ba 496c 443c
00000070: b817 f53b 93cf 90bb 36c7 24bd 22f4 58bb
00000080: eba1 3bbc dc54 f8bb 88ad 013b 838b 06bc
00000090: e071 18bd ed73 00bd 867e c6bb 525b a839
000000a0: d01b 5039 c7b8 a7ba b850 30b9 65d0 34bb
000000b0: aa52 b1b9 ee9a a9ba 8af5 2c3a 80bb b9b7
000000c0: 5c8b 02bb ee9f 71ba 8d46 2b3c 56b7 c33a
000000d0: 9f2e 713b 5d4e 5dba dc25 d139 2656 153b
000000e0: a931 0e3c 740c fd3b 9ddf 65b9 4708 f3ba
000000f0: b27c c93c d2e8 0d3b aa31 cd3b f3d6 c7bb
00000100: dc43 453b e623 ad3b b8f8 c73c 80ad a13c
00000110: 628e 8cbb 2769 a93b bcc2 9dbc 6053 0e3c
00000120: 06f2 1b3b 4136 24bb 560d 443b 2ee2 113c
00000130: 1b84 b9bc 846a 89bc 9034 15ba 76e2 48bb
00000140: 9f70 233c 9fec 71bb 90bb f9b9 bc8a 87bb
00000150: f076 56bb d0c3 e6bb d179 313c c956 133c
00000160: 7827 38bb 2be3 2f3b
-0.011761502 -0.01669705 -0.02538684 0.0045880666 -0.00931208 -0.03834453 -0.01233435 -0.000498645
0.0010905699 0.0011144503 -0.029100288 -0.0026848721 -0.0023223136 -0.006449083 0.0019354626 0.0013565058
-0.026673613 -0.02801087 -0.0049336003 -0.010422281 0.008913356 0.003822033 0.006645774 0.011554497
0.00079639896 0.005101016 -0.0009982527 0.011988708 0.007479634 -0.004419276 -0.040229045 -0.00331045
-0.0114521785 -0.0075784754 0.001978727 -0.008211973 -0.037217975 -0.031360555 -0.0060575632 0.00032111496
0.00019846787 -0.0012796157 -0.00016814738 -0.0027590033 -0.0003382166 -0.0012939849 0.00065978675 -2.214103e-05
-0.001991949 -0.0009217252 0.010453832 0.0014931958 0.003680147 -0.0008442158 0.00039891794 0.0022786944
0.008678832 0.007722432 -0.00021922444 -0.0018541896 0.024595592 0.0021653664 0.006262024 -0.006098622
0.0030100262 0.0052838204 0.02441059 0.019736052 -0.0042894343 0.005170006 -0.019257896 0.00868687
0.002379538 -0.0025056752 0.0029915175 0.008904023 -0.022646 -0.016774423 -0.00056917313 -0.003065256
0.009975581 -0.0036914719 -0.00047632726 -0.0041364115 -0.00327247 -0.0070423856 0.010832266 0.008992859
-0.0028099697 0.0026838284

model/output/b/m f4 [9]
00000000: c8f2 b8ba cbd2 16bc 1034 0cba fab5 34bc
00000010: 4c9e 4939 9707 1b3b 1a8a f93b 97e0 febb
00000020: 52e1 813b
-0.001411044 -0.00920553 -0.0005348334 -0.011029715 0.00019227824 0.0023655647 0.00761534 -0.007778238
0.003963628

model/hidden_layers/0/W/m f4 [10, 2]
00000000: 2228 673c cf9d 01bb 5c4e 643b 027e 3c3c
00000010: 5ed1 013c 14f0 e83b 33bb 1e3c 82d1 633c
00000020: 5e82 fe3a f6b5 583b 5af4 533c f0d3 a53b
00000030: 64c1 af3b b774 98bb 5801 83bb efde 42bc
00000040: 9038 e63a 7542 d83b f805 b2bb 34b6 93bb
0.0141086895 -0.00197779 0.0034836745 0.011504652 0.007923452 0.0071086977 0.009688186 0.013904931
0.0019417515 0.0033067442 0.012936676 0.0050606653 0.00536363 -0.0046525854 -0.003997963 -0.011893972
0.0017564464 0.006599719 -0.0054328404 -0.0045078043

model/hidden_layers/0/b/v f4 [10]
00000000: 6f1f 5d3c 8297 f13b 26b3 8b3b e749 e83b
00000010: 426d 243a d623 1f3c 30c3 8a3c 0c5e 133c
00000020: b204 dc3b 1e97 a93b
0.013496264 0.0073727975 0.0042632995 0.007088888 0.0006272384 0.009713134 0.016938776 0.0089945905
0.006714427 0.0051754853

model/hidden_layers/0/W/v f4 [10, 2]
00000000: 1ffb 483c f3e0 033b f2a8 e73b 435b 093b
00000010: 2583 473b dc02 8a39 6a33 ef3b a6f6 e93a
00000020: 4a3a 823a 873d 033a bfcd f83b c010 e63a
00000030: 0c37 7f3c 0993 743b 0882 f13b 7a9c 193b
00000040: 8b6a e43b 511c f53a 845e a33b 10bd 733a
0.012266903 0.0020123094 0.0070697004 0.0020958937 0.0030443158 0.00026323542 0.00729983 0.0017849996
0.0009935584 0.00050064217 0.007592886 0.0017552599 0.015577089 0.0037319085 0.0073702373 0.0023439215
0.0069707087 0.0018700456 0.0049856324 0.0009297887

model/hidden_layers/0/b/m f4 [10]
00000000: 08c5 673c 4a77 93bc 581e 38bc 943f debb
00000010: a093 f23b a618 d7bb d8a2 aa3c 7304 513c
00000020: 60dc 843a 1e9f 4cbb
0.014146097 -0.018001217 -0.011237703 -0.0067824814 0.007402852 -0.0065642176 0.020829603 0.012757408
0.0010136478 -0.003122277

model/output/W/v f4 [9, 10]
00000000: 2be7 c93c 13ba 8c3b 13ec b53b 676a 6b3b
00000010: 0b84 c73a cea0 553c 5bb7 8f3c c689 7c3c
00000020: 337f f83a 717e 8639 f035 e43c 2f26 8b3a
00000030: 47e3 223b 57fa 873a 722f d039 89bc 7a3b
00000040: f246 d03c 0d4a 903c ebb9 0b3a a1ff 013b
00000050: 7b85 a83c 9c80 a739 1214 5d3a 5466 863a
00000060: 8308 c038 3af5 633a 0a94 973c 2102 6c3c
00000070: 40f4 e639 fa91 0b3b 6483 8c3c b5d8 c339
00000080: 2936 a53a 1b5b b839 fd80 5439 72bd d83a
00000090: b9e0 7d3c c4fd 313c dd20 3139 d075 6939
000000a0: e3b6 a13a 376b 5b39 753d b839 dc50 1139
000000b0: fb31 bf38 93fe 513a bc0f a03a ceaf 3f3a
000000c0: 7371 9238 7fea b239 37df a83b e930 d538
000000d0: d3d5 7d39 7848 1c3a 2592 1038 db0b a839
000000e0: 4683 8a3b f361 753b e819 8039 b88c 6239
000000f0: 40bf 3f3c 40f4 073a b6be a63a bcca 6139
00000100: ed15 8239 0fb3 043b 573f 4e3c 511f e73b
00000110: 3368 e338 457c a93a 63df 683c d3b7 b63a
00000120: dfb8 403b b43f 703a a4a8 193a 68f4 b43b
00000130: b825 723c d150 f73b e6e6 063a 65f7 953a
00000140: 3b57 193c 11ce a239 923b 673a 7996 183a
00000150: 1f41 0739 5932 a03a 208a 2c3c 81bb c43b
00000160: 9e9f 8439 d562 a73a
0.024646362 0.0042946427 0.005551824 0.0035921575 0.0015221847 0.013038827 0.017543485 0.015413707
0.0018958807 0.00025652678 0.02785775 0.0010616238 0.0024854706 0.001037429 0.000397082 0.0038259348
0.025424454 0.017613435 0.0005330133 0.0019836205 0.020571461 0.00031948544 0.00084334717 0.0010253885
9.156859e-05 0.00086959044 0.018503208 0.014404804 0.00044051 0.0021296726 0.017152496 0.00037354758
0.0012604642 0.00035163094 0.00020265947 0.0016535951 0.015495473 0.010863725 0.00016892278 0.000222645
0.001233783 0.00020925408 0.00035141004 0.000138584 9.116899e-05 0.0008010652 0.001221172 0.0007312269
6.982954e-05 0.0003412552 0.0051535624 0.00010165742 0.00024207616 0.00059617264 3.4468383e-05 0.0003205229
0.004227075 0.0037442415 0.00024433364 0.00021605461 0.011703312 0.00051862374 0.0012721631 0.00021533197
0.00024811868 0.0020248329 0.012588344 0.0070532938 0.00010843612 0.0012930712 0.014213416 0.0013940282
0.0029407067 0.0009164766 0.0005861616 0.0055222996 0.014779501 0.007547476 0.0005146101 0.0011441527
0.009359176 0.0003105258 0.00088208274 0.0005820762 0.00012898863 0.0012222036 0.010530978 0.0060037975
0.00025295926 0.0012770543

model/output/b/v f4 [9]
00000000: bb2e bf3a de9c 1e3b 0878 f63a aaa5 c03a
00000010: e87b eb38 8974 e039 381a 993a c26a a53a
00000020: f145 843a
0.001458607 0.0024202387 0.0018804083 0.0014697809 0.000112287526 0.00042811435 0.0011680787 0.0012620317
0.0010091645
