rl_planner/rl_agent/model (copy)/1499833316.83optmizer.model (npz, 2971 bytes, 8 tensors)

model/output/W/m f4 [9, 10]
0	0xbc18b609	-0.009320744
1	0x3b33d3d6	0.0027439496
2	0x3b99f553	0.0046984344
3	0xbab599b3	-0.001385501
4	0x3b90c4ce	0.004417992
5	0x3ba203b5	0.0049442896
6	0xbb639d7c	-0.003473132
7	0xbbfdd928	-0.0077468343
8	0xbaacfbb3	-0.0013197571
9	0x3a1d2145	0.0005994032
10	0x38538300	5.0428323e-05
11	0xbbc57ef4	-0.006027097
12	0xbbd2e9b8	-0.006436553
13	0xbc02a4b2	-0.007973837
14	0xba21b9d9	-0.0006169356
15	0xbc224286	-0.009903556
16	0x3af35c70	0.0018566977
17	0x3af082b8	0.0018349504
18	0xbbdb6f4d	-0.0066966177
19	0xbba23f76	-0.004951413
20	0x3d024fb7	0.031814303
21	0xba351a9c	-0.0006908567
22	0x3a7a136b	0.00095396367
23	0x3bee5081	0.0072727804
24	0x3b349ad1	0.0027558098
25	0xbb4a808e	-0.0030899378
26	0x3c9b62cc	0.018968008
27	0x3ccb9ee2	0.024856035
28	0x3c0e6120	0.008690149
29	0x3b0fc01e	0.002193458
30	0x3bb10cd4	0.0054031406
31	0xbb11ca2c	-0.0022245748
32	0xba1a1872	-0.00058782764
33	0xba5a4100	-0.0008325726
34	0x39a2bb46	0.00031038577
35	0xbb4822ae	-0.0030538249
36	0x3c05b3a4	0.008160505
37	0x3ba935f7	0.005163904
38	0xbb2635e2	-0.0025361707
39	0xbaa521e4	-0.0012598601
40	0xbc891c0f	-0.016737012
41	0xbaa942df	-0.0012913606
42	0xbb194cd2	-0.0023391736
43	0xbbb8486c	-0.0056238677
44	0xb9658caa	-0.00021891543
45	0xbb28dd6e	-0.0025766748
46	0xbc3a95db	-0.011388267
47	0xbc428c6e	-0.011874301
48	0xbbade33c	-0.0053066295
49	0xba0dd7c3	-0.0005410874
50	0x3ba680ac	0.005081257
51	0x3c1e0ba5	0.009646331
52	0x3c65cfdc	0.014026608
53	0x3a147e50	0.0005664574
54	0x3c5f6715	0.0136354165
55	0x3c8a757c	0.016901724
56	0x3ad472a8	0.0016208487
57	0xba565255	-0.00081757206
58	0x3b04b00c	0.0020246534
59	0xba3d94de	-0.0007231961
60	0xbcfc7380	-0.030816793
61	0x3b9be067	0.0047569755
62	0x3ab06b89	0.0013459782
63	0x3b8c3b0c	0.0042795
64	0x3ad9fed5	0.0016631732
65	0x3b985bc2	0.0046496103
66	0xbcde3e4c	-0.027129315
67	0xbcc69ac4	-0.02424372
68	0x39ab666c	0.00032691972
69	0x3a6f0b46	0.00091188063
70	0xbc0487f8	-0.008089058
71	0xbba8b1a6	-0.0051481305
72	0xbc123cf3	-0.008925664
73	0xba089e34	-0.00052115624
74	0xbb128401	-0.0022356512
75	0xbc28b75e	-0.010297624
76	0xbc10734e	-0.008816553
77	0xbbde97b7	-0.006792988
78	0xba1376f5	-0.0005625331
79	0xbbde16d1	-0.0067776223
80	0xbc85351f	-0.016260682
81	0xbc2e2e05	-0.010631089
82	0xbca727f5	-0.020404795
83	0x3ac02cb2	0.0014661758
84	0xbbe46fdb	-0.006971342
85	0xbcb6069b	-0.022219947
86	0xbcc52d8e	-0.024069574
87	0xbc6f44d5	-0.014603813
88	0xba96b4ed	-0.0011498012
89	0xbc1c5a1e	-0.00954297

model/output/b/m f4 [9]
0	0xba9e0668	-0.0012056353
1	0x3a2013f0	0.00061064865
2	0x3bd4b13c	0.0064908545
3	0x3b3679ed	0.002784367
4	0xbb768907	-0.0037618296
5	0x384ba098	4.8548536e-05
6	0xbc161acc	-0.009161662
7	0xbb4acc22	-0.0030944427
8	0xbc052912	-0.008127468

model/hidden_layers/0/W/m f4 [10, 2]
0	0x3beb330e	0.007177717
1	0x3acae8bc	0.0015480737
2	0x3c0c7352	0.008572416
3	0x3b9ae2f7	0.0047267633
4	0x3d081ac2	0.033228643
5	0xbb2cd05d	-0.0026369311
6	0x3c4b1330	0.012394711
7	0x39cd4750	0.0003915378
8	0xbc6eb787	-0.0145701235
9	0x3b9c3bd9	0.0047678766
10	0x3c86333e	0.016381856
11	0x3ba44c50	0.00501398
12	0xbc45708a	-0.012050757
13	0x3b898734	0.0041970257
14	0xb96c2180	-0.00022519194
15	0x3b5bed38	0.0033558141
16	0x3bb7c49a	0.0056081535
17	0x3b65b61b	0.003505117
18	0xbc2dbe4c	-0.010604452
19	0xbbf7fda8	-0.00756808

model/hidden_layers/0/b/v f4 [10]
0	0x3c36f1c3	0.011166039
1	0x3ba23f61	0.004951403
2	0x3c7f0a14	0.015566368
3	0x3becca1e	0.0072262427
4	0x3abd7023	0.0014452975
5	0x3c6f6807	0.014612204
6	0x3c43d1e0	0.011951894
7	0x3bde26db	0.0067795343
8	0x3c6fad28	0.014628686
9	0x3b35c6bc	0.0027736863

model/hidden_layers/0/W/v f4 [10, 2]
0	0x3b9e8126	0.004837173
1	0x3b244c15	0.0025069762
2	0x3b877ad4	0.0041345153
3	0x3b027b43	0.0019909895
4	0x3bd0203a	0.006351498
5	0x3b014191	0.0019722919
6	0x3bc06f92	0.005872675
7	0x3aa533a6	0.0012603893
8	0x3afd04f1	0.0019303841
9	0x3b499368	0.0030758027
10	0x3be4db75	0.006984169
11	0x3b740ee8	0.003724033
12	0x3be04512	0.0068441713
13	0x3b3c1b67	0.0028702857
14	0x3b6db7ce	0.0036272886
15	0x3ac9d30d	0.0015397981
16	0x3bdd97f5	0.0067624995
17	0x3b1ed6ef	0.0024236997
18	0x3ac70d61	0.0015186482
19	0x39cec807	0.00039440414

model/hidden_layers/0/b/m f4 [10]
0	0x3c818006	0.015808117
1	0xbc401ef0	-0.011726126
2	0xbc137192	-0.008999245
3	0xbc907812	-0.017635379
4	0x3aad36a7	0.001321514
5	0xbd09e54a	-0.033665933
6	0x3cbbf740	0.022945046
7	0x3c1a2de6	0.009410357
8	0xbc3c1200	-0.011478901
9	0x3b7701fd	0.0037690394

model/output/W/v f4 [9, 10]
0	0x3c1ad886	0.009451037
1	0x3af70243	0.0018845279
2	0x3b9b9bb6	0.004748787
3	0x3a70783f	0.00091731915
4	0x3acf24fc	0.0015803869
5	0x3bd190fd	0.006395458
6	0x3bba4c10	0.005685337
7	0x3b84267d	0.0040329085
8	0x3a874800	0.001032114
9	0x3919cfff	0.00014668702
10	0x3cab5f98	0.020919606
11	0x3ade372d	0.00169537
12	0x3b97ad28	0.004628796
13	0x3a92fc2e	0.0011214071
14	0x3ab54d5f	0.0013832262
15	0x3bc2f6b6	0.0059498204
16	0x3c659aa2	0.014013918
17	0x3c2e97ad	0.0106562795
18	0x3aabd694	0.0013110214
19	0x3a206114	0.00061179814
20	0x3cd7b9c2	0.026333693
21	0x3a8f8746	0.0010950349
22	0x3b4435f8	0.0029939394
23	0x3a1aa944	0.00058998563
24	0x3a70c7f5	0.00091850694
25	0x3b7d00e4	0.0038605267
26	0x3cb1829a	0.021668721
27	0x3c7d427e	0.0154577475
28	0x3a473be7	0.00076001737
29	0x39ddbf62	0.00042294996
30	0x3bd2a31a	0.0064281346
31	0x39a40703	0.00031285742
32	0x3a8d1da9	0.0010766286
33	0x39a4b7ce	0.00031417463
34	0x393fd95f	0.00018296156
35	0x3a9f548e	0.0012155937
36	0x3b95f90b	0.0045768074
37	0x3b565c92	0.0032708985
38	0x39b2dd48	0.00034115673
39	0x38a584b7	7.892533e-05
40	0x3b179f1b	0.0023135606
41	0x3a7bfd12	0.00096126006
42	0x3b40dd10	0.0029428639
43	0x39108f54	0.00013786304
44	0x3a777a55	0.0009440531
45	0x3b720815	0.0036931087
46	0x3af6ad2e	0.0018819922
47	0x3a802253	0.0009775854
48	0x3915807d	0.00014257613
49	0x39252ba2	0.0001575188
50	0x3b87488c	0.0041285213
51	0x3a4df55c	0.0007856691
52	0x3b080040	0.0020752102
53	0x39821bcb	0.0002481624
54	0x3a216b22	0.00061576266
55	0x3b343d87	0.0027502493
56	0x3b35b922	0.0027728756
57	0x3af549cc	0.001871401
58	0x399bd4f7	0.00029722575
59	0x38a8de9d	8.052329e-05
60	0x3cf17c2b	0.029478153
61	0x3a5b6dc7	0.0008370545
62	0x3b447e20	0.0029982403
63	0x39847b4c	0.00025268865
64	0x3a323780	0.0006798431
65	0x3b52672c	0.0032104952
66	0x3cb80706	0.022464287
67	0x3c8129a4	0.015766926
68	0x3a19ddc7	0.0005869534
69	0x38c16835	9.222367e-05
70	0x3c2a28a5	0.010385667
71	0x3b814b94	0.003945777
72	0x3c244d70	0.010028228
73	0x39cee87e	0.00039464602
74	0x3b79323a	0.0038024322
75	0x3c5fc8d3	0.01365872
76	0x3bedf44e	0.0072617894
77	0x3b8db13d	0.004324107
78	0x3a1d4644	0.0005999545
79	0x3a2104b9	0.00061423663
80	0x3be756da	0.007059914
81	0x3afc5455	0.0019251207
82	0x3bab3814	0.005225191
83	0x39b2c7a1	0.0003409954
84	0x3aeaccaf	0.0017913784
85	0x3be19046	0.006883654
86	0x3bae58a4	0.0053206254
87	0x3b5e669d	0.0033935674
88	0x39c4a1b4	0.0003750451
89	0x39f85ec7	0.0004737286

model/output/b/v f4 [9]
0	0x3a1c0da9	0.0005952963
1	0x3aca01cd	0.0015411914
2	0x3b21a1a0	0.0024662986
3	0x3a0320e4	0.00050021545
4	0x3947a7fe	0.00019040701
5	0x399a37de	0.00029414793
6	0x3b229718	0.0024809297
7	0x3a46c38e	0.00075822405
8	0x3a15734a	0.00057010783
