rl_planner/rl_agent/model (copy)/1499838368.61.model (npz, 1325 bytes, 4 tensors)

model/output/W f4 [9, 10]
0	0xbf0582a0	-0.5215244
1	0x3fb21ba0	1.391468
2	0x3ee7c5b8	0.45268035
3	0x3fb34a4c	1.4007049
4	0xc023105d	-2.5478737
5	0x3f3a5e18	0.72799826
6	0xbfbabfb8	-1.4589758
7	0xbf978ff0	-1.1840801
8	0x3f47ffba	0.7812458
9	0x3f9b1f34	1.2118897
10	0xbf7feaea	-0.99967825
11	0x3fc26bdc	1.5189166
12	0xbe00fbd7	-0.1259607
13	0x3f9e4237	1.2363957
14	0xbff90105	-1.9453436
15	0x3f64a0f0	0.8930807
16	0xbf9c85cd	-1.2228333
17	0xbf477bbf	-0.77923197
18	0x3f9c4f77	1.2211751
19	0x3f85f097	1.0464047
20	0xbfa54ea1	-1.2914621
21	0x4011ffab	2.2812297
22	0xc0451792	-3.0795636
23	0x3facbd36	1.3495243
24	0xbf8742fd	-1.0567318
25	0x401b4874	2.4262972
26	0xbed04e52	-0.40684754
27	0xbf9597c1	-1.1686937
28	0x3fb467dd	1.4094197
29	0x3f825d7f	1.0184783
30	0xbf53bf1b	-0.8271348
31	0x3e0e13d9	0.13874759
32	0x3f175208	0.59109545
33	0x3f8d40d2	1.1035407
34	0xc010100c	-2.2509794
35	0x3f9e700a	1.2377942
36	0xbfae8e6f	-1.3637217
37	0xbf5ae41a	-0.85504305
38	0x3f9b9ca1	1.2157174
39	0x3f87d437	1.0611638
40	0xbf821989	-1.0164043
41	0x3f94957c	1.1608119
42	0xbed61e89	-0.4182017
43	0x3fa1a9a0	1.262989
44	0xbff628ed	-1.923124
45	0x3fa80fd6	1.3129833
46	0xbfa6f77a	-1.3044274
47	0xbf8b6b88	-1.0892191
48	0x3f8f7a15	1.1209131
49	0x3f92c941	1.1467668
50	0xbfb7173f	-1.4303969
51	0x3f2c7726	0.67369306
52	0xbfb37c46	-1.40223
53	0x3fb22b15	1.3919398
54	0xbf94b89b	-1.1618837
55	0x400ab787	2.1674516
56	0xbf62e819	-0.886354
57	0xbf39526a	-0.7239138
58	0x3fa97f25	1.3241926
59	0x3f87c45b	1.0606798
60	0xbf5d17b5	-0.863643
61	0xbfcdd716	-1.6081264
62	0x3f665d9b	0.8998658
63	0x3f29100f	0.6604013
64	0xc007c404	-2.1213388
65	0x3ff44cb6	1.908591
66	0xbfc55605	-1.5416876
67	0xbf324d2a	-0.69648993
68	0x3fc2b7ee	1.5212381
69	0x3f895b7b	1.0731043
70	0xbf882dbc	-1.0638957
71	0xbea4e9df	-0.3220968
72	0xbd9fd06c	-0.07803425
73	0x3f982f0d	1.1889359
74	0xbf92758c	-1.1442122
75	0x3fceef99	1.6166869
76	0xbfa4907d	-1.2856594
77	0xbf4ea4b4	-0.8072007
78	0x3fa9c04d	1.326181
79	0x3f8b8cff	1.0902404
80	0xbfc6c2e6	-1.5528228
81	0x3f6097b8	0.87731504
82	0xbfc2f47a	-1.5230858
83	0x3fb5f19c	1.4214358
84	0xbef953b3	-0.4869667
85	0x3ff45d34	1.9090943
86	0xbf639a2a	-0.8890711
87	0xbf0a92d0	-0.5413027
88	0x3f8fd707	1.1237496
89	0x3f7b91b6	0.9826921

model/hidden_layers/0/b f4 [10]
0	0x402b2954	2.6743975
1	0xbe5e84d7	-0.21730362
2	0x3eea41e1	0.45753387
3	0xbfa690aa	-1.3012898
4	0xc0362c90	-2.8464699
5	0xbc15dd52	-0.009147005
6	0x40468292	3.1017194
7	0x400b26f7	2.1742532
8	0xbeee34be	-0.46524614
9	0xbc543a19	-0.012953305

model/output/b f4 [9]
0	0xbfa07358	-1.25352
1	0xbf979e64	-1.1845212
2	0xbf5dcdcc	-0.86642146
3	0xbfb04454	-1.3770852
4	0xbf81e42f	-1.0147761
5	0xbf55e3fc	-0.83551
6	0xbf9ced54	-1.2259927
7	0xbf8665d4	-1.0499825
8	0xbf58ff54	-0.847646

model/hidden_layers/0/W f4 [10, 2]
0	0xbfc6a3f4	-1.5518785
1	0xbf6481f9	-0.8926082
2	0xbe3855f4	-0.18001539
3	0xc04d7425	-3.210214
4	0x3eadefd4	0.33972037
5	0xc0956440	-4.6684875
6	0xc0124929	-2.2857153
7	0x3ef565c1	0.47929195
8	0xbe7875b8	-0.24263656
9	0xc066b5b9	-3.6048415
10	0xbcc64105	-0.024200926
11	0xc0b5b89a	-5.6787844
12	0x3e8feec7	0.2811186
13	0xbeee2025	-0.465089
14	0xbf6f0b9d	-0.93377095
15	0x3f550ac5	0.8321956
16	0xbfe50675	-1.7892596
17	0xbec44f8a	-0.38341933
18	0x3d29cf3f	0.04145741
19	0x4035cab4	2.840497
