rl_planner/rl_agent/model (copy)/1499822075.56optmizer.model (npz, 2972 bytes, 8 tensors)

model/output/W/m f4 [9, 10]
0.038627792 0.0050028777 0.00944287 0.009361072 0.0063411016 0.007313076 0.033775527 0.030101694
0.009571853 0.0011844378 -0.032261584 0.0022896514 0.0007541161 -0.0050300155 0.004812045 0.005925908
-0.026301887 -0.02652462 -0.00835705 0.0021304372 0.018294858 -0.0031352537 0.0077680848 -0.009011914
-7.3752446e-05 -0.0029346098 0.02699842 0.013416148 -0.007227589 -0.0035826336 -0.0043640016 0.0027043673
0.0068675224 -0.0025660747 0.007907603 0.0079086805 0.0026412625 -0.0058249696 -0.0030707705 0.00010971449
0.012045102 -0.00034845332 -9.2252696e-05 0.0015136334 -0.00019493444 -0.001536801 0.010521175 0.010418837
0.0018757773 0.0008598293 -0.03678893 -0.0034353747 -0.010447218 -0.0047384407 -0.0014577071 -0.010009337
-0.035776395 -0.028622868 -0.00527783 -0.0028057587 0.018178068 0.008537355 0.008362638 0.010040997
0.00855314 0.012443231 0.005303018 0.013504295 0.008425305 0.0019783948 -0.042688943 -0.0060460772
-0.016538125 -0.0023206733 -0.0052040825 -0.014817758 -0.03445339 -0.029029869 -0.004103651 0.007958896
0.009935606 -0.0028482159 -0.00064750225 0.0034208787 -0.004104902 -0.0070995796 0.014414439 0.0088152215
0.0050369 0.00024485082
00000000: 2d38 1e3d 2eef a33b 44b6 1a3c 2f5f 193c
00000010: 04c9 cf3b 87a2 ef3b 3558 0a3d d497 f63c
00000020: 43d3 1c3c 233f 9b3a b924 04bd fa0d 163b
00000030: e0af 453a d4d2 a4bb 5cae 9d3b 1f2e c23b
00000040: 0e77 d7bc 294a d9bc 02ec 08bc ce9e 0b3b
00000050: 19df 953c d478 4dbb 6b8b fe3b b5a6 13bc
00000060: 8bab 9ab8 9552 40bb ca2b dd3c 67cf 5b3c
00000070: 69d5 ecbb 9eca 6abb e6ff 8ebb c13b 313b
00000080: f408 e13b 972b 28bb e48e 013c 6993 013c
00000090: 0819 2d3b 63df bebb fb3e 49bb 8516 e638
000000a0: d258 453c 9db0 b6b9 ca77 c1b8 1c65 c63a
000000b0: 5167 4cb9 7c6e c9ba 0261 2c3c c5b3 2a3c
000000c0: a4dc f53a 2b66 613a fdaf 16bd 0624 61bb
000000d0: cf2a 2bbc ec44 9bbb 8910 bfba 34fe 23bc
000000e0: 458a 12bd 817a eabc a6f1 acbb d2e0 37bb
000000f0: 2cea 943c 43e0 0b3c 7203 093c fe82 243c
00000100: 7822 0c3c b2de 4b3c f0c4 ad3b 1e41 5d3c
00000110: 4a0a 0a3c f5a7 013b 9ada 2ebd 2c1e c6bb
00000120: f67a 87bc 7016 18bb 0287 aabb 2fc6 72bc
00000130: ff1e 0dbd 0cd0 edbc eb77 86bb 0866 023c
00000140: f4c8 223c 22a9 3abb 24bd 29ba d230 603b
00000150: 6a82 86bb 97a3 e8bb 8a2a 6c3c b86d 103c
00000160: 940c a53b 525f 8039

model/output/b/m f4 [9]
0.009906418 -0.0077462625 0.008574063 0.0010098866 0.0032435504 -0.010762623 0.000551532 -0.008948567
0.004997558
00000000: 874e 223c 5cd4 fdbb 3a7a 0c3c 2c5e 843a
00000010: bf91 543b b655 30bc b094 103a 039d 12bc
00000020: 8ec2 a33b

model/hidden_layers/0/W/m f4 [10, 2]
-0.021940589 -0.0002905972 -0.0009530239 -0.00070716016 -0.028944792 -0.00945179 0.0050993823 0.0032669879
-0.00481656 0.020301405 0.004622438 0.0010806784 -0.012946575 -0.0059105153 -0.007627425 -0.0021872052
0.00822752 0.0010230632 0.013313036 0.0029609823
00000000: c0bc b3bc 4c5b 98b9 5ad4 79ba b760 39ba
00000010: a11d edbc aedb 1abc b818 a73b f61a 563b
00000020: 3cd4 9dbb 224f a63c d277 973b 8da5 8d3a
00000030: df1d 54bc ffac c1bb 7aef f9bb 3757 0fbb
00000040: b8cc 063c 4e18 863a ec1e 5a3c 0a0d 423b

model/hidden_layers/0/b/v f4 [10]
0.013187081 0.006037188 0.009702249 0.011914673 0.0011776224 0.011279154 0.014297252 0.008269417
0.015015804 0.0030606377
00000000: a00e 583c 9bd3 c53b 2ff6 1e3c c335 433c
00000010: 735a 9a3a 33cc 383c 053f 6a3c 737c 073c
00000020: d904 763c fb94 483b

model/hidden_layers/0/W/v f4 [10, 2]
0.0073845927 0.0018675283 0.0050721443 0.0015164517 0.004608441 0.00070324045 0.009395805 0.0018160377
0.0010003295 0.0014453568 0.005989529 0.0020032136 0.009388156 0.003013094 0.0051946836 0.0020490233
0.008399259 0.0018494937 0.002167617 0.00047349182
00000000: 74fa f13b dac7 f43a 3b34 a63b adc3 c63a
00000010: 6802 973b ab59 383a ddf0 193c 1d08 ee3a
00000020: 7d1d 833a 2072 bd3a d043 c43b 5948 033b
00000030: c8d0 193c 5477 453b 2a38 aa3b e848 063b
00000040: 0c9d 093c b66a f23a 940e 0e3b ff3e f839

model/hidden_layers/0/b/m f4 [10]
0.0013195572 -6.252117e-05 -0.017000914 -0.011722565 -0.013433687 0.0022758734 0.0043253303 -0.010387089
-0.017315902 0.0012539956
00000000: fef4 ac3a cc1d 83b8 8045 8bbc 0010 40bc
00000010: f818 5cbc d226 153b 80bb 8d3b 9c2e 2abc
00000020: 14da 8dbc 1c5d a43a

model/output/W/v f4 [9, 10]
0.018416211 0.002748193 0.0065573957 0.0029270998 0.002249596 0.009152619 0.012365976 0.010010264
0.0022928687 0.00016897997 0.030881057 0.0009234781 0.00322398 0.0021226592 0.00067510403 0.0033117654
0.024620045 0.019287791 0.0019374371 0.0007716448 0.027363831 0.00032176406 0.0012613354 0.0010089066
0.0002426116 0.0011091135 0.024738582 0.018143088 0.00095349737 0.0005777225 0.010802868 0.0003403478
0.001299334 0.000525916 0.00029778396 0.0013387299 0.009005037 0.0065720812 0.00050438655 5.9325175e-05
0.0024558336 0.00036145112 0.0010644548 0.00024780247 0.0003444647 0.0014358537 0.0019644988 0.0013471534
0.00019264655 0.00025131943 0.0044388417 0.00031680774 0.0010156288 0.00050341623 0.0003145668 0.0013086067
0.0036310449 0.0027187148 0.0003764383 0.00012351175 0.02199936 0.00070985564 0.0027381831 0.00035452624
0.0008138956 0.0030469897 0.019771034 0.013587019 0.00042383542 0.0001869786 0.011120649 0.0012874039
0.004282358 0.0009018728 0.0012227324 0.005425917 0.010121525 0.0060130362 0.00076650945 0.00037534183
0.007836587 0.0004492581 0.0015089709 0.0006102668 0.00045831405 0.0018915958 0.006900394 0.004939073
0.00048753916 0.00042907475
00000000: 98dd 963c 071b 343b 6cdf d63b 96d4 3f3b
00000010: f56d 133b def4 153c aa9a 4a3c 1702 243c
00000020: f443 163b 3730 3139 45fa fc3c 9115 723a
00000030: 6949 533b 501c 0b3b 77f9 303a 340a 593b
00000040: faaf c93c 6e01 9e3c 9af1 fd3a 3548 4a3a
00000050: 1d2a e03c 71b2 a839 6553 a53a 4a3d 843a
00000060: 8e65 7e39 ac5f 913a 91a8 ca3c d0a0 943c
00000070: 20f4 793a 4d72 173a 83fe 303c b570 b239
00000080: 6a4e aa3a a0dd 093a e31f 9c39 5278 af3a
00000090: dd89 133c 9d5a d73b cf38 043a ecd3 7838
000000a0: 0df2 203b 2681 bd39 2d85 8b3a 7ceb 8139
000000b0: 4599 b439 4133 bc3a d2be 003b f892 b03a
000000c0: 2a01 4a39 86c3 8339 b473 913b 3719 a639
000000d0: d91e 853a b1f7 033a 71ec a439 8e85 ab3a
000000e0: d3f6 6d3b 772c 323b b15c c539 ef82 0139
000000f0: 0038 b43c 9b15 3a3a 1773 333b b5df b939
00000100: 9c5b 553a 01b0 473b ddf6 a13c 179c 5e3c
00000110: 3a36 de39 b00f 4439 6233 363c 1bbe a83a
00000120: 0653 8c3b a96b 6c3a 1744 a03a e4cb b13b
00000130: c1d4 253c 0109 c53b 94ef 483a 87c9 c439
00000140: 0765 003c 678a eb39 a9c8 c53a 50fa 1f3a
00000150: df49 f039 6cef f73a b31c e23b f3d7 a13b
00000160: 669c ff39 70f5 e039

model/output/b/v f4 [9]
0.0009672456 0.002202963 0.0023352616 0.0007936503 0.00016922175 0.00032139733 0.001798104 0.0008844658
0.00064077333
00000000: c18e 7d3a 965f 103b 300b 193b f80c 503a
00000010: 1e71 3139 3881 a839 5cae eb3a 7fdb 673a
00000020: 92f9 273a
