rl_planner/rl_agent/model (copy)/1499833316.83.model (npz, 1324 bytes, 4 tensors)

model/output/W f4 [9, 10]
-0.5743045 1.5802436 0.7663694 1.5528839 -2.7742233 0.9852688 -1.3499001 -1.2507613
0.88948107 1.0291071 -1.0748564 1.529152 0.06546162 1.5989403 -1.3957914 0.86538506
-1.1050237 -0.76326513 1.2972647 0.89586914 -1.3016334 1.9722921 -2.4299018 1.4815459
-0.08629848 1.8931999 -0.45632786 -1.0179663 1.515219 0.87148106 -0.8084871 0.56067955
0.7652293 1.3624768 -2.4936886 1.4616683 -1.383806 -0.8220102 1.1206027 0.9335142
-0.9500646 1.1549796 -0.34836847 1.6081891 -1.0479817 1.2550876 -1.3017998 -1.0182519
1.1413058 0.9529903 -1.4507638 0.56179094 -1.3798059 1.4759988 -0.008919231 1.9348779
-0.79509515 -0.7111799 1.5489862 0.92608964 -0.8677715 -0.8419474 0.9031492 0.94062823
-2.0654593 1.84591 -1.4838792 -0.6666313 1.6475666 0.8801393 -1.0108393 -0.35816544
-0.17573145 1.2935458 -0.2843872 1.4295692 -1.1946253 -0.8016727 1.4552587 1.0289555
-1.493682 0.70917124 -1.5640202 1.5786866 0.65464294 1.6160971 -0.8064646 -0.55489206
1.246976 0.863493
00000000: 9f05 13bf 6c45 ca3f c930 443f e6c4 c63f
00000010: e08c 31c0 933a 7c3f 87c9 acbf f218 a0bf
00000020: 08b5 633f c8b9 833f e594 89bf 41bb c33f
00000030: be10 863d 13aa cc3f 4ba9 b2bf e089 5d3f
00000040: 6b71 8dbf 5865 43bf c50c a63f ae57 653f
00000050: ec9b a6bf 1174 fc3f 8383 1bc0 4ca3 bd3f
00000060: 42bd b0bd 6054 f23f cea3 e9be b84c 82bf
00000070: b2f2 c13f 6219 5f3f 03f9 4ebf b288 0f3f
00000080: 11e6 433f a465 ae3f 9898 1fc0 f217 bb3f
00000090: 8e20 b1bf 436f 52bf e96f 8f3f c9fa 6e3f
000000a0: 6f37 73bf 5fd6 933f 5a5d b2be 24d9 cd3f
000000b0: 4424 86bf b6a6 a03f 60a1 a6bf 1456 82bf
000000c0: 4f16 923f 2cf7 733f a1b2 b9bf 88d1 0f3f
000000d0: 7b9d b0bf 87ed bc3f f721 12bc 14aa f73f
000000e0: 5b8b 4bbf e30f 36bf 2e45 c63f 3614 6d3f
000000f0: 4626 5ebf dd89 57bf c934 673f 03cd 703f
00000100: 7c30 04c0 c746 ec3f c1ef bdbf 59a8 2abf
00000110: 76e3 d23f cf50 613f 2f63 81bf 7661 b7be
00000120: f2f2 33be e992 a53f 339b 91be 20fc b63f
00000130: 7be9 98bf 6c3a 4dbf eb45 ba3f d0b4 833f
00000140: f930 bfbf 3f8c 353f d031 c8bf 6712 ca3f
00000150: ae96 273f 45dc ce3f 7774 4ebf 680d 0ebf
00000160: e99c 9f3f e10d 5d3f

model/hidden_layers/0/b f4 [10]
2.6098642 -0.20345812 0.40307632 -1.3789239 -1.7444543 0.0044181356 2.9584737 2.0850537
-0.6665747 0.00027229486
00000000: 0408 2740 5357 50be 0560 ce3e 9480 b0bf
00000010: 474a dfbf 02c6 903b a257 3d40 8571 0540
00000020: a4a4 2abf ccc2 8e39

model/output/b f4 [9]
-1.177071 -1.0931379 -0.88345736 -1.3938838 -1.0170753 -0.76337034 -1.1756958 -0.9790452
-0.7785337
00000000: 43aa 96bf f1eb 8bbf 432a 62bf c96a b2bf
00000010: 862f 82bf 3d6c 43bf 337d 96bf b5a2 7abf
00000020: fc4d 47bf

model/hidden_layers/0/W f4 [10, 2]
-1.6992083 -1.001421 -0.24722448 -2.862238 0.26562607 -4.3064094 -2.6082225 0.53396434
0.015697943 -3.5910735 -0.017571555 -5.212919 -0.040718094 -0.41103265 -1.0502946 0.45245486
-1.9408334 -0.30079645 0.02839852 2.4261374
00000000: a87f d9bf 902e 80bf 6a28 7dbe e82e 37c0
00000010: 2400 883e 1bce 89c0 1eed 26c0 e3b1 083f
00000020: f998 803c 26d4 65c0 39f2 8fbc 3cd0 a6c0
00000030: 04c8 26bd df72 d2be 0e70 86bf 2aa8 e73e
00000040: 3b6d f8bf fe01 9abe 03a4 e83c d645 1b40
