rl_planner/rl_agent/model (copy)/1499829694.69.model (npz, 1323 bytes, 4 tensors)

model/output/W f4 [9, 10]
0	0xbf258dbc	-0.64669394
1	0x3fce7551	1.6129552
2	0x3f4f5da5	0.81002265
3	0x3fd0e23c	1.6319041
4	0xc02322f0	-2.5490074
5	0x3f82e830	1.0227108
6	0xbfa98e75	-1.32466
7	0xbfa99c29	-1.3250781
8	0x3f872585	1.0558325
9	0x3f78944b	0.9710128
10	0xbf9048e6	-1.1272247
11	0x3fc17953	1.511515
12	0x3de43a4d	0.111439325
13	0x3fd5e114	1.6709313
14	0xbf95a3c4	-1.1690602
15	0x3f5b7dac	0.85738635
16	0xbf8ba58f	-1.09099
17	0xbf46c501	-0.77644354
18	0x3fa35d61	1.2762872
19	0x3f6814da	0.90656817
20	0xbfab3c25	-1.337773
21	0x3fe43aa0	1.7830391
22	0xbfffda95	-1.9988581
23	0x3fbdcbbc	1.48278
24	0x3e21e86b	0.15811317
25	0x3fcfd060	1.6235466
26	0xbee9ef2f	-0.45690295
27	0xbf797b3a	-0.97453654
28	0x3fbcee47	1.4760216
29	0x3f3ee66c	0.74570346
30	0xbf551264	-0.83231187
31	0x3f29bf65	0.6630767
32	0x3f4afa73	0.79288405
33	0x3fc081c7	1.5039605
34	0xc01ae4b1	-2.4202082
35	0x3fc47b97	1.5350217
36	0xbfb6c8b0	-1.4279995
37	0xbf555c19	-0.83343655
38	0x3f8f4cdc	1.1195331
39	0x3f6d6389	0.92730004
40	0xbf7271cf	-0.9470491
41	0x3f8d030c	1.1016555
42	0xbec84731	-0.39116815
43	0x3fe2884c	1.7697845
44	0xbf1f8e5b	-0.6232659
45	0x3f974116	1.1816738
46	0xbfaa44a4	-1.3302197
47	0xbf836952	-1.0266516
48	0x3f8613fc	1.0474849
49	0x3f5800db	0.84376305
50	0xbfb6eb32	-1.4290526
51	0x3f027869	0.5096498
52	0xbfafc281	-1.3731233
53	0x3fb6f816	1.429446
54	0x3ea4e755	0.32207742
55	0x3fe9b8d3	1.8259529
56	0xbf52aeec	-0.8229816
57	0xbf3559de	-0.7084025
58	0x3fcf07e9	1.6174289
59	0x3f5df6b2	0.8670455
60	0xbf663212	-0.8992015
61	0xbf08e590	-0.53475285
62	0x3f5489a7	0.8302254
63	0x3f86a153	1.0517982
64	0xbfe92db0	-1.8217068
65	0x3fe41983	1.7820286
66	0xbfc0057f	-1.5001677
67	0xbf31e6eb	-0.6949298
68	0x3fdbe5d3	1.7179512
69	0x3f5752b0	0.84110546
70	0xbf7701ba	-0.9648701
71	0xbe9b966f	-0.3038821
72	0xbe561a64	-0.20908505
73	0x3fa70a97	1.3050107
74	0xbbfddfaf	-0.0077476124
75	0x3fb3cb67	1.4046448
76	0xbfa32351	-1.2745153
77	0xbf4db776	-0.80358064
78	0x3fc4f716	1.5387905
79	0x3f8d6343	1.1045917
80	0xbfbb0de7	-1.4613618
81	0x3f24067c	0.64072394
82	0xbfc77f36	-1.5585697
83	0x3fd14a6c	1.6350837
84	0x3f7c9dec	0.9867847
85	0x3fbea666	1.4894531
86	0xbf51d9df	-0.8197307
87	0xbf11bd98	-0.5692992
88	0x3f997200	1.1987915
89	0x3f505959	0.81386334

model/hidden_layers/0/b f4 [10]
0	0x402cae83	2.6981514
1	0xbe2fff15	-0.1718715
2	0x3f08fc2e	0.53509796
3	0xbfb59840	-1.4187088
4	0xbfa2990e	-1.2702959
5	0x3b0d9929	0.0021606183
6	0x4040a1f8	3.0098858
7	0x4008db1b	2.1383731
8	0xbf31c856	-0.69446313
9	0x3abe7d38	0.0014533168

model/output/b f4 [9]
0	0xbf9404ad	-1.1563927
1	0xbf8a0a19	-1.0784332
2	0xbf61fb8a	-0.88274443
3	0xbfb76727	-1.4328355
4	0xbf850ffa	-1.0395501
5	0xbf482e55	-0.781957
6	0xbf97d10e	-1.1860673
7	0xbf859214	-1.0435205
8	0xbf485ce9	-0.7826677

model/hidden_layers/0/W f4 [10, 2]
0	0xbfc8c460	-1.5684929
1	0xbf91ef81	-1.1401216
2	0xbe86dc3c	-0.263399
3	0xc02c6d71	-2.6941798
4	0x3e4e9935	0.20175631
5	0xc0807f81	-4.0155644
6	0xc02c3ad9	-2.6910918
7	0x3f0c10c7	0.547131
8	0x3d7dcc54	0.06196244
9	0xc05ca030	-3.447277
10	0xbd0b794f	-0.034051236
11	0xc0a0a11b	-5.019666
12	0xbdd7c82c	-0.10536227
13	0xbeee6c8b	-0.46567187
14	0xbf8791ba	-1.0591347
15	0x3e90574d	0.28191605
16	0xbffe3e61	-1.9862787
17	0xbe77711c	-0.24164242
18	0x3d040628	0.032232434
19	0x4015261b	2.3304508
