rl_planner/rl_agent/model (copy)/1499822075.56.model (npz, 1323 bytes, 4 tensors)

model/output/W f4 [9, 10]
000000 6a 6c 4b bf 04 d7 b8 3f f9 e1 1a 3f 7b 2b d3 3f
       -0.794623 1.4440618 0.60501057 1.6497644
000010 e2 60 89 bf 9e c4 63 3f 8f ca 9a bf 21 2a c3 bf
       -1.0732691 0.8897189 -1.2093066 -1.5247232
000020 d0 e9 b9 3f 33 15 37 3f 89 9b 94 bf 5d 1a c4 3f
       1.4524479 0.7151672 -1.1609966 1.5320545
000030 68 63 15 3e d9 cc d9 3f c6 37 09 bf 0a 40 69 3f
       0.14588702 1.701564 -0.5360073 0.9111334
000040 80 6e 9c bf cf 1d 4a bf e8 b9 a8 3f 96 34 81 3f
       -1.2221222 -0.78951734 1.3181734 1.0094173
000050 18 3e ae bf 98 16 d1 3f 67 6e de bf 56 69 b7 3f
       -1.36127 1.633502 -1.7377442 1.4329021
000060 20 22 93 3f 49 a1 ab 3f ab c6 2b bf cc d0 59 bf
       1.1494789 1.3408595 -0.6710002 -0.85084224
000070 6c 85 be 3f 24 4f 56 3f 00 81 74 bf 3e 66 21 3f
       1.4884467 0.8371451 -0.9550934 0.63046634
000080 ea 14 85 3f 81 8b e6 3f ef 87 0f c0 aa 68 d2 3f
       1.0397007 1.8011323 -2.2426717 1.6438191
000090 d5 af b1 bf 11 cd 81 bf 66 f0 80 3f a4 7d 59 3f
       -1.3881785 -1.0140706 1.0073364 0.8495734
0000a0 53 8d 70 bf a4 9a 87 3f fe 8b d8 be 37 bd fd 3f
       -0.93965644 1.0594068 -0.42294306 1.9823369
0000b0 68 8d e9 3e 54 71 8d 3f dc e5 b4 bf 1b 30 89 bf
       0.45615697 1.105021 -1.4132648 -1.0717806
0000c0 94 c3 5c 3f 70 f5 53 3f cc ff b1 bf 00 07 ff 3e
       0.8623593 0.8279638 -1.3906188 0.49810028
0000d0 c7 a4 97 bf 0e 12 a5 3f 43 fc 9b 3f 88 02 c7 3f
       -1.1847161 1.2896135 1.2186359 1.5547647
0000e0 5a 54 8a bf 04 36 1d bf 6c ae e0 3f 1b 53 71 3f
       -1.0806992 -0.61410546 1.7553229 0.94267434
0000f0 fb 0e 82 bf 36 b1 a9 bd ba 13 4b 3f f2 62 aa 3f
       -1.0160822 -0.082857534 0.79326975 1.3311446
000100 97 6f 99 bf 24 c1 cf 3f 7c 92 ba bf ad 12 57 bf
       -1.198718 1.6230817 -1.4575953 -0.8401287
000110 9c cc d6 3f 69 d5 34 3f 7d fe 68 bf 31 8c 7f 3d
       1.6781192 0.7063814 -0.9101332 0.062389556
000120 d9 5d 49 be 94 38 a9 3f 44 d3 0c 3f 6f a3 ae 3f
       -0.19664706 1.3220391 0.55009866 1.3643626
000130 34 57 b7 bf bd 87 55 bf 28 c2 c4 3f eb db 66 3f
       -1.4323487 -0.83410245 1.5371752 0.9017932
000140 85 87 b7 bf a8 de 35 3f 76 2f 9b bf 33 c0 d9 3f
       -1.4338232 0.7104287 -1.2123859 1.701178
000150 fd 1b d9 3f 64 54 9e 3f bb 40 84 bf c0 82 0a bf
       1.6961666 1.2369504 -1.0332254 -0.5410576
000160 74 5d 86 3f a7 19 68 3f
       1.049727 0.9066414

model/hidden_layers/0/b f4 [10]
000000 79 6f 3c 40 57 11 6e be 66 fb 14 3f 9d 6a b3 bf
       2.9443038 -0.23248802 0.58196104 -1.4016911
000010 7f b1 3b bf 45 3a df 3c b7 6e 4d 40 65 6a 14 40
       -0.7331771 0.027249465 3.2098825 2.3189938
000020 d0 a4 2f bf f5 46 cc bb
       -0.6861086 -0.0062340447

model/output/b f4 [9]
000000 0d 67 82 bf 8d 32 9a bf 61 77 8c bf a1 d6 b0 bf
       -1.0187699 -1.2046677 -1.0973932 -1.38155
000010 bb 8c 8c bf 1f 53 7d bf d5 6d 8f bf 3f 94 99 bf
       -1.0980448 -0.9895496 -1.1205393 -1.1998366
000020 a8 fa 73 bf
       -0.95304346

model/hidden_layers/0/W f4 [10, 2]
000000 88 bb a3 bf 34 4b 91 bf 3f bd e1 be 21 b7 1b c0
       -1.2791605 -1.1351075 -0.44089696 -2.4330523
000010 17 a3 2d 3d e5 a2 63 c0 66 f7 35 c0 4c 6a 1c 3e
       0.042391863 -3.5568173 -2.843225 0.15274924
000020 43 7d a5 3d 55 d0 38 c0 71 26 c8 3b 11 f1 95 c0
       0.080805324 -2.8877156 0.006108098 -4.685677
000030 72 4b 5f be e0 ef 1b bf e1 8e 8f bf 04 cf a6 3d
       -0.21806124 -0.60912895 -1.1215478 0.08144954
000040 28 3b 05 c0 3f f6 42 be 33 e4 95 3c 94 35 11 40
       -2.0817356 -0.19039248 0.01829729 2.2688951
