rl_planner/rl_agent/model (copy)/1499835963.43optmizer.model (npz, 2973 bytes, 8 tensors)

model/output/W/m f4 [9, 10]
000000 ba f7 40 3b fe 21 87 bb 6c 3d 4a bb 6d cb d0 bb
       0.0029444532 -0.004123925 -0.0030859364 -0.0063719065
000010 dd 7e 7b bb 0f ed c9 bb 70 f0 4b 3c 39 a0 c1 3b
       -0.0038375177 -0.006162293 0.0124474615 0.0059089926
000020 20 09 b1 bb 05 87 57 3a f0 29 63 3c 3a 52 e4 3b
       -0.005402699 0.00082217186 0.013864979 0.00696781
000030 2b 71 32 3c 19 97 a5 38 ee c8 bc 3b df 16 4f 3c
       0.010891239 7.895957e-05 0.0057612574 0.01263973
000040 00 e4 ac 3b 68 c9 ae 3a f3 78 44 3b 76 20 31 bc
       0.005276203 0.001333517 0.0029979318 -0.010810962
000050 7e ac 6a 3c e9 fe 86 3b 82 e9 31 3c 50 25 f0 ba
       0.014323352 0.004119743 0.010858895 -0.0018321667
000060 be a8 b9 3b 28 a6 ea 3b 7c 80 0c 3c a4 61 08 3c
       0.0056658676 0.0071609206 0.008575555 0.008324061
000070 80 2a 10 3a 18 be 50 bb 2c 66 50 3c 6c 47 aa 3b
       0.0005499497 -0.0031851586 0.012719672 0.0051965024
000080 a9 6e 30 3c 7d b1 36 bb 6e da 10 3b 14 74 2b 3c
       0.010768571 -0.0027876787 0.002210285 0.010464687
000090 9e 08 2c 3c a2 90 c8 3b 21 36 df ba 9c bb 93 bb
       0.010500101 0.006120757 -0.0017029681 -0.0045084488
0000a0 33 d2 ae bb 27 90 5c 3a 16 f5 0f 3a 84 37 bb b9
       -0.0053351163 0.00084138144 0.0005491538 -0.00035708782
0000b0 73 bc ae 3a 80 7a 9b 3a b8 e3 4d bb aa b5 34 bb
       0.0013331309 0.0011862069 -0.0031416249 -0.00275741
0000c0 5d 1f ac ba c8 00 3d 3b 6a b0 cb ba c3 a3 a4 bb
       -0.0013131906 0.0028839577 -0.0015540246 -0.0050244047
0000d0 92 7f 12 bc 9e 24 23 b8 8f 55 6d ba 37 cd 26 bc
       -0.008941548 -3.889633e-05 -0.0009053582 -0.010180763
0000e0 76 97 59 bb a2 14 62 3a c3 a0 01 ba 95 35 a0 39
       -0.003320185 0.00086242903 -0.0004944915 0.000305575
0000f0 d8 63 74 bd 3d 13 2d bb 23 71 19 bc 4a 3f 8b bb
       -0.05966553 -0.0026409172 -0.009365353 -0.004249488
000100 b6 fb 08 bb 41 a4 32 bc ce 4a 39 bd 26 cf 32 bd
       -0.0020901985 -0.010903419 -0.045237355 -0.043654583
000110 94 89 1f bc 32 51 f8 bb 88 d6 44 3c 65 6f 84 3c
       -0.009737391 -0.0075780386 0.012014039 0.016166398
000120 1e ed 9a 3c b0 a3 8d 3a 3c 43 a3 3c d4 8d da 3c
       0.018911894 0.0010806229 0.01992952 0.026678957
000130 ca 44 91 bb 8e 45 3a 3a 29 e0 8d 3b d7 fb 88 3a
       -0.004433249 0.00071057014 0.0043297005 0.0010451031
000140 ec bb 6b bc 44 b7 7c bb ec 6c da bb 04 37 c3 ba
       -0.014388066 -0.0038561383 -0.0066658165 -0.0014893715
000150 a0 95 20 ba 60 69 04 bc b2 b1 77 bc 3a 76 55 bc
       -0.00061258115 -0.008081764 -0.015118049 -0.013028676
000160 46 52 52 bb d9 ee ec bb
       -0.0032092496 -0.0072306213

model/output/b/m f4 [9]
000000 75 a2 8b 3b 6b 59 72 3a 3e c6 28 3b cf 0a 46 3b
       0.0042613097 0.00092448917 0.0025752927 0.0030218845
000010 fa 29 77 ba 10 b0 53 ba 46 c0 7a bc 2a a1 fe ba
       -0.0009428557 -0.00080752466 -0.015304631 -0.0019426693
000020 04 a9 aa bb
       -0.0052081365

model/hidden_layers/0/W/m f4 [10, 2]
000000 4b e2 08 bb 5c 27 2e 3c 45 01 d1 bb 5a 9b 4e bb
       -0.0020886834 0.010629501 -0.006378325 -0.0031525702
000010 fa 58 bd 3c ae 23 91 3b c2 22 1a 3c de 82 56 bb
       0.023113716 0.004429302 0.009407701 -0.0032731812
000020 7f ff 46 bb 49 cf f4 3b b4 5a 1c 3c 56 20 84 bb
       -0.003036469 0.0074709994 0.00954311 -0.004032175
000030 f8 bc c3 bb 79 ea 85 3c 86 b5 c9 3a 99 7f 4b 3c
       -0.0059734546 0.016347157 0.0015389181 0.012420558
000040 b0 78 b1 3c d1 84 0e bc 85 7d 16 bc a3 16 2b bc
       0.021663994 -0.008698658 -0.0091852 -0.010442409

model/hidden_layers/0/b/v f4 [10]
000000 81 06 42 3c 29 f3 a8 3b 44 27 a6 3c 8c 53 de 3b
       0.011842371 0.00515594 0.020282395 0.006784862
000010 c4 17 bc 3a d2 5c 7a 3c 80 ee 4c 3c bf 35 f9 3b
       0.0014350344 0.015280919 0.012508035 0.007605284
000020 44 c2 69 3c fb 6f 69 3b
       0.014267508 0.0035619724

model/hidden_layers/0/W/v f4 [10, 2]
000000 04 96 aa 3b 08 f1 3a 3b c8 48 8d 3b ad 68 0c 3b
       0.0052058715 0.0028525013 0.0043116547 0.0021424696
000010 ea b5 05 3c 59 62 2f 3b c8 23 bf 3b 4a 3f a1 3a
       0.0081610475 0.00267615 0.005833123 0.0012302187
000020 41 b8 f8 3a 80 26 30 3b 88 3a 01 3c f6 9d 98 3b
       0.001897581 0.0026878417 0.00788749 0.0046575023
000030 dd 09 f1 3b e3 ea 36 3b 46 7a 81 3b f7 d6 c9 3a
       0.007355912 0.0027911 0.0039513437 0.0015399148
000040 a0 1a df 3b 4f f9 20 3b d0 fc fa 3a ff 13 fa 39
       0.006808594 0.0024562662 0.001914883 0.00047698614

model/hidden_layers/0/b/m f4 [10]
000000 1e 5c 40 3c 65 51 82 3c 20 7a 4b 3a 66 ae 5f bb
       0.011740712 0.015907953 0.00077620335 -0.003413105
000010 ad c7 a1 bb e4 53 cb bc 85 c8 9b 3c 38 b5 9e 3b
       -0.0049371333 -0.024820276 0.019016514 0.0048433803
000020 7b 02 04 bd ae 89 fb bb
       -0.032228928 -0.007676325

model/output/W/v f4 [9, 10]
000000 f3 c3 1f 3c ab 7b c9 3a df 9d 85 3b 67 a9 82 3a
       0.009751308 0.0015371939 0.0040776576 0.0009968699
000010 04 f6 60 3a 85 a1 ac 3b ea 1b c4 3b c5 14 87 3b
       0.0008581581 0.005268278 0.005984773 0.004122349
000020 16 dc 8e 3a db cb 8b 39 0e f1 96 3c cf 6e a8 3a
       0.0010899331 0.0002666403 0.01842549 0.0012850406
000030 23 52 5a 3b 9e d7 99 3a af 81 42 3a c1 6b 8d 3b
       0.0033313117 0.0011737233 0.0007419837 0.004315824
000040 ad 24 54 3c 01 ae 1e 3c a0 df a6 3a 5a 83 5d 3a
       0.012948197 0.00968504 0.001273144 0.0008450054
000050 df 1e e9 3c bf de c4 3a 5a 4d 7f 3b 93 ed 18 3a
       0.028457103 0.0015019997 0.0038956017 0.0005833741
000060 5a 68 7d 3a 83 1d a7 3b ff bb c1 3c 9b 20 87 3c
       0.00096667337 0.0050999536 0.023649214 0.01649504
000070 df b5 5d 3a 14 68 f3 39 9b 75 b1 3b 1a 92 bb 39
       0.0008457582 0.00046426116 0.005415631 0.00035776274
000080 1a b7 9d 3a 2d 50 93 39 25 a9 04 39 64 79 b3 3a
       0.0012032718 0.0002809776 0.00012651512 0.0013692793
000090 6a 7d 82 3b bb 68 31 3b 12 17 98 39 95 e2 03 39
       0.0039822357 0.002707048 0.00029008888 0.00012577542
0000a0 66 56 e8 3a d5 62 35 3a c4 ae 02 3b ea 8e 85 38
       0.0017725944 0.0006919329 0.0019940594 6.368554e-05
0000b0 86 3e 03 3a 2d d2 25 3b c7 f8 bf 3a 4c 39 57 3a
       0.000500657 0.0025302276 0.0014646285 0.0008210137
0000c0 d3 d7 cb 38 ee 93 d0 38 8c 5e 84 3b f4 33 a7 3a
       9.719995e-05 9.945767e-05 0.004039591 0.0012756572
0000d0 64 e1 5e 3b 3e 6b 4b 39 89 d5 5f 3a 8b 4e 92 3b
       0.0034008855 0.0001939954 0.0008538594 0.0044649295
0000e0 80 3b 4b 3b 1c 80 e1 3a 12 2b 93 39 34 cd ec 38
       0.0031010807 0.0017204317 0.00028070115 0.00011291579
0000f0 8a 5a f1 3c 17 00 8e 3a 8a f0 7b 3b df 7a 70 39
       0.029462118 0.0010833767 0.0038442933 0.00022933957
000100 d6 3b 2a 3a 51 bc 86 3b e4 ed ba 3c 9f 2c 7f 3c
       0.00064939016 0.0041118045 0.022818513 0.015574603
000110 ae 40 1f 3a 96 29 b7 38 e8 8e 24 3c 37 e1 8a 3b
       0.00060750067 8.733866e-05 0.010043837 0.0042382735
000120 81 72 2d 3c 52 07 c7 39 ea 03 57 3b db af 6b 3c
       0.010586382 0.00037961692 0.003280873 0.014385189
000130 ae 47 f8 3b b0 cf 8b 3b 5a 53 17 3a 2a d7 41 3a
       0.0075769043 0.0042667016 0.0005772613 0.00073944277
000140 e9 83 02 3c 84 f0 2f 3b 45 11 e5 3b bf db 91 39
       0.00796602 0.002684624 0.006990584 0.0002782028
000150 e7 6c 01 3b 5c 68 18 3c 62 67 c5 3b b9 75 6e 3b
       0.0019748749 0.009302225 0.006024287 0.0036386086
000160 0b 0e d4 39 7c ae 0d 3a
       0.00040446254 0.00054047233

model/output/b/v f4 [9]
000000 55 44 23 3a a3 fb bb 3a cb 36 2d 3b 14 de e0 39
       0.0006228139 0.0014341961 0.0026430364 0.0004289007
000010 4d 89 1d 39 2a bb a6 39 72 d7 22 3b d4 18 4d 3a
       0.00015023835 0.00031801435 0.0024847654 0.0007823829
000020 f8 9e 24 3a
       0.00062797917
