rl_planner/rl_agent/model (copy)/1499825959.32optmizer.model (npz, 2974 bytes, 8 tensors)

model/output/W/m f4 [9, 10]
00000000: baf6 ac3b 14ab adbb 5b07 bbbb 6ec0 143b
00000010: 2b2b 28bb 73c8 16bc d9ae 1d3c 00ca d03b
00000020: 2e4a 353a 3414 4a39 229a 003d c276 f1ba
00000030: 008b 65ba 223a 8c3b 507b 2bbb 1676 91bb
00000040: d042 c83c 3e02 d73c 2227 b13b 4040 fa37
00000050: 56cb 1cbd e7a1 32bb 78e9 12bc fc4c fd39
00000060: c40d b4ba 4289 cfbb 582c 2abd 180b 00bd
00000070: 6495 30b9 e374 fdbb 6f28 10bb a47e af39
00000080: 6cbd 163b d8f5 e6ba c389 2e3a 760a 003b
00000090: 6456 c73a 3647 3abb 3745 f5ba 2d72 a8ba
000000a0: 4bfa 3f3c 74c5 853b 58ae f13b 7f0b a639
000000b0: 73ac 983b 36f9 ee3b adbf ba3b 9bdc 8e3b
000000c0: 9450 ca3a ff7e dbbb 2031 31bc 829a 84bb
000000d0: a0e7 97bb 3e59 93bb 2501 a8ba 94a2 e9bb
000000e0: 8f7c c5bb be54 eebb 4e86 89bb 68e4 04ba
000000f0: f586 47bd 484d 243b d97b c4bb f4bf 66bb
00000100: b616 d13a d706 453b 570e 4cbd 5806 24bd
00000110: 503b 95bb e7e5 24bb 478b 90bc 279a ba3a
00000120: f076 afb9 8816 2fba 48e2 0d3b 8883 803b
00000130: f31c 55bc a8c3 20bc 4a0c 0dbb 6949 233c
00000140: fa87 99bb 2830 843a 3646 b23a 52c1 25bb
00000150: da7c 1c3b c23a 303a b694 bbba 1b89 25bb
00000160: 326d 5abb 71f5 453b
0.0052784355 -0.005299935 -0.005707664 0.0022697705 -0.0025660496 -0.009203064 0.009624206 0.0063717365
0.00069156557 0.00019271747 0.031396993 -0.0018422233 -0.00087563694 0.004279391 -0.002616603 -0.004439126
0.024445921 0.026246186 0.0054062763 2.9832241e-05 -0.038279854 -0.0027257146 -0.008966796 0.00048313278
-0.0013737013 -0.006333501 -0.041546196 -0.03126058 -0.0001684032 -0.0077348812 -0.0021996757 0.00033472956
0.0023001088 -0.0017620875 0.00066581013 0.0019537485 0.0015208242 -0.0028423793 -0.0018712644 -0.001285141
0.011717389 0.004082376 0.0073755197 0.00031670553 0.0046592294 0.007292892 0.005699119 0.0043597943
0.0015435391 -0.0066984887 -0.010814935 -0.004046739 -0.004635766 -0.0044967225 -0.0012817724 -0.0071299765
-0.0060268114 -0.0072732856 -0.0041969186 -0.00050694356 -0.04871269 0.0025070477 -0.005996209 -0.0035209628
0.0015952203 0.0030063891 -0.049818363 -0.040045112 -0.0045541897 -0.0025161447 -0.017644538 0.0014236615
-0.00033467216 -0.00066790776 0.0021649767 0.0039219297 -0.01300739 -0.009812273 -0.0021522217 0.009966233
-0.004685399 0.0010085152 0.0013601247 -0.002529223 0.0023878128 0.0006722623 -0.0014311287 -0.0025258723
-0.0033329246 0.003020611

model/output/b/m f4 [9]
00000000: 8d52 633b 3411 fc3b 012b 60bc c86e f639
00000010: 6121 883a 6a69 d2ba 282e 84bc 503e 67bb
00000020: 30b5 49b9
0.0034686655 0.0076924805 -0.013682128 0.00047003315 0.0010385924 -0.0016053144 -0.01613529 -0.0035284944
-0.00019236351

model/hidden_layers/0/W/m f4 [10, 2]
00000000: 33c6 1dbc 6fba 32bb 972b 53bc e700 be3b
00000010: 6c12 c5bb dec0 3eba d663 903b b2fc b23b
00000020: 468c e5bb 7cde abba 2eb1 8f3c 92ec 153b
00000030: d8bd 0bbc 504e ba39 fa43 3cbb b57b d9b9
00000040: 17ef 873c f9c0 603a f0c4 313a 6165 b5ba
-0.009629774 -0.0027271768 -0.012888811 0.0057984474 -0.006014159 -0.0007276664 0.0044064326 0.0054622525
-0.0070052473 -0.001311257 0.01754054 0.0022876603 -0.008529149 0.00035535032 -0.002872704 -0.00041481634
0.0165935 0.0008573677 0.000678136 -0.0013839417

model/hidden_layers/0/b/v f4 [10]
00000000: 93f3 4a3c 1d70 b53b 3314 4a3c b58e 173c
00000010: a719 913a 7d95 373c bbca 493c 0325 f23b
00000020: 97e7 793c cbf0 3d3b
0.012387174 0.0055370466 0.012333917 0.009250333 0.0011070267 0.011205074 0.012316401 0.007389666
0.015252969 0.0028982635

model/hidden_layers/0/W/v f4 [10, 2]
00000000: 0aaf c23b 3152 e53a 07b7 9b3b de1f a53a
00000010: 7486 a93b 01f0 773a 8963 f43b cfe6 8e3a
00000020: 4df3 953a 3aee ec3a 07d4 c13b e681 fc3a
00000030: 2a35 e43b d7b8 0a3b 0f4f 833b a311 9f3a
00000040: c983 f33b 4dd4 af3a 768d c73a db4e bc39
0.0059412764 0.0017495808 0.004752043 0.0012597998 0.0051734988 0.00094580656 0.0074581546 0.0010902527
0.0011440307 0.0018076368 0.005915168 0.0019264787 0.0069643455 0.0021167302 0.0040072273 0.0012135993
0.0074314815 0.0013414711 0.0015224654 0.00035916906

model/hidden_layers/0/b/m f4 [10]
00000000: 1cc6 ce3c 149d 613c b46b 633c 29c1 24bb
00000010: 8db8 81ba f17f 18bd 9dad b73c d862 8f3c
00000020: dc59 e6bc 5e19 2dbb
0.02524095 0.0137703605 0.013880659 -0.0025139546 -0.0009896919 -0.03723139 0.022421652 0.017503187
-0.02811902 -0.0026412825

model/output/W/v f4 [9, 10]
00000000: 8a61 2b3c dd0a b13a 209a 653b 78e1 9c3a
00000010: 82cb 9a3a 1161 933b 3e56 ec3b b491 b23b
00000020: 9591 9d3a 2aa5 0539 b6d0 d23c 8da5 a23a
00000030: 67d4 873b beb1 c83a cc49 8b3a 5419 923b
00000040: 99ce 9c3c d54f 723c eff1 e93a 9a56 0a3a
00000050: 0e0a fc3c 8498 d239 d4a0 d33a a959 603a
00000060: 2cd6 ab39 7e20 b73a 5e63 db3c 2c93 a03c
00000070: 5bfb 8c3a 2147 013a 389d dd3b 48ff af39
00000080: 2a36 a23a 8871 8b39 c752 a239 7888 a73a
00000090: 15ad b63b d644 783b f6bf ad39 5255 3738
000000a0: 8953 253b 5d4a c939 f71e 963a ae3c 5c39
000000b0: 1258 c339 0103 bc3a 4ff0 f53a faf0 a93a
000000c0: 0737 4d39 8fe1 2239 3411 873b a8a8 eb39
000000d0: 0682 b83a 6ec1 9839 ba80 de39 b8ae de3a
000000e0: 96d1 563b 9779 113b f352 9639 73c6 b838
000000f0: b796 ca3c 4099 353a 4330 393b 04e5 8239
00000100: 3f48 483a 1250 2e3b 5ccd a93c 4479 6d3c
00000110: a62e 043a b861 9638 7a97 183c 51b8 8d3a
00000120: 1512 6a3b b604 073a 1e30 823a 1bdc 883b
00000130: 504b 093c bc69 a23b a8b1 133a efd3 ed39
00000140: eb5b f63b 3dac 9b3a f6e5 613b 9fd0 ea39
00000150: 2081 a43a 9076 913b 7798 ca3b 04b7 853b
00000160: 6c0e f139 882d e139
0.010460267 0.0013507266 0.0035034493 0.001196905 0.0011809918 0.004497655 0.0072124293 0.005449498
0.0012021536 0.00012745397 0.025734287 0.0012408957 0.0041451934 0.001531176 0.0010626852 0.0044585858
0.019141482 0.014789541 0.0017848591 0.0005277187 0.030766513 0.00040167954 0.0016145953 0.0008558282
0.00032775232 0.0013971475 0.02678078 0.019601427 0.0010756062 0.00049315585 0.0067631267 0.000335688
0.0012375761 0.00026596733 0.00030960722 0.001278176 0.005574832 0.0037882826 0.00033140153 4.371006e-05
0.0025226793 0.00038393112 0.001145332 0.0002100344 0.00037258916 0.0014344157 0.0018763634 0.0012965493
0.00019570823 0.00015533551 0.004121924 0.00044948352 0.0014076836 0.00029135816 0.00042439048 0.0016989326
0.0032778732 0.0022197717 0.00028672031 8.810768e-05 0.02473007 0.0006927438 0.0028257526 0.00024966162
0.000764016 0.0026598019 0.020727806 0.014494244 0.00050423515 7.170759e-05 0.009313459 0.0010812377
0.0035716344 0.00051505433 0.0009932553 0.0041766292 0.008379772 0.004956452 0.0005634078 0.00045362065
0.0075182817 0.0011876893 0.0034469343 0.00044787393 0.0012550689 0.0044391826 0.006182726 0.004080655
0.00045977847 0.00042949268

model/output/b/v f4 [9]
00000000: 5044 2f3a 5241 f23a 53d5 323b 95ad 0d3a
00000010: 7696 3839 f62d a439 91ab 053b 82df 573a
00000020: b2e7 1c3a
0.00066858996 0.0018482602 0.0027287796 0.0005404589 0.00017603658 0.0003131476 0.002039645 0.00082349044
0.0005985453
