rl_planner/rl_agent/model (copy)/1499841505.8.model (npz, 1324 bytes, 4 tensors)

model/output/W f4 [9, 10]
-0.54184014 1.3402368 0.37546748 1.3367279 -2.4379432 0.66982317 -1.4804946 -1.2061981
0.97304857 1.2703618 -0.98817503 1.5247675 -0.2064966 1.0558162 -2.0382614 0.9053398
-1.2294897 -0.79385144 1.2517546 1.1083945 -1.3122776 2.3582416 -3.2937062 1.3267018
-1.428992 2.590943 -0.3810887 -1.2264901 1.399321 1.0848676 -0.872259 -0.01352434
0.5611444 1.1169593 -2.1459222 1.2015935 -1.3522309 -0.9124023 1.3397336 1.109935
-1.0342165 1.161778 -0.50585365 1.1793538 -1.9969522 1.3261535 -1.3193269 -1.0972179
1.1200238 1.2129906 -1.4125605 0.7100603 -1.4784039 1.38303 -1.5487602 2.2397332
-0.96598655 -0.72935784 1.2192719 1.1328804 -0.86555994 -1.860447 0.887969 0.60182685
-1.9915179 1.9334689 -1.5729499 -0.7301759 1.4666435 1.1690845 -1.0126691 -0.2936334
-0.09827568 0.97385746 -1.4178458 1.6823577 -1.3735648 -0.7404508 1.1480983 1.2361953
-1.5321393 0.93812764 -1.5275769 1.405904 -0.98453164 2.018996 -0.94615704 -0.5304616
0.92391896 1.0557503
00000000: 09b6 0abf e18c ab3f 463d c03e e619 ab3f
00000010: 4307 1cc0 8879 2b3f d980 bdbf b364 9abf
00000020: b619 793f 379b a23f 0af9 7cbf 952b c33f
00000030: d873 53be fc24 873f e072 02c0 59c4 673f
00000040: eb5f 9dbf d939 4bbf 7f39 a03f dfdf 8d3f
00000050: b6f8 a7bf 6eed 1640 15cc 52c0 5dd1 a93f
00000060: 36e9 b6bf 03d2 2540 0f1e c3be a1fd 9cbf
00000070: f31c b33f f1dc 8a3f 5e4c 5fbf 3195 5dbc
00000080: 29a7 0f3f 86f8 8e3f ca56 09c0 d1cd 993f
00000090: e715 adbf 3293 69bf 647c ab3f 5a12 8e3f
000000a0: 3561 84bf 24b5 943f a07f 01bf 11f5 963f
000000b0: 219c ffbf 66bf a93f b4df a8bf a371 8cbf
000000c0: f15c 8f3f 4743 9b3f c8ce b4bf 83c6 353f
000000d0: 573c bdbf 2107 b13f c63d c6bf ca57 0f40
000000e0: e54a 77bf 32b7 3abf 1a11 9c3f 3a02 913f
000000f0: 5695 5dbf 2123 eebf f051 633f 5311 1a3f
00000100: 0fea febf e97b f73f 6c56 c9bf cfec 3abf
00000110: f9ba bb3f 90a4 953f 249f 81bf 1e57 96be
00000120: c244 c9bd b94e 793f f97b b5bf 7f57 d73f
00000130: f9d0 afbf 2f8e 3dbf e3f4 923f a63b 9e3f
00000140: 241d c4bf 2229 703f a487 c3bf aaf4 b33f
00000150: 440a 7cbf 3b37 0140 5937 72bf 55cc 07bf
00000160: f485 6c3f d322 873f

model/hidden_layers/0/b f4 [10]
2.7357547 -0.22135629 0.473801 -1.3472451 -3.1861405 -0.0060801166 3.168377 2.221122
-0.25776362 -0.016051004
00000000: 9b16 2f40 39ab 62be 0b96 f23e 8772 acbf
00000010: bae9 4bc0 b73b c7bb b0c6 4a40 dd26 0e40
00000020: 98f9 83be 657d 83bc

model/output/b f4 [9]
-1.2737266 -1.1926711 -0.8632572 -1.3807786 -1.0233098 -0.8830617 -1.2490523 -1.1003556
-0.88213736
00000000: 7909 a3bf 72a9 98bf 6dfe 5cbf 5abd b0bf
00000010: d1fb 82bf 5510 62bf f2e0 9fbf 74d8 8cbf
00000020: c1d3 61bf

model/hidden_layers/0/W f4 [10, 2]
-1.4061091 -0.79948837 -0.17909127 -3.3605847 0.3683027 -4.8552165 -2.1227837 0.45968288
-0.37502882 -3.640811 0.0021233177 -5.853757 0.36597526 -0.51693064 -0.95300823 0.89628786
-1.7620317 -0.60649276 0.04129312 3.077151
00000000: 62fb b3bf 45ab 4cbf b463 37be d213 57c0
00000010: 2c92 bc3e ef5d 9bc0 b0db 07c0 8e5b eb3e
00000020: c703 c0be 0c03 69c0 5c27 0b3b fa51 bbc0
00000030: 1c61 bb3e 9155 04bf 59f8 73bf 1f73 653f
00000040: 418a e1bf 1c43 1bbf f922 293d 0bf0 4440
