rl_planner/rl_agent/model (copy)/1499841505.8optmizer.model (npz, 2973 bytes, 8 tensors)

model/output/W/m f4 [9, 10]
00000000: 7f68 81bb 05d7 60bb 281f ebbb 56bd 5b3b
00000010: 8bc5 fc38 ecfa ddbb 968a 16bc 0cc7 06bb
00000020: 564a 9039 53e6 b337 9366 dc3c cb50 613c
00000030: f319 b33c 4b2b 833b c174 b03b f05c c73c
00000040: 995e a53c 4e00 843c e261 bd3b cc87 083b
00000050: 47f5 223d 7cdb 35bc dad3 12bc 5922 16bc
00000060: f0bc 31ba 2a65 aebc 56a7 393d f26a 253d
00000070: 0e7e 9ebb 9874 333b 90f9 19bc 5645 1e3a
00000080: 48f4 7abb ceef 293a 8972 76ba 518e b5ba
00000090: c7d6 4cbc 3b1c dabb 80a4 a336 6b8d b73a
000000a0: adca 253c 45de 403b 2bf2 c43b 438f e939
000000b0: c4d5 e33a 924a ab3b 7cd9 3b3c 2ce2 e03b
000000c0: 3966 263b 856a 0039 7e9f 033d 21ab 863c
000000d0: 9566 cc3c 0560 aa3b 506b 3d3c e93a eb3c
000000e0: 869d b53c 0a02 933c 81b9 643c 54ab e73a
000000f0: e5df a7bc 68bd c63b b479 0c3c 3dca 3cbb
00000100: f6ca 13bb c6af 123c 08ba 73bc ca55 a4bc
00000110: db20 a4bb 30ef 17bc 760f 04bb 8bec a0ba
00000120: e351 2bbc b254 013b 366f 883c 5286 ddbb
00000130: 3b51 9abc 6056 1ebb 5f2d 013c fa8b 02ba
00000140: 82f3 9abc adf5 86bc 9ada b7bc f858 8aba
00000150: 9c63 95bb 63ea ecbc 9ed5 54bc 020c 37bc
00000160: 9e43 ecbb 1a12 09bc
-0.0039492245 -0.003430785 -0.007175345 0.00335296 0.000120530916 -0.006774297 -0.009188315 -0.0020565419
0.00027521205 2.1445716e-05 0.02690438 0.013752173 0.02186296 0.0040029637 0.005385012 0.024336308
0.02018671 0.016113427 0.005779491 0.0020832894 0.039784696 -0.011099692 -0.008961642 -0.009163463
-0.0006780168 -0.021288473 0.0453256 0.040385194 -0.0048368042 0.0027382728 -0.009397879 0.00060375535
-0.0038292576 0.0006482572 -0.00094012223 -0.0013851618 -0.012502379 -0.0066561974 4.876929e-06 0.0014003938
0.010119122 0.0029429358 0.006010314 0.0004454796 0.0017382433 0.0052273953 0.011465427 0.0068628993
0.002539052 0.00012246713 0.032134525 0.016439022 0.024951259 0.0051994347 0.01156123 0.028714614
0.02216984 0.017945308 0.013960243 0.0017674961 -0.020492503 0.0060650595 0.008573938 -0.0028807067
-0.0022551394 0.0089530405 -0.014875896 -0.020060439 -0.0050087995 -0.009273335 -0.0020150817 -0.0012277527
-0.010456535 0.001973432 0.016654592 -0.006760397 -0.018837562 -0.002416037 0.0078843525 -0.00049799646
-0.018914942 -0.01647457 -0.022443105 -0.0010555079 -0.0045589935 -0.028920358 -0.012990383 -0.0111722965
-0.007210209 -0.008366132

model/output/b/m f4 [9]
00000000: 1475 1cbb 97ea d23b b4b3 7b3c cd56 73bb
00000010: 9da4 633b b2cc e63b b808 c2bb b81d 9dbb
00000020: d5ca 89bb
-0.0023873495 0.0064366567 0.015362669 -0.0037130595 0.0034735568 0.0070434446 -0.0059214495 -0.0047948025
-0.0042050877

model/hidden_layers/0/W/m f4 [10, 2]
00000000: 78dd 7d3b ee4b 2abb 6ed9 e2bb 2c51 f63b
00000010: 4e7b 533c 1e0a 0cbc ea14 4dba f5d9 513b
00000020: 4066 b5bb b071 8f3c b03c 2a39 6465 633b
00000030: c9df a33c 6ea1 093c 836e 2d3c f8a2 2eba
00000040: 8be5 06bc 4626 f8bb e2c0 b9bc cce4 58bb
0.0038736742 -0.00259852 -0.0069228923 0.0075170007 0.012907816 -0.008547334 -0.0007823246 0.0032020782
-0.005535871 0.017510265 0.00016235071 0.0034697885 0.02000417 0.008400304 0.01058543 -0.00066618575
-0.008233438 -0.007572922 -0.022674982 -0.0033095358

model/hidden_layers/0/b/v f4 [10]
00000000: 3b51 323c cbf7 d83b fd65 c63c 9908 3d3b
00000010: a15a bf3a 0910 7c3c 1e8d 693c cfd9 063c
00000020: 13bf 4c3c ff8f 9b3b
0.010883625 0.006621336 0.024218554 0.0028844236 0.0014599153 0.015384682 0.014254836 0.008230641
0.0124967275 0.0047473903

model/hidden_layers/0/W/v f4 [10, 2]
00000000: 35c9 b13b 2795 243b 11c7 a73b b604 2c3b
00000010: f0a3 203c 86ed 313b df54 5b3b 8f69 5a3a
00000020: 02db 0c3b c55e 733b 22f5 053c 3c84 963b
00000030: 2b9d 0d3c cfd3 5e3b 1673 963b fbb0 cb3a
00000040: 9154 b53b 9d55 f43a b1e0 5d3b 7997 683a
0.005425597 0.0025113316 0.005120166 0.0026247925 0.009804711 0.0027149632 0.0033467335 0.00083317695
0.0021492844 0.0037135344 0.00817612 0.0045934003 0.008643429 0.003400076 0.004591356 0.0015540415
0.0055337627 0.0018641237 0.003385585 0.0008872669

model/hidden_layers/0/b/m f4 [10]
00000000: 9409 d7bc 6e88 60bc dfd2 45bd 2ccb d9b9
00000010: c534 b3bb 6782 e1bb 7ca4 5e3b 4892 97bc
00000020: 9c59 593c b64c 343c
-0.026249684 -0.013704402 -0.048296805 -0.0004154084 -0.005468937 -0.0068820002 0.0033972552 -0.01850237
0.013265993 0.011004617

model/output/W/v f4 [9, 10]
00000000: 92e5 373c 767d 0a3b cd71 ba3b cc20 443a
00000010: e1ba 113a c970 e63b d344 003c 8375 b23b
00000020: 79af cb3a b345 393a 3a68 973c a3af 0c3b
00000030: c3b6 b43b 9a3a 6d3a 558b 323a d419 e33b
00000040: 2ff9 683c 4866 2b3c 5e10 003b 9400 a83a
00000050: d4f4 c93c 20bc da3a a697 8e3b 6a60 aa39
00000060: f878 263a 5216 b13b d67f bb3c dbb6 803c
00000070: 1fc4 a03a 6005 5a3a 0c39 923b 1a65 ea39
00000080: 0ff7 bb3a 3d42 4539 3c2a 7e38 1219 d13a
00000090: 6480 7c3b 4035 253b d757 c639 9c49 b139
000000a0: 7cda 953a 5152 8839 2169 413a 0bdb f637
000000b0: 35cb 9d38 1287 683a c231 9d3a de2f 3d3a
000000c0: e43b ac38 a4b5 9c39 441d 313b 612f 383a
000000d0: 979c f03a f170 e738 82e9 9e39 7903 183b
000000e0: 02e6 353b 55a3 d03a 9af9 8a39 1f9e ba39
000000f0: 86b3 f33c 18ac cf3a aae5 ab3b 8090 0939
00000100: f32d e139 08cd b73b faf5 c83c f46e 873c
00000110: aa67 ab3a a32e bd39 ccc2 0a3c 383b 8a3b
00000120: 6f53 2b3c 90a8 7939 9478 fb3a c702 5e3c
00000130: 457b 1b3c 558f 8a3b 8bfa 493a bc56 883a
00000140: 2e47 ca3b 4066 233b 9790 d13b 3f6b 1039
00000150: 2e20 913a a654 063c 617f c93b 66a8 603b
00000160: 18fc f639 6b2c 803a
0.011224167 0.002113191 0.0056898356 0.0007481694 0.0005559158 0.007032488 0.007828909 0.0054461374
0.0015539966 0.0007067576 0.018482316 0.0021466992 0.005514951 0.0009049565 0.0006810923 0.006930569
0.014219566 0.0104613975 0.0019541006 0.0012817555 0.024652876 0.0016688146 0.004351574 0.0003249676
0.0006350423 0.005404272 0.022888105 0.015712192 0.001226548 0.0008316841 0.004462367 0.00044707285
0.0014340597 0.0001881206 6.0597653e-05 0.0015952906 0.0038528675 0.0025208741 0.0003783095 0.00033814914
0.0011432911 0.00026001272 0.0007378031 2.9427485e-05 7.524194e-05 0.00088702247 0.0011992978 0.00072169106
8.2127546e-05 0.00029889971 0.00270255 0.0007026103 0.0018357214 0.00011035975 0.00030310085 0.002319543
0.0027755504 0.0015917817 0.0002650738 0.00035594494 0.02974869 0.0015844135 0.005245884 0.00013119169
0.0004294958 0.0056091584 0.024531353 0.016532399 0.0013077159 0.00036083636 0.008469295 0.004218485
0.010456904 0.00023809285 0.0019185715 0.013550467 0.009489839 0.0042285123 0.00077048753 0.0010401825
0.006173036 0.0024932772 0.0063954103 0.00013772862 0.0011072212 0.008198893 0.006149218 0.003428006
0.000471086 0.0009778863

model/output/b/v f4 [9]
00000000: 5a05 503a c5ff c43a 752a 1f3b 76f8 cd39
00000010: d999 f938 8208 8e39 d8b3 283b df55 623a
00000020: 39e1 1a3a
0.0007935368 0.0015029839 0.002428678 0.00039285765 0.000119019016 0.0002709069 0.002574196 0.00086340116
0.00059081946
